master_thesis/auto_docking/neural_network_models/best_model.pt (torch, 829487 bytes, 18 tensors)

weight f4 [256, 5]
0	0x3d29c9c9	0.041452203
1	0x3e947476	0.28995103
2	0xbda6013d	-0.08105705
3	0xbd8e0216	-0.069339916
4	0x3d290f0f	0.041274127
5	0x3dd4012c	0.10351786
6	0xbe56dfac	-0.20983762
7	0x3e22b297	0.15888439
8	0x3e39be18	0.18138921
9	0xbdb1f1c2	-0.0868869
10	0xbe2af400	-0.16694641
11	0xbe6c65da	-0.23085728
12	0xbd1a6ce8	-0.037701517
13	0xbee2b9f7	-0.44282505
14	0x3ee0565e	0.43815893
15	0x3d1232f4	0.035693124
16	0x3e63c0e3	0.22241549
17	0xbda5a581	-0.08088208
18	0xbdd82495	-0.105538525
19	0x3ec7e793	0.39043865
20	0x3d864e60	0.065579176
21	0xbe454b1e	-0.19266936
22	0x3ecab9e2	0.39594942
23	0xbd6fd008	-0.058548003
24	0xbd539548	-0.051656038
25	0xbebea5fc	-0.3723601
26	0xbe92afc7	-0.28649732
27	0x3e78d81b	0.24301188
28	0x3e35502b	0.17706363
29	0xbead52a7	-0.3385212
30	0x3dcebddc	0.100948066
31	0xbdfe046c	-0.12403187
32	0xbde49135	-0.111605085
33	0xbdd68b61	-0.10475803
34	0x3e570845	0.20999248
35	0xbd8f2201	-0.069889076
36	0x3edecf25	0.43517414
37	0xbdd84b3e	-0.10561226
38	0xbec1a1cf	-0.37818763
39	0x3ec3da22	0.3825236
40	0xbe1f2398	-0.15540922
41	0xbcc553e0	-0.024087846
42	0x3d1675e8	0.036733538
43	0xbecf261b	-0.4045876
44	0xbee13b21	-0.43990424
45	0xbe7ee1be	-0.24890801
46	0xbe3540f9	-0.17700566
47	0xbdd35c15	-0.10320298
48	0xbdbe633c	-0.09296271
49	0x3ebe0e32	0.37120205
50	0xbf37180b	-0.7152106
51	0x3e33d13e	0.17560288
52	0xbd1e5a7c	-0.03866051
53	0xbe1b65e9	-0.15175594
54	0xbe91b97e	-0.28461832
55	0x3e5f7e1e	0.21825454
56	0xbe6caf8a	-0.23113838
57	0xbca1f22e	-0.0197688
58	0x3e7c2502	0.24623492
59	0x3ebc7c6a	0.3681367
60	0x3d0fc05c	0.035095558
61	0x3d8080f6	0.06274597
62	0xbe426610	-0.18984246
63	0xbe44754a	-0.19185367
64	0xbdcb3850	-0.0992285
65	0x3e825ee2	0.25463015
66	0x3e628ddd	0.22124429
67	0xbbd78f9f	-0.0065784003
68	0xbd2eb70d	-0.04265504
69	0xbeb2253c	-0.34794033
70	0x3ea1f125	0.3162929
71	0x3e424005	0.18969734
72	0xbcc08fca	-0.023506064
73	0xbe3c63f9	-0.18397512
74	0xbbaf5fad	-0.0053519816
75	0xbee6b2d6	-0.45058316
76	0x3d9cd27e	0.07657336
77	0x3d98ba93	0.07457461
78	0xbd37ad98	-0.044843286
79	0xbdd7493b	-0.105120145
80	0x3f667abe	0.9003104
81	0xbe4098d1	-0.18808295
82	0x3ea35cb3	0.3190666
83	0x3ea65362	0.3248549
84	0xbed5ee01	-0.41783145
85	0xbe1fce4a	-0.15606037
86	0x3e9cbbf4	0.30612147
87	0x3f0acdc0	0.542202
88	0x3ded733f	0.11594247
89	0x3ef6013c	0.48047817
90	0x3ebadc9a	0.3649643
91	0x3e456ce5	0.19279821
92	0x3eb937c0	0.36175346
93	0x3e10481d	0.14090009
94	0xbe6c6993	-0.23087148
95	0x3e31e819	0.17373694
96	0x3e0ea53b	0.13930218
97	0xbdc195fa	-0.09452434
98	0xbe93bf49	-0.28856876
99	0xbeaeaffd	-0.34118643
100	0xbecb28b2	-0.39679486
101	0x3e809ad6	0.2511813
102	0x3df25728	0.1183303
103	0xbecd2def	-0.40074107
104	0xbd0c5328	-0.03425899
105	0x3d413f57	0.047179546
106	0x3de41780	0.11137295
107	0x3ed33dc8	0.41258073
108	0x3e7b60ae	0.24548599
109	0xbe6620d0	-0.22473454
110	0x3e00ac49	0.12565722
111	0x3dd83cad	0.10558448
112	0x3e9250b1	0.28577188
113	0x3e6dff5e	0.23241946
114	0x3dd875c3	0.10569336
115	0xbedd1a9e	-0.4318437
116	0xbdb9c250	-0.09070265
117	0xbbb63b00	-0.0055612326
118	0xbeaacb1f	-0.33358094
119	0x3e86c462	0.26321703
120	0x3e94ca38	0.2906053
121	0x3e88899c	0.26667488
122	0xbec38da0	-0.3819399
123	0xbece1c97	-0.40256187
124	0xbe0b7223	-0.13617758
125	0xbe857a54	-0.2606989
126	0x3cb97e64	0.022643276
127	0x3e6fe17f	0.23425864
128	0x3e3b755b	0.18306486
129	0x3f17635f	0.59136003
130	0xbd86e5f9	-0.065868326
131	0xbedef8d4	-0.43549216
132	0xbe460525	-0.193379
133	0x3e2dae1e	0.16960952
134	0xbdfe8287	-0.1242724
135	0xbeb95942	-0.3620091
136	0xbe9b60a5	-0.3034717
137	0x3e905bee	0.28195137
138	0xbcda95a0	-0.026682675
139	0xbdc03700	-0.093854904
140	0x3e06dd22	0.13170293
141	0x3db1fa98	0.08690375
142	0x3e687dea	0.22704282
143	0x3e373701	0.17892076
144	0x3e0a1e74	0.1348818
145	0xbc67f220	-0.014156848
146	0xbe798ade	-0.2436938
147	0x3e1e69e0	0.15470076
148	0xbe54d1c5	-0.20783146
149	0x3e4a22f0	0.1973989
150	0xbe3df9be	-0.185523
151	0x3e1b3506	0.15156946
152	0x3da461a1	0.08026434
153	0x3dabeb99	0.08394546
154	0xbcf4e3a2	-0.0298937
155	0xbece9887	-0.40350744
156	0xbe447137	-0.19183813
157	0xbd3b78cd	-0.0457695
158	0xbd9617c0	-0.07328749
159	0x3e0361b3	0.12830238
160	0xbd778b28	-0.060435444
161	0xbe3d17be	-0.18466088
162	0x3e8e3395	0.2777373
163	0x3e8a1e07	0.26976034
164	0x3e916cad	0.28403226
165	0x3d26dd53	0.040738415
166	0xbe7e00c8	-0.24804986
167	0xbeb0946f	-0.34488246
168	0x3e6c975c	0.23104614
169	0x3e724d6c	0.23662347
170	0x3d390250	0.04516822
171	0xbd9f0e58	-0.07766408
172	0x3dc1f2f8	0.09470171
173	0xbe8135b8	-0.25236297
174	0x3e8049c6	0.25056285
175	0xbdb2e202	-0.08734514
176	0xbe902f16	-0.28160924
177	0x3e67969e	0.2261605
178	0x3eafbf2d	0.34325543
179	0x3e95804f	0.29199454
180	0x3d9d1958	0.076708496
181	0xbeca492e	-0.39508957
182	0x3e220738	0.15823066
183	0x3d0f2a38	0.034952372
184	0x3e80bc92	0.25143868
185	0x3e53acaa	0.20671335
186	0xbe94ec54	-0.29086554
187	0xbe2779b2	-0.16355017
188	0x3eb5bc05	0.3549501
189	0xbc9b1fce	-0.018936064
190	0x3e24e4ab	0.16102855
191	0x3e5c60af	0.21521257
192	0x3df6dac4	0.12053445
193	0xbe20d9f4	-0.15708143
194	0xbd0c28ef	-0.034218725
195	0x3e595313	0.21223097
196	0xbee74141	-0.45166972
197	0x3d0b3ebf	0.033995386
198	0x3e877096	0.26453084
199	0x3e22c847	0.15896712
200	0xbd8351c1	-0.06412078
201	0x3d4a68d4	0.04941638
202	0x3aa321ce	0.0012445988
203	0x3e10c837	0.14138876
204	0x3e91f0a9	0.28503922
205	0xbb9d7386	-0.004805031
206	0x3efa890a	0.48932678
207	0x3d3cfccb	0.04613952
208	0xbe859409	-0.26089504
209	0x3f59d26b	0.850867
210	0x3e7886e7	0.24270211
211	0xbdc23578	-0.094828546
212	0xbed658ce	-0.41864628
213	0x3e8b7be4	0.2724296
214	0xbe7dfeaf	-0.24804185
215	0x3d615180	0.055009365
216	0xbe12d87c	-0.14340395
217	0xbea53f88	-0.32275033
218	0xbe98b17a	-0.29822904
219	0x3e82fa76	0.25581712
220	0xbe8ff162	-0.28113848
221	0x3e2e7719	0.1703762
222	0x3ec9f334	0.39443362
223	0x3e8006bc	0.25005138
224	0x3ea45c7b	0.32101807
225	0x3e72a63c	0.23696226
226	0xbee40992	-0.44538552
227	0x3ec1e44c	0.3786949
228	0x3ecbca40	0.39802742
229	0xbe93fc42	-0.28903395
230	0x3d59072a	0.052985348
231	0xbecde7f9	-0.40216044
232	0xbdc03ecd	-0.09386978
233	0x3e08c721	0.13357212
234	0x3d5ab709	0.053397212
235	0x3eb9e694	0.3630873
236	0x3c3883c2	0.011261882
237	0x3dae28f5	0.08503906
238	0x3d776ac4	0.060404554
239	0xbe19041d	-0.14942975
240	0xbe8bc04c	-0.27295148
241	0x3e93f5f7	0.28898594
242	0x3ec7e8a9	0.39044693
243	0x3eb19661	0.34685043
244	0x3c95f00e	0.018302944
245	0x3ecc3b85	0.3988916
246	0xbe63c713	-0.2224391
247	0xbe74210e	-0.23840734
248	0x3e9f98dc	0.3117131
249	0x3dc5d8a7	0.09660464
250	0xbc97825b	-0.018494776
251	0x3e6f0422	0.2334142
252	0x3eb89f68	0.36059117
253	0xbc2f7333	-0.010708618
254	0x3e987d89	0.29783276
255	0xbece60a2	-0.403081

bias f4 [256]
0	0x3da8653c	0.08222434
1	0x3e29140b	0.16511552
2	0xbdcc5134	-0.09976426
3	0xbe6ab425	-0.22920282
4	0xbe787e1f	-0.24266861
5	0xbef2d30d	-0.47426644
6	0xbe638696	-0.22219309
7	0x3d79b4b7	0.06096336
8	0x3ee0d062	0.43908983
9	0xbe9b6515	-0.30350557
10	0xbdb7ac3b	-0.08968397
11	0xbe5f7ed9	-0.21825732
12	0xbec198e6	-0.37811965
13	0xbe566ac7	-0.2093917
14	0xbd9ef82b	-0.07762178
15	0xbe8754e0	-0.26431942
16	0x3e90ffa8	0.2832005
17	0x3d011691	0.03151566
18	0x3eca7009	0.395386
19	0x3e8a89ad	0.27058163
20	0xbebb5d1e	-0.3659448
21	0x3df70c16	0.12062852
22	0x3c8ce475	0.01719878
23	0x3ea704ae	0.32620758
24	0x3dfc3248	0.12314278
25	0xbea525e2	-0.32255465
26	0x3d86e66f	0.065869205
27	0x3d28b2c0	0.041186094
28	0x3dc0094a	0.09376772
29	0x3d925e18	0.07146853
30	0xbef98de5	-0.4874107
31	0xbdf65491	-0.120278485
32	0xbeb2a54e	-0.34891742
33	0xbe5954ce	-0.21223757
34	0x3e0ecda0	0.13945627
35	0xbf0af417	-0.542787
36	0x3edb116a	0.42786723
37	0xbcf488de	-0.02985042
38	0xbe868a52	-0.26277405
39	0xbe2557da	-0.16146794
40	0x3eaed34d	0.34145585
41	0x3ea9c1b7	0.33155605
42	0x3e6095f4	0.21932203
43	0xbdc58798	-0.09645003
44	0xbe86abc9	-0.26302937
45	0x3e3cd6bc	0.1844129
46	0xbf1863d5	-0.5952733
47	0x3e15bcb5	0.14622767
48	0xbe93048f	-0.28714415
49	0xbe6b869a	-0.23000565
50	0x3e7d1fc4	0.24719149
51	0x3c58bd20	0.013228685
52	0xbe1e5a78	-0.15464199
53	0xbdc2333c	-0.094824284
54	0x3e730592	0.23732594
55	0x3eb54a51	0.3540826
56	0x3d3e9968	0.04653302
57	0x3ea129d8	0.31477237
58	0xbee41ce6	-0.44553298
59	0xbe623abf	-0.22092722
60	0x3eda5762	0.42644793
61	0xbca9b4b0	-0.020716041
62	0x3dd95950	0.10612738
63	0x3e44d28a	0.1922094
64	0x3bb0a800	0.005391121
65	0x3e49e9c8	0.19718087
66	0xbeaad5a0	-0.33366108
67	0x3e917931	0.28412774
68	0xbd9bea95	-0.07613102
69	0x3e3f28b4	0.18667871
70	0x3c6ad8a2	0.014333876
71	0xbe67f8cb	-0.226535
72	0xbe1bbc6c	-0.15208596
73	0xbe231ce6	-0.15928993
74	0xbc767133	-0.015041637
75	0x3ea3fd6f	0.32029292
76	0xbec9357d	-0.3929862
77	0x3e3535b8	0.17696273
78	0x3dcde0c6	0.10052638
79	0xbe86c193	-0.2631956
80	0xbe91a63b	-0.28447136
81	0xbee7b936	-0.45258492
82	0xbedd6319	-0.43239668
83	0x3e97d5dc	0.2965535
84	0x3e1a5eab	0.15075175
85	0x3e10348a	0.14082542
86	0xbdffe374	-0.12494555
87	0x3d11ac0e	0.035564475
88	0xbeac575a	-0.33660394
89	0x3e3133e0	0.17304945
90	0xbed29943	-0.41132554
91	0x3d88a7c7	0.06672626
92	0x3e7b762a	0.24556795
93	0xbe7f24cd	-0.24916382
94	0xbeba2532	-0.36356503
95	0xbd8b8cce	-0.06813966
96	0x3de9dfe8	0.1141966
97	0x3e258a72	0.16166094
98	0xbd830860	-0.06398082
99	0x3e00c5e8	0.12575495
100	0xbf01efb0	-0.5075636
101	0xbda0cefc	-0.07851979
102	0x3ec34f80	0.3814659
103	0xbdb5a5bf	-0.08869504
104	0xbc90b510	-0.017664462
105	0xbe3cc45c	-0.1843428
106	0xbd84ee61	-0.0649078
107	0x3d758f90	0.059951365
108	0xbe7e4054	-0.24829227
109	0xbe80663a	-0.25077993
110	0x3e618095	0.22021706
111	0x3dac6bc8	0.08418995
112	0xbe110efb	-0.14165871
113	0x3dfc1225	0.12308148
114	0xbdea0c52	-0.11428131
115	0xbdcbebe4	-0.09957102
116	0xbe4c8031	-0.19970776
117	0xbe022a49	-0.12711443
118	0x3e27eeb0	0.16399646
119	0x3eacd296	0.33754414
120	0xbd5089d8	-0.050912708
121	0x3e260b13	0.16215162
122	0xbe938111	-0.28809407
123	0xbd90cea0	-0.070706606
124	0x3eaaf294	0.33388197
125	0xbe8426bb	-0.258108
126	0x3edc134c	0.42983472
127	0xbe252f78	-0.16131389
128	0xbe7cfd9f	-0.24706124
129	0x3e38af14	0.18035537
130	0xbc9ea360	-0.019365013
131	0x3ea48d2c	0.32138956
132	0x3d82c940	0.06386042
133	0xbdc69ea2	-0.096982256
134	0x3c94e2cd	0.018174553
135	0x3e956ea7	0.29185984
136	0xbe5be576	-0.21474251
137	0x3dfc52d8	0.12320489
138	0x3e63903e	0.22222993
139	0xbe213c60	-0.15745687
140	0x3e880be2	0.26571566
141	0xbdc275ac	-0.094951004
142	0x3e9995a4	0.2999698
143	0xbe2dca34	-0.16971666
144	0xbe9c5322	-0.30532175
145	0xbea7feff	-0.32811734
146	0xbea1d728	-0.31609464
147	0xbed0f6b5	-0.40813223
148	0xbec47e5e	-0.3837766
149	0xbe92217b	-0.2854117
150	0x3c6e91cf	0.014561131
151	0x3cc2b3a0	0.023767292
152	0x3bd5467e	0.0065086475
153	0x3edfb17c	0.43690097
154	0xbe932dc1	-0.28745845
155	0xbeb1a74d	-0.34697953
156	0xbea735c1	-0.32658198
157	0xbe9c9da3	-0.30589017
158	0xbe36b5d2	-0.17842796
159	0x3ea669f0	0.325027
160	0xbed33b5e	-0.4125623
161	0xbf009846	-0.5023235
162	0xbe73590d	-0.23764439
163	0xbc6da903	-0.014505628
164	0xbe62360b	-0.22090928
165	0x3ea3ca96	0.31990498
166	0xbe8117c9	-0.2521346
167	0xbebd75fa	-0.3700407
168	0xbc7b9b2c	-0.01535682
169	0x3ec62c6a	0.3870576
170	0x3c26bbfa	0.010176653
171	0x3e2deb30	0.16984248
172	0x3e41bbd8	0.18919313
173	0xbec1cf42	-0.37853438
174	0xbd69d271	-0.05708546
175	0xbeb06f9e	-0.34460157
176	0x3ee11746	0.4396307
177	0x3e840278	0.25783134
178	0x3cb6ecf4	0.022329785
179	0x3e237f98	0.15966642
180	0xbe9fd618	-0.31218028
181	0x3e9be73e	0.3044986
182	0x3ce1f930	0.027584642
183	0x3deb87b8	0.11500496
184	0xbef41f22	-0.47680002
185	0xbeca6ce6	-0.39536208
186	0x3c2d7400	0.010586739
187	0x3ed2e2cc	0.41188657
188	0xbea05193	-0.31312236
189	0xbe6d8c31	-0.2319801
190	0xbe3e1be8	-0.18565333
191	0x3ec3398c	0.38129842
192	0x3ecacaf4	0.39607966
193	0x3ca876db	0.020564487
194	0xbea5f5ca	-0.32414085
195	0xbe674e7d	-0.22588535
196	0x3eb1b3be	0.34707445
197	0x3e8fa0d4	0.2805239
198	0xbee3e5a0	-0.44511127
199	0xbe7b51cf	-0.24542926
200	0xbed2e4ff	-0.41190335
201	0xbee074dd	-0.4383916
202	0x3e6e12ef	0.2324941
203	0xbe852046	-0.26001185
204	0xbeb4390d	-0.35199776
205	0x3e0d6cb9	0.13811006
206	0x3e143e28	0.14476836
207	0xbe5fa4b2	-0.2184017
208	0xbeba884e	-0.36432117
209	0xbe375bce	-0.17906114
210	0x3eb73c27	0.3578808
211	0xbde6d815	-0.11271683
212	0xbe1c2260	-0.15247488
213	0xbe24c068	-0.16089022
214	0x3e9044f1	0.28177598
215	0xbe4878cb	-0.19577329
216	0xbc0feb00	-0.008784056
217	0x3e99862e	0.29985183
218	0x3d15f232	0.03660793
219	0x3e960a48	0.2930472
220	0xbdacd1a4	-0.08438423
221	0xbeba214a	-0.36353523
222	0xbcd30cad	-0.02576288
223	0xbec0681c	-0.3757943
224	0xbdf2642c	-0.118355125
225	0xbdcd2ef4	-0.10018721
226	0x3ed9323f	0.42421147
227	0x3d1ecb91	0.038768355
228	0xbec9bd2f	-0.39402148
229	0x3eaa7377	0.33291218
230	0xbe735ead	-0.23766585
231	0xbeb23a6e	-0.34810203
232	0xbd55c6f5	-0.052191693
233	0x3f014488	0.50495195
234	0x3db37e02	0.087642685
235	0xbec06145	-0.3757421
236	0x3e11bab2	0.14231375
237	0xbca1a45b	-0.019731691
238	0x3e0c9159	0.1372732
239	0x3e9c172c	0.3048643
240	0x3e18e52d	0.14931174
241	0xbe7e5627	-0.24837552
242	0x3e830763	0.25591573
243	0x3d543719	0.051810358
244	0x3ecef9c8	0.40424943
245	0xbc93d770	-0.018047065
246	0xbdb08417	-0.08618944
247	0x3e29792b	0.16550128
248	0x3eae6a92	0.34065682
249	0xbc532d81	-0.012889267
250	0xbe40b557	-0.18819176
251	0x3df98db6	0.12185232
252	0x3eca6fb6	0.39538354
253	0xbee4adcf	-0.44663855
254	0x3ea7db99	0.32784727
255	0x3ea59eaf	0.32347628

weight f4 [256, 256]
0	0x3b8a8400	0.0042271614
1	0x3bcb3570	0.0062014386
2	0xbd048e14	-0.03236206
3	0xbd220f66	-0.039565466
4	0x3d112686	0.03543713
5	0xbd0032e2	-0.031298526
6	0xbb49b380	-0.0030777156
7	0xbc063cc8	-0.008193202
8	0xbc290af0	-0.010317549
9	0xbd1fe9ee	-0.039041452
10	0x3b726100	0.0036984086
11	0xbc0cb1a0	-0.008587271
12	0x3d572460	0.052524924
13	0xbd429dcc	-0.047513768
14	0xbb9fdf20	-0.0048788935
15	0x3b443b00	0.0029942393
16	0x3c652e40	0.013988078
17	0xbc765510	-0.015034929
18	0xbbe95a40	-0.0071213543
19	0x3b40a660	0.0029396042
20	0x3d11cb6c	0.03559439
21	0x3d42eb06	0.047587417
22	0xbcc61e9c	-0.024184518
23	0xbc1c2d90	-0.009532347
24	0x3d5ade00	0.053434372
25	0x3cefc1c8	0.029267207
26	0x3abcb480	0.0014397055
27	0x3d5fbbd0	0.05462247
28	0x3b28c020	0.002574928
29	0xbd6d7d56	-0.057980858
30	0xbd502fa6	-0.05082669
31	0xbd577188	-0.052598506
32	0x3ce35ff8	0.027755722
33	0xbd5795b4	-0.052633002
34	0x3d436578	0.04770419
35	0xbb5d5920	-0.0033775046
36	0xbd72ecfa	-0.05930803
37	0x3c3ffb10	0.011717573
38	0x3d1f9882	0.038963802
39	0x3d7083f4	0.05871959
40	0xbc2be458	-0.010491453
41	0x3c7f4e18	0.015582584
42	0xbd1b6502	-0.037938125
43	0x3bef7930	0.007308148
44	0x3d406ed4	0.046980694
45	0x3d752fac	0.059859917
46	0xbd16b91e	-0.036797635
47	0xbd01eba0	-0.03171885
48	0xbd455598	-0.04817733
49	0x3ccbb508	0.024866596
50	0xbd7c8030	-0.061645687
51	0x3cc8cab4	0.024510719
52	0xbc736e98	-0.014857911
53	0xbd132cf8	-0.035931557
54	0xbd4c48be	-0.04987406
55	0xbceccd40	-0.028906465
56	0xbcbc55e4	-0.022990175
57	0x3d20becc	0.039244458
58	0xbd7a015c	-0.061036453
59	0xbcf06978	-0.029347166
60	0x3d75a386	0.0599704
61	0xbd291076	-0.041275464
62	0x3d4259bc	0.04744886
63	0xbbf95410	-0.007608898
64	0x3be66f60	0.00703232
65	0x3d2fce06	0.04292109
66	0xbc74adb0	-0.014933988
67	0x3cee6b14	0.029103793
68	0xbd435c94	-0.04769571
69	0xbca30380	-0.01989913
70	0xbd1d7690	-0.038443148
71	0xbd0ec2e8	-0.034853846
72	0xbcec20c8	-0.028824225
73	0x3b723640	0.0036958605
74	0xbc0b5a68	-0.008505441
75	0xbd1d752c	-0.038441822
76	0xbd38e09c	-0.04513608
77	0xbcc31284	-0.02381254
78	0x3d52a61e	0.051427953
79	0xbd361930	-0.044457614
80	0xbd5282b6	-0.051394187
81	0x3d6fa3e4	0.058505908
82	0x3a211b00	0.0006145686
83	0x3cac8b74	0.02106259
84	0xbd0b3816	-0.033989035
85	0xbc54ce48	-0.012988634
86	0xbd264cc0	-0.04060054
87	0xbc276030	-0.010215804
88	0x3d38265c	0.044958457
89	0xbcb07478	-0.021539912
90	0x3ce5cabc	0.028050773
91	0x3d26dae6	0.0407361
92	0xbd780a2c	-0.060556576
93	0xbb650420	-0.0034945086
94	0xbd67d4fa	-0.056599595
95	0x3ce65348	0.028115883
96	0xbbd17840	-0.0063925087
97	0xbd067cc6	-0.032833837
98	0x3d4202a8	0.047365814
99	0xbba21f50	-0.0049475804
100	0xbd1eb6e4	-0.038748637
101	0xbd03f1a6	-0.032212876
102	0x3ce2bc1c	0.027677588
103	0xbd2dcefc	-0.042433724
104	0x3c0bf268	0.008541681
105	0x3d4a5e5a	0.049406387
106	0xbcf5130c	-0.029916309
107	0x3d7fb270	0.06242603
108	0x3d58e59a	0.05295334
109	0xbcb5ca40	-0.022191167
110	0xbb55df80	-0.0032634437
111	0x3c584148	0.013199158
112	0x3d0adf9c	0.033904657
113	0x3cd22638	0.02565299
114	0xbcceb318	-0.025231883
115	0x3ca96e84	0.02068258
116	0x3c83ef1c	0.016105227
117	0x3caee838	0.021350965
118	0xbc3de4a8	-0.01159016
119	0x3d273568	0.040822417
120	0xbbf787e0	-0.0075540394
121	0x3cecb684	0.028895624
122	0xbb2d58e0	-0.0026450679
123	0x3d12c9a4	0.03583683
124	0xbcfa3a78	-0.030545458
125	0xbd4cf4ac	-0.050038025
126	0xbd6924a4	-0.05691971
127	0xbd298844	-0.04138972
128	0x3a8c1140	0.0010686293
129	0xbd0c2ed2	-0.03422434
130	0xbd1e6142	-0.03866697
131	0xbaec3340	-0.0018020645
132	0x3d10f400	0.035388947
133	0x39aa0b00	0.00032433122
134	0xbd15aa60	-0.036539435
135	0x3d7b19be	0.061303847
136	0x3d1c3a82	0.038141735
137	0x3d55c6da	0.052191593
138	0xbd320628	-0.043462902
139	0xbc0bff18	-0.008544706
140	0xbcf95bec	-0.03043934
141	0x3c68d318	0.014210485
142	0x3d2a84d8	0.041630596
143	0xbd70c4ee	-0.058781557
144	0xbc484d48	-0.012225457
145	0xbcea91c4	-0.02863396
146	0x3d6c5b68	0.05770436
147	0x3c914728	0.017734125
148	0xbd08a34c	-0.033358857
149	0xbd2e6a46	-0.04258182
150	0xbc6e5748	-0.014547177
151	0x3be5e710	0.00701607
152	0x3c781568	0.015141822
153	0xbcf6e8b0	-0.03014025
154	0xbd31a566	-0.043370627
155	0x3d3a8070	0.045532644
156	0xbd3784f2	-0.04480452
157	0xbd2c72f4	-0.042101815
158	0xbd6d067e	-0.05786752
159	0xbd77f15e	-0.06053292
160	0xbcff10fc	-0.031136028
161	0x3d107510	0.03526789
162	0xbd606ffa	-0.05479429
163	0xba862480	-0.0010234267
164	0x3c481be8	0.012213685
165	0xbd056ef6	-0.032576524
166	0xbd62dd2a	-0.0553867
167	0xbd5497e4	-0.051902667
168	0xbd173840	-0.03691888
169	0x3baa5c00	0.0051989555
170	0x3cdba44c	0.026811741
171	0x3cd73384	0.026269682
172	0x3d0420b0	0.032257736
173	0xbd2cb998	-0.042169183
174	0xbcb407f8	-0.021976456
175	0x3c3e1e00	0.011603832
176	0x3d6b24d8	0.057408184
177	0x3d540c0a	0.051769294
178	0xbd55879a	-0.052131273
179	0x3c7a8af0	0.015291914
180	0x3c8cf22c	0.01720532
181	0x3ce1bfc8	0.027557269
182	0x3cf28bdc	0.029607706
183	0xbd3ce8b4	-0.04612036
184	0xbd6cbf24	-0.057799473
185	0x3be68950	0.007035412
186	0xbc99c238	-0.018769369
187	0x3b522480	0.0032065213
188	0xbd4f51e8	-0.05061522
189	0x3d03abda	0.032146312
190	0x3d295a58	0.041345924
191	0xbc97317c	-0.018456213
192	0x3d1969fc	0.03745459
193	0xbd722494	-0.059116915
194	0x3d2c3ada	0.042048313
195	0x3c6c86c8	0.014436431
196	0xbc882af8	-0.016622052
197	0x3cd2d544	0.025736459
198	0x3c9dbb2c	0.01925429
199	0xbd25cea2	-0.040480264
200	0xbb8f9820	-0.0043821484
201	0xbd71abf4	-0.059001878
202	0x3d091c14	0.033474043
203	0xbd0511ae	-0.032487564
204	0xbbba4980	-0.0056850314
205	0xbb979eb0	-0.0046270713
206	0xbcd6c388	-0.026216283
207	0x3d7a21ea	0.0610675
208	0x3d3d5a38	0.046228617
209	0xbd43c9fa	-0.04780004
210	0xbbcf21c0	-0.006321162
211	0x3c7d8228	0.015472926
212	0xbc8b98cc	-0.017040633
213	0xbcaab05c	-0.020836048
214	0xbce0c118	-0.027435824
215	0x3d12af02	0.03581143
216	0x3c838e58	0.016059086
217	0xbd4a42f2	-0.04938025
218	0xbd6be498	-0.05759105
219	0xbc81fb84	-0.015867002
220	0x3cda0da4	0.026617832
221	0x3d5122cc	0.051058576
222	0xbd61bff2	-0.055114694
223	0xbd0490ec	-0.03236477
224	0xbd506a48	-0.050882608
225	0xbd377a9c	-0.044794664
226	0x3ccbf258	0.024895832
227	0xbd3c02c4	-0.045901075
228	0x3cdaf384	0.026727445
229	0x3c1fc8a8	0.00975243
230	0x3cff4524	0.031160899
231	0xbc2e9380	-0.010655284
232	0x3d22c8f0	0.03974241
233	0xbd31d6e6	-0.043417834
234	0x3d7f77fa	0.062370278
235	0xbc5f8d48	-0.013644524
236	0xbcfe3a98	-0.031033799
237	0x3d44b5e8	0.04802504
238	0xbccecde8	-0.025244668
239	0x3c3a4730	0.0113695115
240	0xbcadf514	-0.021235026
241	0x3cb8af2c	0.022544466
242	0xbd51d52a	-0.05122868
243	0xbd788424	-0.060672894
244	0xbaa2d600	-0.0012423396
245	0x3d5beeba	0.053694464
246	0xbd447d0c	-0.047970816
247	0xbd609ff6	-0.05484005
248	0x3d526b8a	0.05137209
249	0xbd47cbda	-0.048778392
250	0xbccbf574	-0.024897315
251	0x3d17a3b4	0.037021354
252	0x3c9b4f40	0.018958688
253	0x3d375102	0.04475499
254	0xbc9cf4f4	-0.019159772
255	0xbd630660	-0.055426

bias f4 [256]
0	0x3d099c9a	0.033596613
1	0x3b948350	0.004532255
2	0xbb96a1e3	-0.004596935
3	0x3a976009	0.0011549006
4	0x3d21d80e	0.039512686
5	0x3d7bf1bc	0.061509833
6	0x3c806862	0.015674774
7	0x3c85e4cf	0.016344456
8	0xbd25d2db	-0.04048429
9	0xbd8a6e0f	-0.06759273
10	0x3c9c9013	0.019111669
11	0xbd2f77a9	-0.042838726
12	0xbb8cadb0	-0.004293166
13	0xbd12dbaa	-0.03585402
14	0x3d16a412	0.036777563
15	0x3d425a31	0.047449294
16	0x3d6b520c	0.057451293
17	0x3d421d28	0.047391087
18	0xbb5463d1	-0.0032408128
19	0x3c15b3af	0.009137078
20	0xbc4b8678	-0.012422197
21	0xbc0f8bf2	-0.008761393
22	0xbd59d6aa	-0.053183235
23	0x3d7ff330	0.06248778
24	0x3d5d2362	0.05398882
25	0x3b058a40	0.0020376593
26	0x3ca835ac	0.020533405
27	0xbd34a6d8	-0.044104427
28	0xbdac0cdb	-0.084008895
29	0x3cff98fe	0.031200882
30	0xbd5382dc	-0.05163847
31	0x3d0dcf2a	0.034621395
32	0x3d140ba9	0.036143932
33	0xbd0d0138	-0.03442499
34	0x3d617b7e	0.055049412
35	0xbd635826	-0.055503987
36	0x3ba58122	0.005050794
37	0xbb86d3b6	-0.0041145934
38	0xbd361feb	-0.044464033
39	0xbcac612e	-0.021042433
40	0x3d17bf46	0.037047647
41	0x3d58a697	0.052893247
42	0xbcbac9b1	-0.022801252
43	0x3d4514be	0.048115484
44	0xbd56c4b3	-0.05243368
45	0x3d0df91b	0.034661394
46	0xbd554880	-0.052071095
47	0xbc969a70	-0.018384188
48	0x3c419586	0.011815434
49	0xbc93e9f4	-0.018055893
50	0xbd473a7f	-0.04863977
51	0x3d771836	0.060325824
52	0xbd338b96	-0.04383429
53	0xbd4591e0	-0.04823482
54	0xb952a83f	-0.00020089837
55	0xbd3bec7f	-0.045879837
56	0x3cdfe8e3	0.027332729
57	0xbd529406	-0.051410697
58	0xbc02e453	-0.007989007
59	0x3d4f8da8	0.050672203
60	0xbca3d120	-0.01999718
61	0x3d26ab0a	0.04069046
62	0xbc3503e8	-0.011048295
63	0xbd8bbddd	-0.06823323
64	0xbc7fde23	-0.015616926
65	0xbd245a0e	-0.040124945
66	0x3ceb0408	0.028688446
67	0xbd6b3892	-0.057426997
68	0x3cd5b370	0.026086539
69	0xbd77e2ca	-0.060519017
70	0x3cd32b54	0.025777496
71	0xbb169b78	-0.002298085
72	0xbd0e1106	-0.034684204
73	0x3bed2f4d	0.0072383047
74	0xbb881d57	-0.004153888
75	0xbcff4858	-0.031162426
76	0xbd00a4e5	-0.031407256
77	0x3b2af4c0	0.0026085824
78	0xbd21bf10	-0.039488852
79	0x3c697e36	0.014251282
80	0xbdb49425	-0.08817319
81	0x3d548f30	0.051894367
82	0xbdaf0d9f	-0.0854752
83	0xbcd54097	-0.026031775
84	0x3d0546c0	0.032538176
85	0x3d40cefc	0.047072396
86	0xbcd2e521	-0.025744023
87	0xbbd47eed	-0.0064848573
88	0xbd7cf312	-0.061755247
89	0xbc1b2b98	-0.009470843
90	0x3d753738	0.059867114
91	0x3c729984	0.014807109
92	0xbd3d72fa	-0.04625223
93	0xbd96a7f1	-0.07356251
94	0x3d15d698	0.036581606
95	0x3cadaaae	0.02119955
96	0xbbfb6b60	-0.007672712
97	0x3d719ef2	0.058989473
98	0x3d127ab5	0.035761554
99	0xbd1816a8	-0.03713098
100	0xbbe39941	-0.0069457595
101	0x3c049b17	0.008093617
102	0xbd0c7bf2	-0.03429789
103	0xbcf5754c	-0.029963158
104	0xbd9b5a9b	-0.07585641
105	0xbb827940	-0.0039817393
106	0xbd9474f6	-0.07248871
107	0xbd82d27b	-0.06387802
108	0x3bbddc87	0.005794111
109	0xbc4b8ba1	-0.012423427
110	0xbd5f58b0	-0.05452794
111	0x3c5fdb3c	0.013663109
112	0x3d7b45a8	0.061345726
113	0xbc724ab8	-0.014788322
114	0xbd551e46	-0.052030824
115	0x3c999eca	0.018752474
116	0x3d17ff46	0.037108682
117	0x3d1329b8	0.035928458
118	0xbd9ef553	-0.07761636
119	0x3d0f7f6e	0.035033636
120	0x3d0ed6f2	0.034872957
121	0xbdb25753	-0.08708062
122	0x3c06461e	0.008195428
123	0xbdbe667e	-0.092968926
124	0xbdc03a72	-0.093861476
125	0xbd8001de	-0.06250356
126	0xbd2a9e80	-0.041655064
127	0x3e93c7e2	0.28863436
128	0xbc827278	-0.015923724
129	0xbd79e80c	-0.061012313
130	0xbd46ae22	-0.04850591
131	0xbd1aae7e	-0.037764065
132	0x3d2fc6c2	0.04291416
133	0xbca2c803	-0.019870764
134	0xbcc7bd5b	-0.024382284
135	0x3c95cded	0.01828667
136	0x3b601cd0	0.003419686
137	0xbd42dfcc	-0.04757671
138	0xbd90d873	-0.070725344
139	0x3b8f4484	0.0043721814
140	0x3ca6d3bc	0.020364635
141	0xbcb9d9a7	-0.022686793
142	0x3c4c44c0	0.012467563
143	0xbc371457	-0.011174283
144	0x3bbe8190	0.005813785
145	0x3cb2478a	0.021762628
146	0x3abba773	0.0014316872
147	0x3ccd58ec	0.025066815
148	0x3c1c3137	0.009533218
149	0xbcb3c730	-0.021945566
150	0x3cd2ab3c	0.025716417
151	0xbce651c1	-0.028115155
152	0x3c21ed74	0.009883273
153	0x3ca32987	0.019917263
154	0xbd92f583	-0.07175734
155	0xbbde570a	-0.006785278
156	0xbc695d00	-0.014243364
157	0xbb20cefb	-0.0024537432
158	0x3d67e730	0.056616962
159	0x3cf9f15a	0.030510593
160	0x3ca2b2fb	0.019860735
161	0xbcdd21fa	-0.02699374
162	0xbcd6d46c	-0.026224338
163	0xbd116495	-0.035496313
164	0xbd70fcdc	-0.058834895
165	0xbdaf7dce	-0.08568917
166	0xbd028e9c	-0.031874284
167	0xbca80e03	-0.020514494
168	0x3d62916c	0.055314466
169	0xbce21924	-0.027599879
170	0x3cc96883	0.024585968
171	0x3c8f1504	0.017466076
172	0x3d07c264	0.03314437
173	0xbc1fac29	-0.009745636
174	0x3c9178ed	0.017757857
175	0x3cd63d4e	0.02615228
176	0xbd9a1c94	-0.07524982
177	0xbd15aff3	-0.03654475
178	0xbd45a8ce	-0.048256688
179	0xbbed63d3	-0.007244566
180	0xbdbe1b32	-0.09282531
181	0x3d43630d	0.047701884
182	0xb9090601	-0.00013067575
183	0x3c5e8e92	0.013583796
184	0x3d3be536	0.04587289
185	0xbcbb73d4	-0.02288238
186	0x3d17572a	0.03694836
187	0x3cab458c	0.020907186
188	0x3cb599db	0.02216809
189	0x3ae98900	0.0017817318
190	0x3d427a3e	0.04747986
191	0x3d07fa40	0.03319764
192	0xbad96600	-0.0016586185
193	0x3d34633e	0.044039957
194	0xbd674bea	-0.05646888
195	0xbd4c9631	-0.04994792
196	0xbd42f737	-0.047599044
197	0xbd649bbc	-0.055812582
198	0xbd95b449	-0.07309777
199	0xbd73866c	-0.059454367
200	0xbd7dc285	-0.061953086
201	0x3c998db7	0.018744333
202	0x3d33fada	0.043940403
203	0x3c4068df	0.011743753
204	0x3ccdf1a5	0.02513964
205	0xbd3ae612	-0.04562957
206	0x3d31cffe	0.043411247
207	0x3c801462	0.01563472
208	0xbba3d137	-0.0049993056
209	0xbdb615a7	-0.088908486
210	0x3ceee8f8	0.029163823
211	0xbcaabc1c	-0.02084165
212	0xbcd24b94	-0.025670804
213	0x3d886123	0.06659152
214	0xbd7cb18a	-0.061692752
215	0x3a612480	0.0008588508
216	0xbc8a74be	-0.01690137
217	0xbd90ed78	-0.070765436
218	0x3d4c76ef	0.04991811
219	0x3c1bb538	0.009503655
220	0xbd58b39e	-0.05290567
221	0xbccd84b8	-0.0250877
222	0x3c49f3f3	0.012326228
223	0xbd045ff8	-0.032318085
224	0xbc77a158	-0.015114151
225	0x3b1cfd62	0.002395474
226	0xbc321f18	-0.010871671
227	0xbd798005	-0.060913105
228	0xbc53bec4	-0.0129239
229	0x3bfe3d41	0.007758767
230	0xbcd24fc4	-0.0256728
231	0xbd139f9d	-0.03604089
232	0xbca29b1c	-0.019849353
233	0xbca1cf64	-0.019752212
234	0xbd4c3f34	-0.049864963
235	0x3cf6bd6c	0.03011962
236	0x3d04da1c	0.032434568
237	0xbcd13d45	-0.02554191
238	0x3a2eb000	0.0006663799
239	0x3ce04970	0.027378768
240	0x3cdb2141	0.026749255
241	0x3d54fac7	0.051996972
242	0xbcac49f6	-0.021031361
243	0xbc7ff690	-0.01562275
244	0xbd667c82	-0.056271084
245	0x3bc2b602	0.005942107
246	0xbd8371fc	-0.06418225
247	0xbd2facf8	-0.042889565
248	0xbd519ec2	-0.051176794
249	0xbdcd45ef	-0.100231044
250	0x3c4dc827	0.012559927
251	0x3ce36a53	0.02776066
252	0xbd1598a3	-0.03652252
253	0x3c4c01e9	0.012451627
254	0xbd8305ff	-0.06397628
255	0x3d0ae18e	0.033906512

weight f4 [5, 256]
0	0xbca416b0	-0.02003035
1	0x3cf1a62c	0.029498182
2	0x3beb04c2	0.007172198
3	0x3d2e83b0	0.042606056
4	0x3c965010	0.018348724
5	0x3d4b3ace	0.049616627
6	0xbd5b4018	-0.05352792
7	0x3c748127	0.01492337
8	0x3c94620c	0.018113159
9	0x3d5caace	0.05387383
10	0xbc037225	-0.00802282
11	0x3c923aa0	0.01785022
12	0xbcc2db90	-0.023786336
13	0x3d134f0f	0.035964068
14	0x3d0705b9	0.032964442
15	0xbbb93e97	-0.0056532132
16	0x3d020fac	0.031753227
17	0xbcafa668	-0.021441653
18	0x3d0de5da	0.03464303
19	0xbd045ea7	-0.03231683
20	0x3c022bf8	0.007945053
21	0x3a1777e1	0.0005778056
22	0x3d79268c	0.060827777
23	0xbc146ea0	-0.009059578
24	0x3ca23e03	0.01980496
25	0xbd383d0a	-0.044980086
26	0xbd6cd512	-0.057820387
27	0x3d0c334a	0.0342286
28	0x3cb3a8d0	0.021931082
29	0x3d0266bb	0.031836253
30	0xbc769ef8	-0.01505255
31	0x3cb3793e	0.021908399
32	0xbca97c98	-0.020689294
33	0xbc31d910	-0.010854974
34	0x3d613016	0.0549775
35	0xbaa14eba	-0.0012306788
36	0x3bb198e8	0.005419839
37	0xbd38b0ae	-0.04509037
38	0xbbe2127b	-0.0068991757
39	0xbcec5730	-0.028850168
40	0xbbc136a0	-0.0058964044
41	0x3b858de6	0.0040757535
42	0xbcfe9ba5	-0.031080076
43	0xbc109240	-0.008823931
44	0x3d7b691a	0.06137953
45	0x3db74661	0.089489706
46	0x3d1615ca	0.036641873
47	0x3c7678d0	0.015043452
48	0xb9f70e06	-0.0004712196
49	0xbc91c89b	-0.017795851
50	0xbcd1ae81	-0.025595905
51	0xbcd7c5d4	-0.026339449
52	0xbd0225f6	-0.031774484
53	0x3da12b47	0.078695826
54	0x3d080440	0.033207178
55	0x3cc85afc	0.024457447
56	0x3c70d997	0.014700315
57	0x3d56483d	0.052314986
58	0x3d14fc10	0.036373198
59	0x3b861470	0.004091792
60	0xbd61256c	-0.05496733
61	0x39db7a00	0.00041861832
62	0xbd644f2a	-0.05573956
63	0x3d14dcf5	0.036343534
64	0x3d5fe956	0.054665886
65	0xbb8466fb	-0.0040405965
66	0xbd499264	-0.049211875
67	0x3bbc2a60	0.005742356
68	0x3c0ff1bc	0.008785661
69	0x3cd00d93	0.025397098
70	0xbc541ee1	-0.012946815
71	0x3c2aead8	0.010431968
72	0x3c51eb10	0.012812391
73	0x3d64d586	0.055867694
74	0x3d161180	0.036637783
75	0x3cf05e1e	0.029341754
76	0xbcf312ba	-0.029672015
77	0xbc5fd820	-0.013662368
78	0x3c076122	0.008262904
79	0x3d37d89a	0.0448843
80	0x3c78393b	0.015150364
81	0x3ce76242	0.028245095
82	0xbbfa9091	-0.007646628
83	0x3cf0dcb8	0.029402122
84	0xbd56cebc	-0.05244325
85	0x3c279c56	0.0102301445
86	0xbc9425cc	-0.01808443
87	0x3c8b88f9	0.017033087
88	0xbd26ec20	-0.04075253
89	0xbc323658	-0.010877214
90	0xbd55fc1a	-0.052242376
91	0xbbb82e5e	-0.005620762
92	0x3d409362	0.047015555
93	0xbd6a906a	-0.05726663
94	0xbb6ad0e0	-0.0035830066
95	0xbb59f966	-0.0033260225
96	0x3c1e6c88	0.009669431
97	0xbd1dcb18	-0.038523763
98	0x3cb54c28	0.02213104
99	0xbce8cc0c	-0.02841761
100	0x3cabce73	0.020972466
101	0x3d5bddc6	0.053678297
102	0xbc2e41e0	-0.010635823
103	0xbb9612b0	-0.0045798644
104	0x3c889751	0.016673716
105	0x3d517506	0.051136993
106	0xbc089520	-0.008336335
107	0x3d1cd65d	0.03829037
108	0xbcd175c0	-0.025568843
109	0x3cb0523c	0.021523587
110	0xbcf67500	-0.030085087
111	0xbc23bc7d	-0.00999367
112	0x3d2f47fa	0.04279325
113	0xbd6cedb2	-0.05784387
114	0xbc649e20	-0.013953716
115	0x3c4534ba	0.012036497
116	0x3c31f8a8	0.010862507
117	0xbc8a45b8	-0.016878948
118	0x3cb4cb08	0.02206947
119	0x3d113d06	0.035458587
120	0xbd140198	-0.036134332
121	0x3c0a5db8	0.008445196
122	0x3b5a15a0	0.003327705
123	0xbcc3b6bf	-0.023890851
124	0x3c6fbf08	0.014632948
125	0xbd418040	-0.04724145
126	0x3d13b8b6	0.036064826
127	0x3dab3b88	0.08360964
128	0xbaeff7c0	-0.0018308088
129	0xbd202624	-0.039098874
130	0xbd0b7398	-0.034045786
131	0xbd18a56e	-0.03726714
132	0x3d47fc48	0.04882458
133	0x3d6c7d3b	0.057736617
134	0x3d24a4d0	0.04019624
135	0x3cce2f17	0.025168939
136	0x3d3e4c60	0.046459556
137	0xbd535a95	-0.051600058
138	0x3bbdddc6	0.0057942597
139	0x3ce90684	0.02844549
140	0xbd561710	-0.052268088
141	0xbd2e4f48	-0.042556077
142	0x3caa010b	0.02075245
143	0xbce0236c	-0.02736064
144	0x3c501a58	0.012701593
145	0xbc7e9013	-0.01553728
146	0xbca84556	-0.020540874
147	0x3cbb9ba3	0.022901362
148	0x3d056e6c	0.03257601
149	0xbcea76f4	-0.028621174
150	0xbcecbd0c	-0.028898738
151	0xbb2a1080	-0.0025949776
152	0xbc057f98	-0.0081480965
153	0xbd03e168	-0.032197386
154	0x3cb48228	0.02203472
155	0x3be3c990	0.0069515184
156	0xbcd99318	-0.026559398
157	0xbd1ff482	-0.03905154
158	0x3c784b78	0.015154712
159	0x3d255492	0.040363856
160	0x3cd0e15a	0.025498081
161	0x3b9b33ee	0.004736415
162	0xbc49b8e0	-0.012312144
163	0x3d516348	0.051120073
164	0xbb0f139e	-0.002183176
165	0xbd1cbfd2	-0.03826887
166	0xbd00c530	-0.031438053
167	0x3cf48b9e	0.02985173
168	0x3bb30710	0.0054634884
169	0xbca4155d	-0.020029718
170	0x3cdb6a7d	0.026784176
171	0xbb89570f	-0.0041912864
172	0x3d2ce612	0.0422116
173	0xbd48612c	-0.048920795
174	0xbc8e8b69	-0.01740046
175	0x3d8f1f4f	0.069883935
176	0xbc804dea	-0.015662152
177	0x3cb6f742	0.022334699
178	0xbcb74064	-0.022369571
179	0x3bd92482	0.0066266665
180	0x3c7b5d38	0.015342049
181	0x3c885624	0.016642638
182	0x3c7591cf	0.014988377
183	0x38c32d13	9.30672e-05
184	0x3c218060	0.009857267
185	0x3ca30bad	0.019903028
186	0x3c62d660	0.013845056
187	0x3d32b338	0.043627948
188	0xbd38ec90	-0.04514748
189	0x3b4d7fe0	0.0031356737
190	0xbb995ea8	-0.0046804734
191	0xbca0bed4	-0.019622244
192	0xbd54d438	-0.0519602
193	0xbcaf412c	-0.021393381
194	0xbd563dba	-0.05230496
195	0xbcc184a0	-0.02362281
196	0x3ccff887	0.025387062
197	0x3d288c85	0.041149635
198	0x3c82aed2	0.015952501
199	0x3d71adb8	0.05900356
200	0xbc85d559	-0.016337084
201	0x3d80832f	0.06275021
202	0x3cab45ff	0.0209074
203	0xbc54b3d9	-0.012982332
204	0x3c819bed	0.015821422
205	0x3d71e3ce	0.059055142
206	0x3c5f9818	0.013647102
207	0xbd48bc44	-0.04900767
208	0xba58d1a0	-0.00082709827
209	0x3cba12d1	0.02271405
210	0xbd07b558	-0.033131927
211	0x3c685351	0.01418002
212	0x3c80386e	0.015651908
213	0x3d36db8f	0.04464298
214	0xbce410ca	-0.027840037
215	0x3d303d4a	0.0430272
216	0x3c818847	0.015812052
217	0x3c704ba0	0.014666468
218	0x3d1664a0	0.036717057
219	0x3c67c4b5	0.01414602
220	0xbcdc82f4	-0.026917912
221	0x3c5ec2aa	0.013596216
222	0x3cc4e7be	0.024036285
223	0x3d6fd0bc	0.058548674
224	0x3b67ad00	0.0035350919
225	0xbc18efbe	-0.009334503
226	0xbc210960	-0.009828895
227	0x3a8a89f5	0.0010569679
228	0x3cb7c555	0.022432962
229	0x3cad5beb	0.021161994
230	0xbd083a70	-0.033258855
231	0x3c658576	0.01400887
232	0x3ccf3e54	0.025298275
233	0x3d0387b6	0.032111846
234	0x3d2fa082	0.04287768
235	0x3d77e0b4	0.060517028
236	0x3d27538c	0.04085116
237	0x3d0dab7f	0.03458738
238	0x3d5e5c86	0.054287456
239	0x3d1f4c58	0.038891166
240	0x3c5c7118	0.013454698
241	0x3c4a5fae	0.012351913
242	0xbc46e4a2	-0.012139471
243	0x3d1a2daa	0.037641205
244	0x3d720abe	0.059092276
245	0x3d021c9d	0.03176557
246	0x3d39a093	0.04531915
247	0xbd1336e9	-0.03594104
248	0x3d1bef7b	0.038070183
249	0xbd0735f3	-0.033010434
250	0x3c410b37	0.011782459
251	0xbd0d31f9	-0.034471486
252	0x3ce6e865	0.028186986
253	0x3c904601	0.017611505
254	0x3d1af25e	0.037828796
255	0x3cef629a	0.029221822

bias f4 [5]
0	0x3d3c4822	0.04596723
1	0x3c14ef3e	0.009090243
2	0x3d3a8461	0.045536403
3	0x3d3c3cfd	0.0459566
4	0x3d446814	0.04795082

exp_avg f4 [256, 5]
0	0x37f9d243	2.9781024e-05
1	0x39a5eff9	0.00031650046
2	0x39170ea4	0.00014405936
3	0x3916bd08	0.00014375534
4	0xb81bad8e	-3.7116515e-05
5	0x80000004	-6e-45
6	0x00000004	6e-45
7	0x80000004	-6e-45
8	0x00000004	6e-45
9	0x80000004	-6e-45
10	0x00000000	0.0
11	0x00000000	0.0
12	0x00000000	0.0
13	0x00000000	0.0
14	0x00000000	0.0
15	0x36955781	4.450733e-06
16	0x388caf47	6.708368e-05
17	0x3726924c	9.928433e-06
18	0x38395efa	4.419589e-05
19	0xb6ed1a4d	-7.066212e-06
20	0x00000000	0.0
21	0x00000000	0.0
22	0x00000000	0.0
23	0x00000000	0.0
24	0x00000000	0.0
25	0x80000004	-6e-45
26	0x00000004	6e-45
27	0x80000004	-6e-45
28	0x00000004	6e-45
29	0x80000004	-6e-45
30	0x00000004	6e-45
31	0x00000004	6e-45
32	0x80000004	-6e-45
33	0x00000004	6e-45
34	0x80000004	-6e-45
35	0x364f28f0	3.0869232e-06
36	0xba59ff30	-0.0008315919
37	0x3a0228fe	0.0004965215
38	0xba7e5574	-0.00097020646
39	0x384b50e3	4.8474303e-05
40	0x00000000	0.0
41	0x00000000	0.0
42	0x00000000	0.0
43	0x00000000	0.0
44	0x00000000	0.0
45	0x80000004	-6e-45
46	0x00000004	6e-45
47	0x80000004	-6e-45
48	0x00000004	6e-45
49	0x00000004	6e-45
50	0xb91377ac	-0.00014063594
51	0xbad78b5e	-0.0016444733
52	0x393b2f78	0.00017851393
53	0xbab5c22a	-0.001386707
54	0x39164bc8	0.00014333345
55	0x36184872	2.2691934e-06
56	0x3814f906	3.551787e-05
57	0x36aa9710	5.083981e-06
58	0x37c67806	2.365933e-05
59	0xb680aba6	-3.83468e-06
60	0xb23bb881	-1.0926784e-08
61	0x3609f31a	2.0556095e-06
62	0xb68ec9fa	-4.255443e-06
63	0x369ec6b8	4.731901e-06
64	0xb42e8e0d	-1.625669e-07
65	0x37dd18fc	2.6356887e-05
66	0x39946523	0.00028304112
67	0x3901fe74	0.0001239719
68	0x3909f1dc	0.00013155438
69	0xb80a8ab9	-3.303096e-05
70	0xb6a291c1	-4.844944e-06
71	0xb7f1ba84	-2.8816292e-05
72	0x37ad4a2d	2.0657748e-05
73	0xb819444a	-3.654164e-05
74	0x3553dfd9	7.8929367e-07
75	0x37a86dab	2.0078229e-05
76	0xb8cd39ba	-9.785914e-05
77	0x38bbd5cd	8.956678e-05
78	0xb90cd603	-0.00013431166
79	0x36a92c47	5.041747e-06
80	0x380ed686	3.405523e-05
81	0x39e00d95	0.0004273473
82	0xba8e9aaf	-0.001087984
83	0x3a84d923	0.0010135513
84	0xb86f59bb	-5.706561e-05
85	0xb70863df	-8.129485e-06
86	0xbb8b5cdf	-0.0042530145
87	0x3b1a6ac9	0.0023562184
88	0xbb9ed588	-0.0048472323
89	0x3996fd28	0.00028798846
90	0xb7dc4ef0	-2.6262802e-05
91	0x3a592808	0.0008283858
92	0xb9eb5c21	-0.00044891334
93	0x3a76717b	0.0009401065
94	0xb863ffad	-5.4359134e-05
95	0x00000004	6e-45
96	0x00000004	6e-45
97	0x80000004	-6e-45
98	0x00000004	6e-45
99	0x80000004	-6e-45
100	0x00000000	0.0
101	0x00000000	0.0
102	0x00000000	0.0
103	0x00000000	0.0
104	0x00000000	0.0
105	0x37cce254	2.4424087e-05
106	0x3a344739	0.0006877068
107	0xb9438248	-0.00018645183
108	0x3a2e35e8	0.0006645606
109	0xb86ac2d1	-5.5971384e-05
110	0x37a7b188	1.999062e-05
111	0x396d9cac	0.00022660446
112	0x38b7e638	8.7690016e-05
113	0x38ed33ac	0.00011310665
114	0xb7d97f2f	-2.592764e-05
115	0x00000000	0.0
116	0x00000000	0.0
117	0x00000000	0.0
118	0x00000000	0.0
119	0x00000000	0.0
120	0x36041c05	1.9685842e-06
121	0x38c510f1	9.3968476e-05
122	0x36cfd480	6.193819e-06
123	0x388d3420	6.733113e-05
124	0xb7169a22	-8.976584e-06
125	0xb8a8c796	-8.04804e-05
126	0xba3a6f55	-0.00071119267
127	0xb89e2bec	-7.542208e-05
128	0xba024a40	-0.00049701706
129	0x389c3c59	7.4499e-05
130	0xb8e5d0db	-0.00010958473
131	0x3aa19a7f	0.0012329369
132	0xbac456d3	-0.0014979489
133	0x3b004200	0.001957059
134	0xb86c40f0	-5.6327262e-05
135	0x00000000	0.0
136	0x00000000	0.0
137	0x00000000	0.0
138	0x00000000	0.0
139	0x00000000	0.0
140	0x373bd888	1.1196484e-05
141	0x3915695d	0.00014248998
142	0x381110f0	3.458647e-05
143	0x38b3cee4	8.5739215e-05
144	0xb783d8fd	-1.571746e-05
145	0x00000000	0.0
146	0x00000000	0.0
147	0x00000000	0.0
148	0x00000000	0.0
149	0x00000000	0.0
150	0x36a808d9	5.00782e-06
151	0x388f538b	6.8343325e-05
152	0x37816c18	1.5428333e-05
153	0x382d8b40	4.13761e-05
154	0xb6f887f9	-7.4068053e-06
155	0x80000004	-6e-45
156	0x00000004	6e-45
157	0x80000004	-6e-45
158	0x00000004	6e-45
159	0x00000004	6e-45
160	0xb3393a72	-4.3126825e-08
161	0x377d52fd	1.5099297e-05
162	0xb6559f65	-3.1832253e-06
163	0x3780d8e7	1.5359792e-05
164	0xb5a2a3f9	-1.2117663e-06
165	0xb6b167b2	-5.287083e-06
166	0xb8091620	-3.268395e-05
167	0xb829a5fc	-4.0447325e-05
168	0x3603f7c0	1.966473e-06
169	0x369ebd2f	4.730791e-06
170	0x00000000	0.0
171	0x00000000	0.0
172	0x00000000	0.0
173	0x00000000	0.0
174	0x00000000	0.0
175	0xb7165dc2	-8.962526e-06
176	0x385c75ff	5.256198e-05
177	0xb8a01b08	-7.6344295e-05
178	0x38c61a6e	9.446299e-05
179	0x34e883db	4.3309305e-07
180	0x00000000	0.0
181	0x00000000	0.0
182	0x00000000	0.0
183	0x00000000	0.0
184	0x00000000	0.0
185	0x36699936	3.4808886e-06
186	0x386bb1af	5.6193847e-05
187	0x36a4b420	4.90855e-06
188	0x3824aa5e	3.9259314e-05
189	0xb6c495ac	-5.8586793e-06
190	0xb3fef146	-1.1871684e-07
191	0xb7924efc	-1.7441336e-05
192	0x369ac5be	4.612578e-06
193	0xb796d854	-1.7982129e-05
194	0x35e14de4	1.6786475e-06
195	0xb70c31e0	-8.356263e-06
196	0x39165086	0.00014335112
197	0xb9920902	-0.00027854
198	0x39a45e66	0.0003135085
199	0xb68bf065	-4.1705084e-06
200	0x36996e3e	4.572589e-06
201	0x389610b5	7.155669e-05
202	0x3710f8c0	8.6409855e-06
203	0x384ae4aa	4.8373513e-05
204	0xb6fb41d3	-7.488046e-06
205	0xb90b16a6	-0.0001326451
206	0xbb39b07f	-0.002833396
207	0x38d2c880	0.00010050926
208	0xbb165026	-0.0022935956
209	0x39950850	0.00028425688
210	0x37becf3f	2.2746271e-05
211	0x397fd6fa	0.0002439878
212	0x38e29f52	0.000108061955
213	0x38ec5080	0.00011268351
214	0xb7ef818f	-2.855135e-05
215	0x00000000	0.0
216	0x00000000	0.0
217	0x00000000	0.0
218	0x00000000	0.0
219	0x00000000	0.0
220	0x370916cd	8.171145e-06
221	0x3905d0fa	0.00012761718
222	0xb64977c0	-3.0021038e-06
223	0x38d333b2	0.00010070893
224	0xb75f12a4	-1.3296176e-05
225	0x00000000	0.0
226	0x00000000	0.0
227	0x00000000	0.0
228	0x00000000	0.0
229	0x00000000	0.0
230	0xb68ac6c6	-4.1358608e-06
231	0x38964e45	7.167136e-05
232	0xb91185ff	-0.00013878195
233	0x3923ea52	0.00015632182
234	0xb610c103	-2.157002e-06
235	0xb71c5442	-9.317942e-06
236	0x399a73e5	0.00029459517
237	0xb91f1b81	-0.00015173668
238	0x39acaf66	0.00032937079
239	0xb7a5fda6	-1.9787647e-05
240	0x37e0e9fc	2.6811838e-05
241	0x3999976c	0.00029295252
242	0x3903acb6	0.00012557473
243	0x3910fcc8	0.00013827079
244	0xb80eae0d	-3.4017536e-05
245	0x37a3c2bf	1.95218e-05
246	0x395c4462	0.0002100631
247	0x38c19864	9.231342e-05
248	0x38cca194	9.757574e-05
249	0xb7ce0329	-2.4558585e-05
250	0xb3dfd67d	-1.0423262e-07
251	0xb8406515	-4.5870507e-05
252	0x37b7209c	2.1830485e-05
253	0xb8560556	-5.1026545e-05
254	0x368cb43e	4.193308e-06
255	0x00000000	0.0

exp_avg_sq f4 [256, 5]
0	0x34ce586e	3.843483e-07
1	0x38936e9f	7.030111e-05
2	0x38a1c36d	7.713479e-05
3	0x391abc30	0.0001475669
4	0x350aa318	5.164634e-07
5	0x2e0eca7e	3.246691e-11
6	0x33155e66	3.477762e-08
7	0x329d7cc6	1.8333946e-08
8	0x33646f27	5.318648e-08
9	0x2f6a29ed	2.1297071e-10
10	0x00000000	0.0
11	0x00000000	0.0
12	0x00000000	0.0
13	0x00000000	0.0
14	0x00000000	0.0
15	0x339eaca3	7.388851e-08
16	0x372ee553	1.0424602e-05
17	0x37389969	1.1002973e-05
18	0x37b4d54c	2.1556996e-05
19	0x331d994d	3.6693837e-08
20	0x00000000	0.0
21	0x00000000	0.0
22	0x00000000	0.0
23	0x00000000	0.0
24	0x00000000	0.0
25	0x27f49289	6.788248e-15
26	0x291c43d8	3.4697803e-14
27	0x291b67ba	3.4506882e-14
28	0x299bd5fd	6.920504e-14
29	0x25e42091	3.9573763e-16
30	0x2696bdb7	1.0459763e-15
31	0x2c465879	2.8186605e-12
32	0x2d2888a5	9.5800355e-12
33	0x2d5a1e82	1.2398639e-11
34	0x28f900d9	2.7644921e-14
35	0x34c80861	3.7259e-07
36	0x380516a0	3.1730742e-05
37	0x37f553e8	2.9245348e-05
38	0x38802c73	6.111795e-05
39	0x34880adf	2.5339884e-07
40	0x00000000	0.0
41	0x00000000	0.0
42	0x00000000	0.0
43	0x00000000	0.0
44	0x00000000	0.0
45	0x2c0de376	2.0163571e-12
46	0x2db9a065	2.1103294e-11
47	0x2dd9ca36	2.4759843e-11
48	0x2e49cd99	4.5884716e-11
49	0x29e4617b	1.0142144e-13
50	0x36835d37	3.914956e-06
51	0x39870c94	0.00025758578
52	0x397d7e28	0.00024174957
53	0x3a02f421	0.00049954845
54	0x35fc86e8	1.8814726e-06
55	0x32b0732d	2.0541473e-08
56	0x3705b40d	7.969339e-06
57	0x37004c15	7.647109e-06
58	0x378445d5	1.5768144e-05
59	0x330cfcc8	3.2826193e-08
60	0x31984c74	4.432474e-09
61	0x367a969e	3.7340574e-06
62	0x366cc006	3.5278513e-06
63	0x36f707b4	7.3620704e-06
64	0x32b9f089	2.1646217e-08
65	0x34aa3099	3.1700327e-07
66	0x38639282	5.4257463e-05
67	0x3877489c	5.895701e-05
68	0x38edc5e8	0.000113379036
69	0x34ec2b20	4.3989803e-07
70	0x3213266c	8.565262e-09
71	0x358ee190	1.0645472e-06
72	0x35701606	8.9439015e-07
73	0x3603b6df	1.9626966e-06
74	0x31dcc5c1	6.4253247e-09
75	0x3406cbe7	1.2553902e-07
76	0x36ccaf57	6.100086e-06
77	0x36d7446d	6.415465e-06
78	0x3752b227	1.2558455e-05
79	0x3345b1ea	4.602945e-08
80	0x3436ef7c	1.7037195e-07
81	0x392008cc	0.00015262066
82	0x391eb68b	0.00015136057
83	0x399f7019	0.00030410363
84	0x35a5e688	1.2360551e-06
85	0x36880977	4.0542177e-06
86	0x3952d782	0.00020107444
87	0x3902f99f	0.00012490757
88	0x39aaf073	0.00032604075
89	0x35c29435	1.449726e-06
90	0x33eeff71	1.1129203e-07
91	0x389f2b57	7.5897835e-05
92	0x389f57f3	7.5980926e-05
93	0x391f65d5	0.00015201357
94	0x3516a8cb	5.612498e-07
95	0x240e82d3	3.0902154e-17
96	0x25fdacc4	4.4005574e-16
97	0x261758ca	5.250898e-16
98	0x268aa677	9.620794e-16
99	0x22d0e5b6	5.662173e-18
100	0x00000000	0.0
101	0x00000000	0.0
102	0x00000000	0.0
103	0x00000000	0.0
104	0x00000000	0.0
105	0x355f7b64	8.325353e-07
106	0x390a5774	0.00013193284
107	0x390ee957	0.00013629101
108	0x398cb1e1	0.0002683541
109	0x35916334	1.0832214e-06
110	0x34510383	1.946592e-07
111	0x381a7ad4	3.6830854e-05
112	0x38272472	3.9849845e-05
113	0x38a12920	7.6847384e-05
114	0x34898d7b	2.562118e-07
115	0x00000000	0.0
116	0x00000000	0.0
117	0x00000000	0.0
118	0x00000000	0.0
119	0x00000000	0.0
120	0x33a7ab14	7.8076624e-08
121	0x37b0d4b0	2.1079875e-05
122	0x37b9f0ea	2.2165903e-05
123	0x38361e86	4.342061e-05
124	0x33a1f0a3	7.540918e-08
125	0x359d4812	1.1718387e-06
126	0x38bbe227	8.958979e-05
127	0x38b8b022	8.806611e-05
128	0x393a5266	0.00017769038
129	0x353123e8	6.598989e-07
130	0x35f0a3b0	1.7929033e-06
131	0x39961d82	0.00028632215
132	0x39b391ab	0.00034250072
133	0x3a24cd25	0.00062866724
134	0x361db241	2.349858e-06
135	0x00000000	0.0
136	0x00000000	0.0
137	0x00000000	0.0
138	0x00000000	0.0
139	0x00000000	0.0
140	0x33c57319	9.1944635e-08
141	0x37c897a6	2.3912475e-05
142	0x37cfb6e0	2.476148e-05
143	0x384c7c51	4.875317e-05
144	0x33fb9bcb	1.1716437e-07
145	0x00000000	0.0
146	0x00000000	0.0
147	0x00000000	0.0
148	0x00000000	0.0
149	0x00000000	0.0
150	0x3373b067	5.6738283e-08
151	0x36d9b527	6.488193e-06
152	0x36eefa00	7.1220566e-06
153	0x376540a6	1.3664516e-05
154	0x32db89ce	2.5557622e-08
155	0x28c913ba	2.2324038e-14
156	0x2a5df9eb	1.9715451e-13
157	0x2a71ed02	2.1487329e-13
158	0x2ae7f36c	4.120275e-13
159	0x246a9426	5.0866148e-17
160	0x3302f6c6	3.0492423e-08
161	0x35e3dd28	1.6977183e-06
162	0x35be6b78	1.4187381e-06
163	0x36522777	3.131541e-06
164	0x32416b55	1.1258483e-08
165	0x3305eecf	3.118367e-08
166	0x37209c02	9.573067e-06
167	0x37256919	9.859236e-06
168	0x37a43a9f	1.9577621e-05
169	0x3357c7a2	5.0240153e-08
170	0x00000000	0.0
171	0x00000000	0.0
172	0x00000000	0.0
173	0x00000000	0.0
174	0x00000000	0.0
175	0x335f3731	5.197143e-08
176	0x366a0b49	3.4875286e-06
177	0x368b7362	4.155955e-06
178	0x37017048	7.715142e-06
179	0x3265d172	1.3377177e-08
180	0x00000000	0.0
181	0x00000000	0.0
182	0x00000000	0.0
183	0x00000000	0.0
184	0x00000000	0.0
185	0x3371578e	5.6191816e-08
186	0x377677f6	1.4690673e-05
187	0x37834094	1.5646488e-05
188	0x3800403e	3.057741e-05
189	0x3372fbfb	5.657419e-08
190	0x31c70771	5.7925083e-09
191	0x35f3c9a4	1.8163596e-06
192	0x3552f785	7.8591285e-07
193	0x362ea38e	2.6023222e-06
194	0x323717dc	1.0657427e-08
195	0x31bef542	5.5576104e-09
196	0x367a7567	3.732124e-06
197	0x37870627	1.6096119e-05
198	0x37a655d6	1.9828713e-05
199	0x32fc23dd	2.935297e-08
200	0x3344535a	4.5710614e-08
201	0x37831ec4	1.5630743e-05
202	0x378e4b1b	1.6962693e-05
203	0x3809857c	3.2787662e-05
204	0x337a3d2d	5.82633e-08
205	0x375da538	1.32110945e-05
206	0x3a66036d	0.0008774314
207	0x3a4b1403	0.00077468174
208	0x3ad894a6	0.0016523793
209	0x36bba029	5.5916794e-06
210	0x34842ea9	2.4620866e-07
211	0x3822c886	3.881056e-05
212	0x383328f8	4.271508e-05
213	0x38ab1fde	8.159851e-05
214	0x349e3c04	2.947346e-07
215	0x00000000	0.0
216	0x00000000	0.0
217	0x00000000	0.0
218	0x00000000	0.0
219	0x00000000	0.0
220	0x336f5e26	5.573215e-08
221	0x3782b6e7	1.5582378e-05
222	0x378ac880	1.6544247e-05
223	0x38071d23	3.2213644e-05
224	0x339b3e6d	7.229105e-08
225	0x00000000	0.0
226	0x00000000	0.0
227	0x00000000	0.0
228	0x00000000	0.0
229	0x00000000	0.0
230	0x32ab41b9	1.9936907e-08
231	0x36893524	4.0891046e-06
232	0x36fffaac	7.6287743e-06
233	0x3744b829	1.17253885e-05
234	0x32ea5d1f	2.7283532e-08
235	0x333d2a82	4.4043652e-08
236	0x37cfc4c1	2.4767944e-05
237	0x37dfc885	2.6677046e-05
238	0x385873ae	5.160615e-05
239	0x341e5f28	1.4749514e-07
240	0x34afbdd8	3.273442e-07
241	0x386bb064	5.6192643e-05
242	0x3881b463	6.184799e-05
243	0x38f7c2e5	0.0001181418
244	0x34da240a	4.0631886e-07
245	0x34411549	1.7982269e-07
246	0x38278f9e	3.9949657e-05
247	0x383a8fa8	4.4479646e-05
248	0x38b159a1	8.4567124e-05
249	0x3487c874	2.5291558e-07
250	0x2f33d355	1.6355035e-10
251	0x3635067b	2.6974874e-06
252	0x350b283c	5.1840084e-07
253	0x3657bea9	3.2148475e-06
254	0x3290c82a	1.685483e-08
255	0x00000000	0.0
