master_thesis/auto_docking/neural_network_models/best_model.pt (torch, 829487 bytes, 18 tensors)

weight f4 [256, 5]
0.21334189 -0.018460095 -0.10539183 -0.08953497 -0.22765777 0.1154691 0.26929772 0.13122891
-0.23853838 -0.09849366 0.03204413 0.17598666 0.41425815 0.4032632 -0.029576136 -0.03761977
-0.04776603 0.07639027 -0.08011612 -0.09659034 0.1876528 -0.21977486 0.024848696 0.22881171
0.121381894 -0.0473091 0.2694117 -0.021837864 0.032736346 -0.43299666 -0.26116714 -0.04791385
-0.035504162 -0.1462132 0.32624292 -0.046433363 0.3359928 0.32738563 -0.26421875 0.2102581
-0.015495967 0.08883826 -0.04141794 -0.22933352 0.2763606 0.15018086 0.3979222 0.026036477
0.0903237 0.058775254 0.36928296 0.005404239 -0.13314976 0.18908915 0.2573437 -0.07962051
-0.05731198 0.03322084 0.32530773 0.33659798 0.44121325 -0.053777903 0.35821795 -0.34156358
-0.31501606 0.14504974 0.1909181 -0.2200462 -0.11412976 0.17396456 0.22193104 -0.36538368
0.042087704 -0.09636727 0.050819635 0.09223807 -0.19052589 -0.09504846 -0.11735281 -0.15930697
0.09483224 -0.27169573 0.033504844 0.047865123 -0.35373032 0.26160944 -0.034639 0.44011676
-0.36733738 0.34953004 -0.15940611 -0.023133298 -0.22746512 0.17616859 0.12939495 0.21891855
0.20208411 0.4039069 -0.10024435 0.22514123 -0.19083458 0.068347484 -0.33696818 -0.10389989
0.18955775 -0.800653 0.27635485 -0.17063217 -0.34146163 0.24768454 0.16665465 0.022867858
0.13725281 -0.29558504 0.013724059 0.10886246 -0.16986527 -0.19834776 0.050575078 0.13522561
-0.27000928 0.1654275 -0.16857904 -0.21948592 0.04317023 0.11886965 -0.12871478 0.030869652
0.19997853 0.08625296 0.40613505 0.39439827 -0.3444978 -0.06626243 -0.4213415 -0.08380589
-0.3706705 0.15631479 0.035743356 0.36000293 -0.3038079 -0.34066328 0.18361133 0.2942236
0.17593813 0.11980206 -0.30065337 0.23620838 0.06974262 -0.42149258 0.1692211 0.008284837
0.10569191 0.0065489113 0.20674402 -0.23354442 0.15312564 0.4116732 -0.22033899 -0.046166807
0.26036018 0.22044253 0.49767905 -0.03986879 -0.17053686 -0.2694718 0.18237714 -0.119698584
0.16934614 0.36504045 -0.27913612 0.03895098 0.2093265 -0.16114223 0.32086366 -0.2739
-0.074222215 0.13784698 0.2656307 0.31852442 0.6782473 -0.25543684 -0.4377869 -0.12639369
0.095256135 -0.14870042 0.050672486 0.32561824 0.22787902 -0.15355371 -0.015461981 -0.19340575
0.029674381 0.07783145 0.08731121 -0.018980473 0.18262064 0.3756171 -0.11040214 0.2988773
0.35239992 -0.02008967 -0.12458936 0.3669272 -0.31573856 0.094002545 -0.07842937 0.3183903
-0.095391095 0.15967906 -0.15346782 0.38424274 0.41680297 0.026049554 0.2651608 0.37770897
0.37508738 -0.13946678 -0.29577062 0.24266471 -0.07950875 -0.28255367 -0.43670446 -0.20819883
0.390114 0.15176958 -0.0726597 -0.07493794 -0.14449298 0.36404932 -0.1999708 -0.101615384
0.121543504 0.29317826 -0.3552939 -0.40354523 -0.34429726 0.24356902 -0.3494152 -0.29344952
-0.39661044 0.06502008 0.4172785 0.2466266 0.4202102 0.31126562 0.2949854 0.27096763
0.40302303 0.25198367 0.13279353 -0.059594825 -0.32066056 0.35803992 0.38701478 0.2437296
00000000: 4c76 5a3e a039 97bc acd7 d7bd 1c5e b7bd
00000010: 1e1f 69be 107b ec3d 64e1 893e df60 063e
00000020: 6843 74be 0bb7 c9bd b540 033d d935 343e
00000030: a519 d43e 8478 ce3e a749 f2bc 3017 1abd
00000040: 50a6 43bd 8072 9c3d ec13 a4bd 28d1 c5bd
00000050: 0e28 403e a90c 61be 7e8f cb3c 9e4d 6a3e
00000060: 1297 f83d 30c7 41bd 55f0 893e 52e5 b2bc
00000070: 8c16 063d bdb1 ddbe b3b7 85be 5041 44bd
00000080: d06c 11bd eab8 15be 5009 a73e e930 3ebd
00000090: 4007 ac3e 179f a73e ae47 87be e64d 573e
000000a0: cce2 7dbc d5f0 b53d dca5 29bd 68d6 6abe
000000b0: 237f 8d3e 03c9 193e 75bc cb3e 734a d53c
000000c0: a2fb b83d 52be 703d a812 bd3e 0b16 b13b
000000d0: 6958 08be 96a0 413e 8ec2 833e 1410 a3bd
000000e0: f7bf 6abd 9312 083d bc8e a63e 9256 ac3e
000000f0: b4e6 e13e 3846 5cbd 5868 b73e 6ce1 aebe
00000100: c949 a1be eb87 143e 0980 433e cb53 61be
00000110: ddbc e9bd c423 323e e441 633e 9213 bbbe
00000120: 2864 2c3d 345c c5bd 4028 503d 50e7 bc3d
00000130: 3819 43be c4a8 c2bd ac56 f0bd 5e21 23be
00000140: 6837 c23d b41b 8bbe 603c 093d 380e 443d
00000150: 241c b5be acf1 853e a0e1 0dbd fc56 e13e
00000160: a513 bcbe 9af5 b23e 5b3b 23be 0b82 bdbc
00000170: 9eec 68be 8a65 343e 1c80 043e 2f2c 603e
00000180: 23ef 4e3e e3cc ce3e e94c cdbd 6c8b 663e
00000190: 246a 43be c4f9 8b3d 1887 acbe 77c9 d4bd
000001a0: 6d1b 423e 98f7 4cbf 627e 8d3e 33ba 2ebe
000001b0: 0fd4 aebe 04a1 7d3e 84a7 2a3e 6055 bb3c
000001c0: 008c 0c3e ec56 97be e0da 603c 48f3 de3d
000001d0: 29f1 2dbe ad1b 4bbe d027 4f3d 9578 0a3e
000001e0: a83e 8abe d465 293e fc9f 2cbe ebc0 60be
000001f0: 44d3 303d ee71 f33d cfcd 03be 5ae2 fc3c
00000200: 2cc7 4c3e 64a5 b03d eff0 cf3e 92ee c93e
00000210: 0462 b0be 99b4 87bd 13ba d7be 6ca2 abbd
00000220: 86c8 bdbe fc10 203e a067 123d 4e52 b83e
00000230: b68c 9bbe 6b6b aebe 9c04 3c3e 7aa4 963e
00000240: 2029 343e c85a f53d 3def 99be 9ce0 713e
00000250: 38d5 8e3d e0cd d7be 4c48 2d3e 20bd 073c
00000260: 0075 d83d 4098 d63b b4b4 533e 4526 6fbe
00000270: f8cc 1c3e d4c6 d23e 8ba0 61be 6819 3dbd
00000280: ee4d 853e b0bb 613e cacf fe3e 754d 23bd
00000290: 37a1 2ebe 35f8 89be 13c1 3a3e 8824 f5bd
000002a0: 1369 2d3e 95e6 ba3e eeea 8ebe 108b 1f3d
000002b0: b059 563e 7802 25be 3e48 a43e 9f3c 8cbe
000002c0: d101 98bd c227 0d3e bf00 883e a215 a33e
000002d0: 9da1 2d3f 9ec8 82be 9b25 e0be 596d 01be
000002e0: a615 c33d ec44 18be f48d 4f3d 6fb7 a63e
000002f0: 1e59 693e 2f3d 1dbe 4054 7dbc 280c 46be
00000300: b017 f33c 1866 9f3d 38d0 b23d f07c 9bbc
00000310: e800 3b3e e250 c03e 841a e2bd 7206 993e
00000320: c36d b43e 1793 a4bc b528 ffbd e2dd bb3e
00000330: 7ca8 a1be 6884 c03d 949f a0bd 0e04 a33e
00000340: 685c c3bd e882 233e ab26 1dbe 77bb c43e
00000350: 3367 d53e e065 d53c 28c3 873e 1263 c13e
00000360: 740b c03e 61d0 0ebe 3f6f 97be 197d 783e
00000370: 7cd5 a2bd e0aa 90be ba97 dfbe 1332 55be
00000380: 06bd c73e 7c69 1b3e 9cce 94bd 1079 99bd
00000390: f8f5 13be ac64 ba3e 25c5 4cbe ba1b d0bd
000003a0: cdeb f83d 761b 963e 15e9 b5be 7b9d cebe
000003b0: bb47 b0be 286a 793e 8de6 b2be 043f 96be
000003c0: 8610 cbbe 3f29 853d 87a5 d53e af8b 7c3e
000003d0: cb25 d73e 355e 9f3e 5408 973e 45bc 8a3e
000003e0: 0959 ce3e 0104 813e 07fb 073e b419 74bd
000003f0: 9f2d a4be 0251 b73e cd26 c63e 4194 793e

bias f4 [256]
-0.43590808 -0.045459438 -0.28499871 -0.18778956 0.16126646 -0.3555654 0.18853366 -0.102498226
-0.08224135 0.30704868 0.0019684385 -0.06303599 0.005127132 0.33782244 -0.107117325 -0.34471175
0.27001572 0.08175933 0.30011392 0.0034243998 -0.20568825 0.27571696 -0.1860455 -0.18551439
0.38393968 0.06914607 -0.19886841 0.32216793 0.24817872 0.13474447 -0.27820438 0.22216177
-0.17963767 0.059793 0.17293912 -0.1796584 -0.39402592 0.14318302 -0.22284283 -0.091961
0.28334886 -0.13248387 0.3920991 -0.05463755 0.23536742 -0.36222187 -0.23575301 -0.13915896
-0.13132899 -0.29758292 0.14059845 -0.43725178 0.17792922 -0.31330633 0.03442227 -0.16642849
-0.28084847 -0.279828 -0.3648603 -0.25707942 -0.25957516 -0.21698357 -0.1138152 -0.19692378
-0.030968966 0.41079473 0.12209141 -0.231388 -0.0057605803 -0.16502415 0.27701545 0.29030448
0.18178678 -0.27215832 0.2135326 0.4053514 0.064178765 -0.354038 -0.0537681 0.41895616
-0.4843797 -0.18878546 0.32449257 -0.24040538 -0.2280895 -0.36027968 0.34397817 0.35495627
-0.3700581 0.1132663 0.33683595 -0.1987851 0.17877458 -0.11179115 0.328135 0.30486307
0.29139614 -0.15407215 -0.31293058 -0.2154701 -0.45155093 -0.16213441 -0.3860571 -0.3795148
0.119700134 0.23397385 0.21199834 -0.03792872 -0.35840738 -0.3494143 -0.087125 0.099331565
0.21147498 0.14703874 0.38462877 0.057706073 0.34739184 -0.0076565463 0.11700664 0.21526931
0.029509118 -0.38301417 -0.05025825 0.38597804 -0.37424433 -0.046291202 -0.1726187 0.0030116586
0.38237244 -0.46279553 -0.1925967 -0.27224508 0.18024611 -0.18914852 0.19168948 -0.07298564
0.17143893 -0.43525207 0.1720157 0.045979884 -0.013104796 -0.3577669 -0.25022143 -0.10388178
0.10901321 -0.44860047 -0.37306592 -0.27632678 0.29899126 -0.13118082 0.28984433 0.22664112
0.16993612 0.22450724 -0.27606273 0.031159699 -0.48002666 -0.040421814 0.34172136 0.28120518
0.1721571 0.0013989103 -0.12509659 -0.18176523 -0.41396827 -0.40179378 -0.39568433 0.07543762
0.10775834 -0.33753654 -0.34040275 -0.40425318 0.017595606 0.08213438 -0.2907707 0.22995383
0.36679995 -0.29894793 -0.0806147 -0.098302275 0.038421445 0.0392639 0.18872568 -0.33610624
-0.27070218 -0.34660697 -0.4767925 -0.39658958 -0.43247005 0.16792798 -0.3083703 -0.05229637
0.17470467 -0.1784732 -0.23886354 -0.020384194 -0.0881848 -0.010538399 0.011127298 0.021976959
0.3692528 -0.38439825 0.26306868 -0.40262768 -0.16187623 -0.42436278 0.2739331 -0.37109
-0.18239155 0.38039488 0.14560114 -0.11667645 -0.289307 -0.18690991 -0.4451389 -0.37751386
0.14322197 -0.4187706 0.22726488 0.42548195 0.06179315 0.06508052 -0.43578738 -0.30560425
-0.23552988 -0.3551422 -0.16855475 -0.2704489 0.30146325 -0.15587893 0.036195487 -0.13797098
0.19638765 -0.34120813 -0.01525715 -0.051182613 -0.14800726 -0.26658326 0.24906401 0.01455854
0.14411518 0.38555807 -0.17169592 0.08746982 0.03526088 0.20121258 0.007000357 0.23483858
-0.32722178 -0.31445327 0.11657435 0.39826357 -0.001157402 0.35885018 0.019960996 -0.09127801
00000000: 582f dfbe ad33 3abd 5aeb 91be e84b 40be
00000010: 0923 253e ab0c b6be f80e 413e 97ea d1bd
00000020: 276e a8bd 7c35 9d3e eb00 013b 0319 81bd
00000030: 8001 a83b 10f7 ac3e 5460 dbbd 0f7e b0be
00000040: 803f 8a3e 7071 a73d 88a8 993e e56b 603b
00000050: f19f 52be c62a 8d3e b682 3ebe 7cf7 3dbe
00000060: be93 c43e 749c 8d3d 29a4 4bbe 32f3 a43e
00000070: 9022 7e3e 74fa 093e ce70 8ebe 607e 633e
00000080: f0f2 37be 81e9 743d f416 313e 5ff8 37be
00000090: c4bd c9be 929e 123e e930 64be 0c56 bcbd
000000a0: 1a13 913e daa9 07be 37c1 c83e a0cb 5fbd
000000b0: 2804 713e 2575 b9be 3d69 71be b07f 0ebe
000000c0: 1b7b 06be ca5c 98be 0af9 0f3e 77df dfbe
000000d0: 1433 363e b069 a0be 5efe 0c3d 3b6c 2abe
000000e0: 5fcb 8fbe 9e45 8fbe f8ce babe ea9f 83be
000000f0: 09e7 84be f130 5ebe f217 e9bd 63a6 49be
00000100: a1b2 fdbc b053 d23e 100b fa3d faf0 6cbe
00000110: 40c3 bcbb 17fc 28be f8d4 8d3e caa2 943e
00000120: 5026 3a3e 5658 8bbe 4aa8 5a3e 388a cf3e
00000130: 2870 833d 7844 b5be f03b 5cbd 6c81 d63e
00000140: 9e00 f8be fa50 41be e423 a63e d42c 76be
00000150: 4b90 69be 9476 b8be e81d b03e d4bc b53e
00000160: 4178 bdbe 29f8 e73d c375 ac3e 528e 4bbe
00000170: af10 373e c2f2 e4bd 5001 a83e 0317 9c3e
00000180: e031 953e 17c5 1dbe 7038 a0be 32a4 5cbe
00000190: af31 e7be 9006 26be 47a9 c5be c44f c2be
000001a0: 5825 f53d d796 6f3e 1816 593e 255b 1bbd
000001b0: 2c81 b7be 6ee6 b2be 986e b2bd 596e cb3d
000001c0: e68c 583e 5391 163e 10ee c43e 345d 6c3d
000001d0: 58dd b13e c4e3 fabb 2da1 ef3d 8f6f 5c3e
000001e0: 1bbd f13c 6f1a c4be 98db 4dbd ea9e c53e
000001f0: f49c bfbe d89b 3dbd f5c2 30be 3f5f 453b
00000200: 52c6 c33e 89f3 ecbe 1238 45be b563 8bbe
00000210: 7092 383e 26b0 41be 3f4a 443e 7f79 95bd
00000220: b08d 2f3e 5cd9 debe e224 303e 6755 3c3d
00000230: 80b5 56bc 392d b7be 061d 80be f8bf d4bd
00000240: 5142 df3d f6ae e5be 7f02 bfbe b47a 8dbe
00000250: 6215 993e 4454 06be 7a66 943e 9c14 683e
00000260: bc03 2e3e 3ae5 653e 1858 8dbe a042 ff3c
00000270: 0ec6 f5be 5891 25bd 1af6 ae3e 20fa 8f3e
00000280: f349 303e a45b b73a 5219 00be aa20 3abe
00000290: a6f3 d3be eab7 cdbe 2397 cabe 0a7f 9a3d
000002a0: 68b0 dc3d 97d1 acbe 4549 aebe 46fa cebe
000002b0: a924 903c 1236 a83d e6df 94be 0479 6b3e
000002c0: 34cd bb3e b40f 99be 5219 a5bd b452 c9bd
000002d0: ce5f 1d3d 2fd3 203d 4e41 413e 1e16 acbe
000002e0: 7a99 8abe 7876 b1be 261e f4be ca0d cbbe
000002f0: b76c ddbe 50f5 2b3e b6e2 9dbe b834 56bd
00000300: c8e5 323e aec1 36be a598 74be c1fc a6bc
00000310: 3c9a b4bd 40a9 2cbc 454f 363c 0609 b43c
00000320: b40e bd3e d9cf c4be f0b0 863e 3725 cebe
00000330: e2c2 25be 1446 d9be f640 8c3e 82ff bdbe
00000340: dac4 3abe 1ec3 c23e 7718 153e 10f4 eebd
00000350: 0c20 94be 5065 3fbe 3fe9 e3be 7f49 c1be
00000360: c8a8 123e 1a69 d6be 20b8 683e c5d8 d93e
00000370: d01a 7d3d f048 853d 861f dfbe 2978 9cbe
00000380: bf2e 71be 33d5 b5be 9e99 2cbe 4778 8abe
00000390: 6459 9a3e ba9e 1fbe b841 143d 4448 0dbe
000003a0: d819 493e d5b2 aebe 20f9 79bc dca4 51bd
000003b0: 378f 17be 9a7d 88be a30a 7f3e f186 6e3c
000003c0: ee92 133e de67 c53e 0ed1 2fbe 6123 b33d
000003d0: b66d 103d ac0a 4e3e 4063 e53b 8679 703e
000003e0: 9d89 a7be 0500 a1be 88be ee3d 34e9 cb3e
000003f0: f7b3 97ba 36bb b73e 3e85 a33c f7ef babd

weight f4 [256, 256]
-0.01741238 -0.06017174 0.0021164045 0.043050222 0.014406376 -0.044324853 -0.043384746 0.045399033
-0.033774994 -0.029636294 0.05097422 -0.00802771 0.016559735 -0.035841323 -0.057576045 -0.05236949
-0.008197628 0.004490331 0.03840013 -0.0018169284 -0.040482394 0.040381797 0.027204245 -0.007871062
-0.025117464 0.012333341 -0.027265966 -0.046074875 0.03528958 0.016197853 0.04675412 -0.040890902
-0.055767618 -0.034483008 0.049454078 0.014863193 0.0028697923 -0.016790815 0.026032023 0.024889298
0.023201786 0.051307276 0.016691253 0.025940359 -0.009537086 0.0050790533 0.05888387 0.06087573
0.008769289 -0.03583581 -0.0137112215 0.06232717 0.035552174 -0.0029207617 0.059742153 -0.0101365
0.0145836845 0.036608383 0.05708746 -0.051558726 -0.03868679 -0.025449112 -0.05203998 -0.024936892
0.050939873 -0.039880328 -0.0044175982 -0.056434378 -0.009072274 -0.016921975 -0.015168257 -0.027568303
-0.036621816 0.0009148121 -0.020147197 -0.017012984 -0.01785297 0.05722677 -0.022792958 -0.058835804
-0.025333643 0.008954331 -0.016806617 -0.0019177794 -0.017602555 0.05228859 0.0027086064 -0.052081905
0.007873505 -0.009351246 -0.05621559 -0.01482632 0.054426238 0.003880836 0.012182184 0.001614809
0.04172314 -0.003927827 0.026627243 -0.041232906 0.05120775 -0.050827704 -0.052591287 -0.0139577985
0.053045265 0.002374664 -0.0095443055 0.04392021 -0.004755281 0.028252937 -0.028034724 0.036810882
0.003893301 -0.030067183 0.029001035 0.020109281 0.02280017 0.03003408 -0.031899564 0.029781692
-0.039871253 -0.03650544 -0.010550827 0.007292442 -0.052318417 -0.020548746 0.0532111 -0.061377265
-0.0624227 0.06048113 -0.00623554 -0.018990666 -0.03991045 0.042738654 0.053323135 0.042440563
0.023238838 0.016469173 -0.05598694 -0.049760148 0.01598876 0.036342382 -0.028117917 0.008334443
-0.026985556 0.056291 0.05887021 0.057486326 -0.05224137 0.005007699 0.03460528 -0.022538006
0.0089247525 -0.05824226 0.024689913 0.028322406 0.008800678 0.02663976 -0.04316075 -0.051841617
0.03875909 -0.008808695 -0.0028972924 0.028870746 0.017955758 -0.011188313 -0.029965796 -0.03882508
0.033173382 0.0009993538 0.062470533 0.012073085 -0.048847206 -0.0323816 0.01582139 -0.049377985
0.022241466 0.022925638 0.035332665 0.031266503 0.05560346 -0.041588247 0.0004139766 0.048031524
-0.04550624 -0.008856125 0.014761746 -0.040704988 -0.060843743 0.01927352 0.054891326 -0.04827162
-0.018362127 0.023825817 0.018094137 -0.01431673 -0.056456394 -0.061088055 -0.053697787 0.047944255
-0.040315308 0.0025423765 -0.05290763 0.023708798 0.02256795 -0.051468804 -0.04216133 0.055475563
0.0031548217 0.051134452 0.010862261 0.014633156 -0.018958092 -0.03906203 0.029210187 -0.04585646
0.036978483 -0.03844326 0.05018416 -0.03965932 -0.03751476 -0.05353734 -0.03913442 0.06175799
0.016134925 0.04532791 0.046143353 -0.0029302165 0.05619237 -0.055798933 0.04488244 0.010699965
-0.051198855 -0.051955976 -0.035866804 -0.029065847 0.009200305 0.0013315231 0.026959538 -0.03732717
-0.0201381 -0.015885465 -0.06119655 0.03027641 -0.002765879 0.060693234 0.007988453 0.0038504899
-0.033084936 -0.05452758 0.027347192 0.02714803 0.05450657 -0.015188955 -0.025814265 0.03240695
00000000: 68a4 8ebc a476 76bd 60b3 0a3b 6e55 303d
00000010: b808 6c3c fa8d 35bd 34b4 31bd 56f4 393d
00000020: a657 0abd d0c7 f2bc 58ca 503d a886 03bc
00000030: 48a8 873c 5ace 12bd dcd4 6bbd 6481 56bd
00000040: 584f 06bc a023 933b 7449 1d3d 0026 eeba
00000050: ded0 25bd 6267 253d 70db de3c a0f5 00bc
00000060: 24c3 cdbc c811 4a3c e05c dfbc 02b9 3cbd
00000070: ce8b 103d 5cb1 843c 4081 3f3d 387d 27bd
00000080: 966c 64bd 0e3e 0dbd 5c90 4a3d c084 733c
00000090: 2013 3c3b e48c 89bc 1c41 d53c a4e4 cb3c
000000a0: ac11 be3c 9427 523d 18bc 883c e080 d43c
000000b0: 7041 1cbc 306e a63b 3630 713d d458 793d
000000c0: 10ad 0f3c 92c8 12bd 08a5 60bc c64a 7f3d
000000d0: 289f 113d 406a 3fbb 30b4 743d 9013 26bc
000000e0: 68f0 6e3c acf2 153d 8ad4 693d 3e2f 53bd
000000f0: 0a76 1ebd a87a d0bc e027 55bd 7448 ccbc
00000100: 54a6 503d 8e59 23bd 80c1 90bb bc27 67bd
00000110: e0a3 14bc f49f 8abc 4884 78bc ecd6 e1bc
00000120: c200 16bd 00d0 6f3a bc0b a5bc d05e 8bbc
00000130: 6440 92bc 9e66 6a3d 4cb8 babc d0fd 70bd
00000140: 8088 cfbc 30b5 123c 08ae 89bc 005e fbba
00000150: 3c33 90bc 902c 563d e082 313b d653 55bd
00000160: e0ff 003c f835 19bc 5242 66bd 18ea 72bc
00000170: 0cee 5e3d a055 7e3b c897 473c 00a8 d33a
00000180: e2e5 2a3d 00b5 80bb 6021 da3c d6e3 28bd
00000190: 38bf 513d b630 50bd f669 57bd 40af 64bc
000001a0: fe45 593d 40a0 1b3b b85f 1cbc aee5 333d
000001b0: 30d2 9bbb b472 e73c 14a9 e5bc 02c7 163d
000001c0: c026 7f3b 744f f6bc 9493 ed3c 38bc a43c
000001d0: 6cc7 ba3c 080a f63c 1ea9 02bd bcf8 f33c
000001e0: 0a50 23bd ba86 15bd 60dd 2cbc 70f5 ee3b
000001f0: d64b 56bd d855 a8bc e2f3 593d ba66 7bbd
00000200: f2ae 7fbd 10bb 773d 8053 ccbb 5092 9bbc
00000210: 2479 23bd ba0e 2f3d 5c69 5a3d 28d6 2d3d
00000220: 605f be3c 5cea 863c 9052 65bd 4cd1 4bbd
00000230: dcfa 823c c0db 143d 8c57 e6bc 308d 083c
00000240: d010 ddbc 6491 663d e421 713d c876 6b3d
00000250: 0cfb 55bd a017 a43b 44be 0d3d a0a1 b8bc
00000260: 2039 123c 708f 6ebd 8042 ca3c 6404 e83c
00000270: b830 103c a03b da3c 54c9 30bd e057 54bd
00000280: dac1 1e3d 5852 10bc 80e0 3dbb 5882 ec3c
00000290: f417 933c 304f 37bc d47a f5bc 0c07 1fbd
000002a0: d0e0 073d c0fc 823a 1ae1 7f3d 30ce 453c
000002b0: 0214 48bd 92a2 04bd dc9b 813c 9240 4abd
000002c0: bc33 b63c 8cce bb3c fcb8 103d 4e11 003d
000002d0: 74c0 633d 7058 2abd 000b d939 b4bc 443d
000002e0: c064 3abd 4819 11bc 40db 713c 46ba 26bd
000002f0: 4a37 79bd 80e3 9d3c bad5 603d 76b8 45bd
00000300: 2c6c 96bc 5c2e c33c 283a 943c b890 6abc
00000310: d23e 67bd 7837 7abd 36f2 5bbd 3261 443d
00000320: aa21 25bd 009e 263b acb5 58bd f438 c23c
00000330: 6ce0 b83c f4d0 52bd 5cb1 2cbd 583a 633d
00000340: 20c1 4e3b 5c72 513d a0f7 313c e8bf 6f3c
00000350: 004e 9bbc 82ff 1fbd 344a ef3c fcd3 3bbd
00000360: c076 173d ae76 1dbd e88d 4d3d d071 22bd
00000370: 14a9 19bd f849 5bbd 6a4b 20bd f2f5 7c3d
00000380: 642d 843c c2a9 393d d000 3d3d e008 40bb
00000390: f829 663d 6c8d 64bd a6d6 373d e84e 2f3c
000003a0: e4b5 51bd cacf 54bd 12e9 12bd 801b eebc
000003b0: e0bc 163c 8086 ae3a 40da dc3c 60e4 18bd
000003c0: a8f8 a4bc 3c22 82bc 3ca9 7abd 3c06 f83c
000003d0: c043 35bb 7899 783d 00e2 023c 8058 7c3b
000003e0: 1284 07bd 5058 5fbd 3807 e03c 8c65 de3c
000003f0: 4842 5f3d 18db 78bc 7078 d3bc 26bd 043d

bias f4 [256]
-0.043093346 0.048380874 0.057950012 0.048622176 0.032254465 -0.044728033 0.05734836 -0.03506846
0.0383082 -0.038437404 -0.037656426 0.045952305 -0.04528465 -0.013050365 0.060099423 -0.041572034
-0.044085972 -0.00067508966 -0.025246494 0.021765217 -0.008621545 -0.040657092 -0.0039372006 0.02610873
-0.031562917 -0.037346 -0.010676548 0.032867484 -0.06252113 -0.06165512 -0.00920124 -0.017369602
-0.008342639 -0.049286384 0.0015351251 0.04024623 -0.06079229 -0.0149232205 0.014910483 0.048707537
-0.04609169 -0.033270996 0.0557016 0.012301289 0.009829746 -0.037708953 -0.022082709 0.018221436
-0.02644353 -0.015307229 0.036416158 -0.002958376 -0.05644922 0.006702033 0.042507283 -0.057674922
0.029637571 -0.022067511 -0.056497592 0.035436444 -0.048397478 0.0022894666 -0.0403551 -0.060840756
0.030392792 0.0070303045 -0.01786641 0.021795996 -0.019804426 -0.009587988 0.01930906 0.015409924
0.023651384 -0.010223389 -0.019894563 0.01815384 0.049862254 0.050484806 0.021294964 0.035135597
-0.043593567 0.006355057 -0.060762048 0.022730274 0.0023837937 -0.048437614 0.010856777 0.03505875
-0.08561358 -0.02728384 -0.031979654 -0.01146671 -0.010956949 -0.050469965 -0.0043832064 -0.05880816
-0.038988627 -0.039645564 -0.007181634 -0.01393272 -0.0013519302 0.020759476 0.041433252 -0.0059313276
-0.023936184 -0.04382181 0.024006788 0.0026511103 -0.03970728 0.024308816 -0.046298854 -0.037536014
-0.04752017 -0.033939086 0.04578974 -0.013404763 0.055328604 -0.05474463 0.005457636 0.018162929
0.016595341 -0.037828624 0.0020493357 -0.039776377 -0.05050075 -0.0018286183 0.010133637 -0.011874939
-0.009698034 -0.04033885 0.05247593 -0.04942492 -0.0136189815 -0.042715877 0.01252526 0.020789295
0.028679058 0.0133361295 -0.051194325 -0.034948796 0.014149125 -0.019744355 -0.004110157 -0.036897816
0.045804255 -0.048650336 0.011339836 -0.016521387 0.0157819 -0.06685822 0.021934345 -0.04298045
-0.0098100975 -0.061685093 -0.006713542 0.022125922 0.028440647 -0.054622933 -0.037657678 0.004059866
-0.060030274 0.05741711 -0.001285016 -0.08359647 0.045003556 0.0009923464 0.03766157 0.00085763633
0.02837468 0.06133871 -0.04575594 0.0011033714 0.0097277 -0.048151314 0.03461961 -0.029404067
-0.09043085 0.046738513 0.0453372 -0.0451861 0.029684944 0.014935293 0.0022618398 0.054240756
0.021235546 -0.03959349 0.0043234304 -0.043891925 0.022726925 -0.027060656 -0.015155677 0.009415314
0.0036951487 -0.018532567 0.021826467 -0.043418348 0.006290607 -0.04883901 -0.03468782 -0.027575895
-0.056210577 0.0071825134 -0.016263826 -0.06621716 0.034322903 -0.056542624 0.054225974 -0.0903323
-0.06338401 -0.024053581 -0.060532756 0.042549156 0.00050585426 -0.052868366 0.025543131 -0.05429709
-0.061745502 0.019133825 -0.03289608 -0.012536004 0.01606327 -0.060514767 0.05070602 0.017799467
-0.024539266 -0.041465804 -0.021021575 0.0396446 -0.043938607 -0.018782072 -0.007179208 0.033750486
0.054584794 0.037342124 8.804296e-05 0.019434214 -0.005279005 -0.03525878 -0.01893679 -0.051692322
-0.034097716 -0.054679733 0.028155617 0.052511163 -0.048736572 0.005777015 -0.06337205 -0.03595368
0.007851686 -0.050681602 -0.0075518787 0.033670887 -0.020578206 0.014142974 -0.0013066231 -0.024083013
00000000: a682 30bd 062b 463d fe5c 6d3d 0c28 473d
00000010: 421d 043d be34 37bd 1de6 6a3d f2a3 0fbd
00000020: 0fe9 1c3d 8a70 1dbd a03d 1abd 7c38 3c3d
00000030: 667c 39bd 33d1 55bc d02a 763d 7047 2abd
00000040: 7e93 34bd 80f8 30ba bcd1 cebc f84c b23c
00000050: 6141 0dbc 0d88 26bd a203 81bb fae1 d53c
00000060: 1e48 01bd 1ff8 18bd b0ec 2ebc 0ea0 063d
00000070: 140b 80bd 148a 7cbd ccc0 16bc b24a 8ebc
00000080: 90af 08bc 85e0 49bd 4036 c93a 3bd9 243d
00000090: 5601 79bd 8680 74bc 194b 743c 8e81 473d
000000a0: a4ca 3cbd 2b47 08bd 5c27 643d 588b 493c
000000b0: f10c 213c b474 1abd cce6 b4bc 1f45 953c
000000c0: 1aa0 d8bc 2ccb 7abc 1c29 153d 50e1 41bb
000000d0: 4c37 67bd ba9c db3b 1e1c 2e3d 8a3c 6cbd
000000e0: 7eca f23c edc6 b4bc 056a 67bd ce25 113d
000000f0: 6f3c 46bd e00a 163b 644b 25bd 2834 79bd
00000100: 4efa f83c 785e e63b 945c 92bc 848d b23c
00000110: e43c a2bc f016 1dbc 092e 9e3c e879 7c3c
00000120: 8cc0 c13c 0080 27bc ecf9 a2bc 5db7 943c
00000130: 5d3c 4c3d 28c9 4e3d c772 ae3c 58ea 0f3d
00000140: 2b8f 32bd 153e d03b a0e1 78bd d734 ba3c
00000150: 6c39 1c3b 8566 46bd a0e0 313c c499 0f3d
00000160: 2c56 afbd 5c82 dfbc 19fd 02bd dede 3bbc
00000170: c684 33bc 98b9 4ebd 00a1 8fbb d3e0 70bd
00000180: 8ab2 1fbd 6363 22bd ea53 ebbb 1046 64bc
00000190: 4033 b1ba c70f aa3c eab5 293d 955b c2bb
000001a0: d115 c4bc 807e 33bd e2a9 c43c 40be 2d3b
000001b0: 1aa4 22bd 4823 c73c dea3 3dbd 5dbf 19bd
000001c0: 83a4 42bd b603 0bbd 068e 3b3d a79f 5bbc
000001d0: 3fa0 623d e83b 60bd f8d5 b23b 6cca 943c
000001e0: f4f2 873c 30f2 1abd 264e 063b 8eec 22bd
000001f0: e0d9 4ebd 40ae efba 8e07 263c 1b8f 42bc
00000200: 81e4 1ebc 5a3a 25bd 00f1 563d c971 4abd
00000210: 2622 5fbc d8f6 2ebd c036 4d3c 504e aa3c
00000220: 58f0 ea3c c87f 5a3c 24b1 51bd 7826 0fbd
00000230: bbd1 673c eabe a1bc 7fae 86bb 2a22 17bd
00000240: 3e9d 3b3d 9345 47bd b8ca 393c dc57 87bc
00000250: 0b49 813c f6ec 88bd a8af b33c 450c 30bd
00000260: 88ba 20bc 82a9 7cbd 46fd dbbb 6c41 b53c
00000270: 5cfc e83c 4cbc 5fbd f03e 1abd a008 853b
00000280: 4ee2 75bd 342e 6b3d fb6d a8ba a034 abbd
00000290: a655 383d 9f11 823a 0543 1a3d 00d3 603a
000002a0: 0472 e83c 4d3e 7b3d 956a 3bbd 009f 903a
000002b0: ee60 1f3c 503a 45bd 4bcd 0d3d cce0 f0bc
000002c0: cf33 b9bd e270 3f3d 80b3 393d 0f15 39bd
000002d0: d72d f33c 29b3 743c 603b 143b 8e2b 5e3d
000002e0: 2bf6 ad3c c92c 22bd 90ab 8d3b 05c8 33bd
000002f0: d12d ba3c 4fae ddbc 844f 78bc b042 1a3c
00000300: 4f2a 723b 9cd1 97bc 6bcd b23c 70d7 31bd
00000310: 7021 ce3b 6a0b 48bd d114 0ebd d8e6 e1bc
00000320: 103d 66bd 4a5b eb3b b73b 85bc dd9c 87bd
00000330: 2c96 0c3d 3d99 67bd 0e1c 5e3d 2400 b9bd
00000340: 7acf 81bd 040c c5bc 32f1 77bd 0648 2e3d
00000350: 4e9b 043a 808c 58bd d43f d13c a066 5ebd
00000360: dae8 7cbd 8abe 9c3c 0abe 06bd d063 4dbc
00000370: 1e97 833c 55de 77bd 1eb1 4f3d 30d0 913c
00000380: 9206 c9bc 0cd8 29bd 7035 acbc 6062 223d
00000390: f8f8 33bd dcdc 99bc 903f ebbb f33d 0a3d
000003a0: 4e94 5f3d 0ef4 183d b4a3 b838 8034 9f3c
000003b0: 81fb acbb 836b 10bd 5421 9bbc 54bb 53bd
000003c0: 0caa 0bbd dbf7 5fbd 9ca6 e63c f215 573d
000003d0: 00a0 47bd 1d4d bd3b 35c9 81bd 2a44 13bd
000003e0: 5ca4 003c 8397 4fbd c075 f7bb 7cea 093d
000003f0: a093 a8bc efb7 673c ff42 abba bd49 c5bc

weight f4 [5, 256]
0.036389925 -0.026128747 0.019948786 -0.030652434 0.049837068 0.06654114 0.030312119 0.036064543
0.031096233 0.0015057176 0.06188075 -0.005458638 -0.0077964216 -0.04289826 -0.026112653 0.054617688
-0.030243576 -0.02935788 0.0051542744 -0.02179869 -0.019998282 0.0114509715 0.020420006 -0.039839454
-0.025942475 -0.018083705 0.03256487 0.045189418 0.024038266 0.0071859215 -0.024923781 0.034721274
0.0060192496 -0.01783838 0.01928249 -0.05595778 0.0315248 -0.021818727 0.030560324 -0.04909724
-0.039160743 0.008050036 0.026495168 0.04265836 0.016442645 -0.007284363 -0.034790635 0.029968826
-0.05527713 -0.035914864 0.042158872 0.04328667 -0.012206279 0.032104593 -0.056596663 0.034584783
-0.050958373 0.048298877 -0.003955199 -0.025040701 0.023711374 0.050193056 -0.015527904 -0.016295731
0.018578991 0.014331593 -0.027607765 -0.039028876 -0.060609855 -0.04989004 -0.04649485 0.022384807
-0.035695232 -0.022191077 0.05476991 0.03866695 0.04683491 0.024880081 -0.009657429 0.051300943
-0.012157675 0.03686534 -0.004209116 0.03134244 0.035054862 0.039552964 -0.014588505 0.058059998
-0.0019800917 -0.016294776 0.021144923 -0.013801663 -0.0052600205 0.020312306 -0.024796471 -0.034282792
0.0043148175 0.028262418 0.0043592723 0.05121173 -0.027274586 0.0266391 -0.030059062 -0.027206775
-0.018749049 0.037299566 0.02388642 0.034244627 0.031227143 0.033892497 -0.046964042 -0.04700131
-0.023655672 0.024135904 0.032368526 -0.0391172 0.034809973 -0.014833577 0.04398399 -0.036328517
0.05076576 -0.029614508 -0.032831192 -0.012523204 -0.034429915 -0.0047511756 0.049550116 -0.022633085
-0.0138544 0.02140528 0.022121653 0.05755273 -0.007022402 -0.007866092 0.013491064 0.03230504
0.047962047 -0.039681666 0.041524723 0.03667607 -0.053196482 0.026704445 0.022793148 -0.018976986
0.04060246 -0.019210923 -0.02512525 -0.020309148 -0.011343941 -0.04098796 0.034023315 -0.030954575
0.0122777745 0.03546331 -0.047982857 0.024110273 -0.026487373 0.02741051 -0.060472958 0.020691194
0.024022236 -0.020877361 0.026161166 0.05875904 0.009928982 -0.025676748 -0.04259757 0.05033209
0.0011433616 0.049992815 0.0051562856 0.0567711 0.012433863 0.0553829 0.0067467317 -0.059331328
0.042805202 0.0043346137 0.0245249 0.048131052 0.04982422 0.015668534 -0.05029785 0.048027426
0.056684773 0.0018131861 0.037772544 0.014290066 -0.0020309638 -0.042049725 0.04319462 -0.014404871
-0.039929397 0.032362178 -0.04270624 -0.040803146 0.01128865 0.042604446 0.00064940617 0.04246863
0.0270025 -0.020211998 0.017023904 -0.029105809 0.0550593 -0.022840416 0.013996422 -0.0062040463
0.036716945 7.172543e-05 0.011647031 -0.021007277 -0.012852414 -0.046612516 -0.01876358 0.019878931
0.035153072 0.04275493 -0.023558224 -0.013781935 -0.026273303 0.027475683 -0.059073396 -0.009206935
-0.002369126 0.037196252 0.0485496 -0.011071019 0.041144207 -0.013595812 -0.061288014 0.014204254
-0.00081440073 0.0063397437 0.023903884 0.0039829314 0.026261874 0.0005485635 0.025836125 0.011418948
-0.056191526 0.025329374 -0.03366874 -0.022433713 0.021694316 -0.0055301078 -0.022530815 0.008022606
0.056153886 0.015814304 -0.0117300525 -0.053506576 0.00851237 0.0311346 -0.0082326485 0.021143269
00000000: 9a0d 153d f40b d6bc a36b a33c d01a fbbc
00000010: f421 4c3d b946 883d 1f51 f83c 6ab8 133d
00000020: 87bd fe3c 805b c53a ab76 7d3d 60de b2bb
00000030: 2079 ffbb 16b6 2fbd 34ea d5bc ccb6 5f3d
00000040: 60c1 f7bc f07f f0bc 30e5 a83b 2b93 b2bc
00000050: 70d3 a3bc db9c 3b3c db47 a73c b22e 23bd
00000060: 5085 d4bc 4724 94bc be62 053d 8a18 393d
00000070: e6eb c43c e177 eb3b f52c ccbc e537 0e3d
00000080: 203d c53b cb21 92bc 50f6 9d3c fc33 65bd
00000090: 2620 013d 30bd b2bc a559 fa3c 301a 49bd
000000a0: 0467 20bd 4ce4 033c 650c d93c 88ba 2e3d
000000b0: bab2 863c aab1 eebb a080 0ebd 2f81 f53c
000000c0: 466a 62bd 771b 13bd c8ae 2c3d 5d4d 313d
000000d0: d8fc 47bc 1b80 033d e7d1 67bd c6a8 0d3d
000000e0: bab9 50bd 0bd5 453d 9d9a 81bb 2822 cdbc
000000f0: 5b3e c23c 3c97 4d3d c068 7ebc a07e 85bc
00000100: f832 983c 0fcf 6a3c ae29 e2bc bedc 1fbd
00000110: 0a42 78bd 8059 4cbd 6271 3ebd 5860 b73c
00000120: 2a35 12bd 10ca b5bc 6a56 603d 3c61 1e3d
00000130: f6d5 3f3d 50d1 cb3c 313a 1ebc f020 523d
00000140: fc30 47bc 1c00 173d a0ec 89bb ee60 003d
00000150: b095 0f3d 4a02 223d a004 6fbc 52d0 6d3d
00000160: 6dc4 01bb 9f7c 85bc 1e38 ad3c 5f20 62bc
00000170: 405c acbb fe65 a63c f821 cbbc 1d6c 0cbd
00000180: 5063 8d3b 9686 e73c 3ad8 8e3b 64c3 513d
00000190: f46e dfbc 3e3a da3c 6c3e f6bc bee0 debc
000001a0: 9b97 99bc 6ec7 183d 74ad c33c 1844 0c3d
000001b0: 11d0 ff3c dcd2 0a3d 5e5d 40bd 7284 40bd
000001c0: 8ac9 c1bc a9b8 c53c dc94 043d 5b39 20bd
000001d0: e794 0e3d 8808 73bc 8e28 343d 36cd 14bd
000001e0: c2ef 4f3d 209a f2bc 007a 06bd 202e 4dbc
000001f0: 6206 0dbd c0af 9bbb 10f5 4a3d 0569 b9bc
00000200: 91fd 62bc 205a af3c 7838 b53c 69bc 6b3d
00000210: 2d1c e6bb c8e0 00bc a009 5d3c 4a52 043d
00000220: da73 443d 3e89 22bd d415 2a3d a639 163d
00000230: 8ee4 59bd 48c3 da3c b2b8 ba3c a075 9bbc
00000240: c44e 263d 3a60 9dbc 78d3 cdbc 5f5f a6bc
00000250: f0db 39bc fee2 27bd 085c 0b3d 7394 fdbc
00000260: b828 493c fa41 113d ac89 44bd e882 c53c
00000270: 0cfc d8bc 028c e03c 7eb2 77bd 9480 a93c
00000280: 48ca c43c 0007 abbc f14f d63c 52ad 703d
00000290: 2bad 223c 0b58 d2bc ca7a 2ebd 0629 4e3d
000002a0: d9dc 953a 44c5 4c3d 0ff6 a83b d088 683d
000002b0: 67b7 4b3c 2ed9 623d b013 dd3b 6805 73bd
000002c0: 8254 2f3d 6009 8e3b 71e8 c83c 1125 453d
000002d0: 7b14 4c3d 4c5b 803c 1e05 4ebd 68b8 443d
000002e0: 4b2e 683d 6ea8 ed3a 62b7 1a3d e220 6a3c
000002f0: eb19 05bb 553c 2cbd d8ec 303d 6802 6cbc
00000300: 028d 23bd 348e 043d bdec 2ebd 3321 27bd
00000310: 08f4 383c 0082 2e3d e93c 2a3a 96f3 2d3d
00000320: 5934 dd3c a293 a5bc b775 8b3c 4e6f eebc
00000330: dc85 613d d31b bbbc 4051 653c 504b cbbb
00000340: 8264 163d 4c6b 9638 30d3 3e3c 7417 acbc
00000350: ee92 52bc c4ec 3ebd 14b6 99bc 24d9 a23c
00000360: abfc 0f3d cb1f 2f3d 2dfd c0bc a0cd 61bc
00000370: 1c3b d7bc af14 e13c f2f6 71bd afd8 16bc
00000380: 5743 1bbb 195b 183d f2db 463d 3863 35bc
00000390: d486 283d f8c0 5ebc 2409 7bbd f6b8 683c
000003a0: 827d 55ba a0bd cf3b 14d2 c33c 4083 823b
000003b0: 2423 d73c 79cd 0f3a 48a6 d33c 8a16 3b3c
000003c0: 1629 66bd 8c7f cf3c 3ce8 09bd e8c6 b7bc
000003d0: 47b8 b13c e835 b5bb 8b92 b8bc 4071 033c
000003e0: 9e01 663d 008d 813c 682f 40bc b629 5bbd
000003f0: 7877 0b3c fd0d ff3c 3be2 06bc a634 ad3c

bias f4 [5]
0.007825834 0.013458668 0.0117685655 0.023130309 0.034193903
00000000: ed37 003c bf81 5c3c f1d0 403c c67b bd3c
00000010: e80e 0c3d

exp_avg f4 [256, 5]
0.0 0.0 0.0 0.0 0.0 0.0 5.552241e-10 -3.2781655e-10
6.4426586e-10 7.928573e-11 1.6473696e-05 0.00029756085 -0.00044872006 0.0005070315 3.0442707e-05 0.0
0.0 0.0 0.0 0.0 1.5711466e-05 0.00037994026 -0.00012753566 0.00038500293
3.0052066e-05 2.8421196e-05 -0.004204778 0.0038769105 -0.005739926 -0.0006285329 0.0 0.0
0.0 0.0 0.0 -5.480952e-08 1.300778e-05 -5.335511e-06 1.4058773e-05 1.9155514e-06
-4.5346726e-09 1.248627e-07 -5.07994e-08 1.3479503e-07 2.2452301e-08 -2.9710527e-05 0.0013891954 -0.0018496923
0.0022525312 0.0002319232 -2.5017349e-05 0.0054955157 -0.005303916 0.007658564 0.00080446695 2.896705e-05
-0.004990439 0.0048659933 -0.0069779297 -0.0007362022 0.0 0.0 0.0 0.0
0.0 -9.2556206e-07 0.00042555193 -0.00026452795 0.00051570433 7.0919705e-05 0.0 0.0
0.0 0.0 0.0 0.0 0.0 0.0 0.0 0.0
0.0 0.0 0.0 0.0 0.0 0.0 0.0 0.0
0.0 0.0 -3.2810221e-06 -0.00045071953 0.00028305734 -0.00053599785 -6.059004e-05 6e-45
1.8347215e-09 -9.86467e-10 2.081157e-09 2.619957e-10 -1.926906e-05 0.0038388888 -0.0039252695 0.0054745735
0.0005587746 0.00012687164 0.009618529 -0.009432755 0.013476854 0.00122334 0.0 0.0
0.0 0.0 0.0 -3.072138e-06 0.0005751314 -0.0006693315 0.0008669463 7.419672e-05
5.5237715e-06 0.0009608078 -0.00063499814 0.0011600924 0.00015349557 -1.4947467e-05 -0.0014729049 0.0015492023
-0.0021321084 -0.00019157698 -5.113735e-06 -0.0009310976 0.0008561781 -0.0012680363 -0.00012954956 0.0
0.0 0.0 0.0 0.0 0.0 0.0 0.0 0.0
0.0 0.0 0.0 0.0 0.0 0.0 0.0 0.0
0.0 0.0 0.0 0.0 0.0 0.0 0.0 0.0
-1.4516882e-08 4.55999e-06 -1.7574504e-06 4.8866486e-06 6.655614e-07 -1.21612475e-05 0.0022472779 -0.0023310327
0.0032322593 0.0003312787 0.0 0.0 0.0 0.0 0.0 2.1787473e-05
-0.00059358194 0.00087356096 -0.0010123842 -0.00012699596 -0.0003317421 0.036478277 -0.035863105 0.0511432
0.005516338 3.441953e-05 -0.003921435 0.003971672 -0.0055643255 -0.0005706224 0.0 0.0
0.0 0.0 0.0 0.0 0.0 0.0 0.0 0.0
3.6325057e-06 -0.0013689689 0.0012644887 -0.0018739281 -0.00020492978 0.0 0.0 0.0
0.0 0.0 1.275456e-05 -0.0013261712 0.0012424391 -0.0018083809 -0.00021387666 -9.284176e-06
0.003207073 -0.0029907073 0.0044054505 0.00046528294 0.0 0.0 0.0 0.0
0.0 0.0 0.0 0.0 0.0 0.0 2.7409109e-05 -0.00053884997
0.00073375273 -0.0008758977 -8.810434e-05 0.0 0.0 0.0 0.0 0.0
-8.275524e-06 -0.0009876675 0.001187305 -0.0015156148 -0.00014774298 -2.9388348e-06 0.002214882 -0.002186458
0.0031233155 0.00033227942 5.8634218e-05 -0.002664914 0.0026735454 -0.0037667037 -0.00044289316 1.8462715e-05
00000000: 0000 0000 0000 0000 0000 0000 0000 0000
00000010: 0000 0000 0000 0000 6c9e 1830 1438 b4af
00000020: 2e18 3130 e659 ae2e fe30 8a37 f101 9c39
00000030: 3042 ebb9 4fea 043a 375f ff37 0000 0000
00000040: 0000 0000 0000 0000 0000 0000 0000 0000
00000050: 1ecc 8337 b832 c739 18bb 05b9 38da c939
00000060: 5218 fc37 0e6a ee37 3cc8 89bb c413 7e3b
00000070: fd15 bcbb 21c4 24ba 0000 0000 0000 0000
00000080: 0000 0000 0000 0000 0000 0000 b467 6bb3
00000090: fd3b 5a37 b107 b3b6 f8dd 6b37 ec8c 0036
000000a0: 67cf 9bb1 ff11 0634 882e 5ab3 2dbc 1034
000000b0: 22dd c032 df3a f9b7 aa15 b63a 6071 f2ba
000000c0: 349f 133b 6930 7339 59dc d1b7 ba13 b43b
000000d0: 79cc adbb b1f4 fa3b dde2 523a 44fe f237
000000e0: d686 a3bb e972 9f3b 1ea7 e4bb b1fd 40ba
000000f0: 0000 0000 0000 0000 0000 0000 0000 0000
00000100: 0000 0000 2474 78b5 9d1c df39 57b0 8ab9
00000110: 5530 073a baba 9438 0000 0000 0000 0000
00000120: 0000 0000 0000 0000 0000 0000 0000 0000
00000130: 0000 0000 0000 0000 0000 0000 0000 0000
00000140: 0000 0000 0000 0000 0000 0000 0000 0000
00000150: 0000 0000 0000 0000 0000 0000 0000 0000
00000160: 0000 0000 0000 0000 882f 5cb6 8d4e ecb9
00000170: 5067 9439 3582 0cba 0f22 7eb8 0400 0000
00000180: 8629 fc30 3994 87b0 1a04 0f31 9e08 902f
00000190: fea3 a1b7 de95 7b3b 8c9f 80bb 0d64 b33b
000001a0: bb7a 123a d908 0539 0997 1d3c d88b 1abc
000001b0: 06ce 5c3c 7b58 a03a 0000 0000 0000 0000
000001c0: 0000 0000 0000 0000 0000 0000 ee2a 4eb6
000001d0: 6ac4 163a 1476 2fba c843 633a 109a 9b38
000001e0: d658 b936 b8de 7b3a 0176 26ba 3e0e 983a
000001f0: a7f3 2039 e2c6 7ab7 7d0e c1ba 9a0e cb3a
00000200: d8ba 0bbb 0ee2 48b9 a696 abb6 e714 74ba
00000210: 2471 603a 3d34 a6ba b2d7 07b9 0000 0000
00000220: 0000 0000 0000 0000 0000 0000 0000 0000
00000230: 0000 0000 0000 0000 0000 0000 0000 0000
00000240: 0000 0000 0000 0000 0000 0000 0000 0000
00000250: 0000 0000 0000 0000 0000 0000 0000 0000
00000260: 0000 0000 0000 0000 0000 0000 0000 0000
00000270: 0000 0000 0000 0000 0000 0000 0000 0000
00000280: ec65 79b2 0402 9936 89e1 ebb5 fef7 a336
00000290: 08a9 3235 2908 4cb7 1147 133b 3dc4 18bb
000002a0: 50d4 533b 79af ad39 0000 0000 0000 0000
000002b0: 0000 0000 0000 0000 0000 0000 3ec4 b637
000002c0: 9c9a 1bba afff 643a fab1 84ba 382a 05b9
000002d0: aced adb9 3f6a 153d 31e5 12bd 887b 513d
000002e0: 66c2 b43b b05d 1038 627f 80bb cd24 823b
000002f0: f254 b6bb d295 15ba 0000 0000 0000 0000
00000300: 0000 0000 0000 0000 0000 0000 0000 0000
00000310: 0000 0000 0000 0000 0000 0000 0000 0000
00000320: f9c5 7336 f96e b3ba 33bd a53a 989e f5ba
00000330: 6be2 56b9 0000 0000 0000 0000 0000 0000
00000340: 0000 0000 0000 0000 6bfc 5537 ecd2 adba
00000350: 57d9 a23a 3207 edba 1444 60b9 3bc3 1bb7
00000360: c22d 523b beff 43bb 995b 903b 38f1 f339
00000370: 0000 0000 0000 0000 0000 0000 0000 0000
00000380: 0000 0000 0000 0000 0000 0000 0000 0000
00000390: 0000 0000 0000 0000 9dec e537 9c41 0dba
000003a0: 5059 403a 809c 65ba a8c4 b8b8 0000 0000
000003b0: 0000 0000 0000 0000 0000 0000 0000 0000
000003c0: 1bd7 0ab7 9f74 81ba 589f 9b3a 98a7 c6ba
000003d0: 74eb 1ab9 cc38 45b6 8e27 113b ae4a 0fbb
000003e0: 8ab0 4c3b ca35 ae39 03ee 7538 d6a5 2ebb
000003f0: a636 2f3b cdda 76bb 1d34 e8b9 61e0 9a37

exp_avg_sq f4 [256, 5]
0.0 0.0 0.0 0.0 0.0 0.0 2.5878548e-12 9.021211e-13
3.4844469e-12 5.277079e-14 7.207456e-07 0.0037562274 0.0039372486 0.0076986924 8.704187e-05 0.0
0.0 0.0 0.0 0.0 1.1647192e-07 0.00048950897 0.0005080844 0.0009980719
1.1047147e-05 2.4040986e-07 0.0011978738 0.0012378737 0.0024364837 2.6405743e-05 0.0 0.0
0.0 0.0 0.0 4.447693e-12 9.1026834e-08 1.47313814e-08 1.0575882e-07 2.0169133e-09
2.5693828e-15 1.9480596e-12 3.2244379e-13 2.2703092e-12 6.298811e-14 3.3602132e-07 0.0013590314 0.0014232431
0.0027838948 3.2113807e-05 4.6147292e-07 0.0024888718 0.002572611 0.0050642313 5.615945e-05 1.5872254e-07
0.0008106145 0.0008357535 0.0016470904 1.8116789e-05 0.0 0.0 0.0 0.0
0.0 1.2987482e-07 0.00053920207 0.0005506358 0.0010907791 1.174511e-05 0.0 0.0
0.0 0.0 0.0 0.0 0.0 0.0 0.0 0.0
0.0 0.0 0.0 0.0 0.0 0.0 0.0 0.0
0.0 0.0 5.3032966e-07 0.0017288132 0.0018002902 0.0035317168 3.9326627e-05 3.6063127e-18
6.070185e-12 1.920854e-12 7.978322e-12 1.2374832e-13 3.9705975e-07 0.0019446944 0.0020207986 0.003967619
4.3279528e-05 1.297308e-07 0.0013369614 0.0013615569 0.002699524 3.0152523e-05 0.0 0.0
0.0 0.0 0.0 2.5664747e-07 0.0013942627 0.0014507717 0.0028466736 3.187389e-05
1.0632692e-07 0.00057129964 0.0005949485 0.0011668154 1.31724e-05 8.8559524e-08 0.00044470897 0.00045785922
0.0009033763 9.769485e-06 1.4907556e-07 0.00071648107 0.0007441282 0.0014614147 1.6268072e-05 0.0
0.0 0.0 0.0 0.0 0.0 0.0 0.0 0.0
0.0 0.0 0.0 0.0 0.0 0.0 0.0 0.0
0.0 0.0 0.0 0.0 0.0 0.0 0.0 0.0
1.477626e-12 2.0915655e-08 5.588707e-09 2.650444e-08 4.258883e-10 3.7021826e-07 0.0016188269 0.0017044934
0.0033253091 3.7498827e-05 0.0 0.0 0.0 0.0 0.0 2.3906168e-07
0.0011795198 0.0012239632 0.0024051636 2.6429874e-05 9.64521e-07 0.007313512 0.0075248103 0.01483986
0.00015217204 3.7552883e-07 0.0021603857 0.0022244677 0.004387086 4.745587e-05 0.0 0.0
0.0 0.0 0.0 0.0 0.0 0.0 0.0 0.0
7.4431665e-07 0.0029974214 0.0031647983 0.006165645 7.055887e-05 0.0 0.0 0.0
0.0 0.0 3.992159e-07 0.0023659721 0.002462276 0.004830212 5.5968932e-05 7.3940396e-07
0.0035346795 0.0037064434 0.007245763 8.273823e-05 0.0 0.0 0.0 0.0
0.0 0.0 0.0 0.0 0.0 0.0 8.9155186e-08 0.0005595781
0.0005736004 0.0011339335 1.2266982e-05 0.0 0.0 0.0 0.0 0.0
2.8070062e-07 0.0019795618 0.0020524382 0.004033976 4.589417e-05 3.8815764e-07 0.0021112266 0.0021514157
0.004266335 4.447815e-05 1.9942343e-07 0.0020993683 0.002135586 0.0042375387 4.4183882e-05 1.7765376e-07
00000000: 0000 0000 0000 0000 0000 0000 0000 0000
00000010: 0000 0000 0000 0000 a61a 362c adec 7d2b
00000020: 3732 752c 94a8 6d29 4379 4135 0a2b 763b
00000030: 0904 813b 5045 fc3b 408a b638 0000 0000
00000040: 0000 0000 0000 0000 0000 0000 0000 0000
00000050: 1d1f fa33 6452 003a f830 053a bcd1 823a
00000060: 2357 3937 ae11 8134 fa01 9d3a 2640 a23a
00000070: 6aad 1f3b e781 dd37 0000 0000 0000 0000
00000080: 0000 0000 0000 0000 0000 0000 427d 9c2c
00000090: 887a c333 4d15 7d32 871d e333 ea99 0a31
000000a0: bf24 3927 1f15 092c 0c85 b52a 41c2 1f2c
000000b0: 2cd6 8d29 6b66 b434 8721 b23a 1d8c ba3a
000000c0: 0172 363b f0b1 0638 5bc0 f734 571c 233b
000000d0: 4099 283b daf1 a53b c08c 6b38 526d 2a34
000000e0: 6b7f 543a 7816 5b3a 2fe3 d73a 82f9 9737
000000f0: 0000 0000 0000 0000 0000 0000 0000 0000
00000100: 0000 0000 b873 0b34 3d59 0d3a 8b58 103a
00000110: 79f8 8e3a dd0c 4537 0000 0000 0000 0000
00000120: 0000 0000 0000 0000 0000 0000 0000 0000
00000130: 0000 0000 0000 0000 0000 0000 0000 0000
00000140: 0000 0000 0000 0000 0000 0000 0000 0000
00000150: 0000 0000 0000 0000 0000 0000 0000 0000
00000160: 0000 0000 0000 0000 fa5b 0e35 5899 e23a
00000170: b7f7 eb3a 6074 673b a5f2 2438 a90c 8522
00000180: 5e93 d52c 082b 072c 2b5b 0c2d 0654 0b2a
00000190: 7a2b d534 1ee5 fe3a 606f 043b cd02 823b
000001a0: 0a87 3538 214c 0b34 fb3c af3a 4576 b23a
000001b0: 7fea 303b 0df0 fc37 0000 0000 0000 0000
000001c0: 0000 0000 0000 0000 0000 0000 5cc9 8934
000001d0: b1bf b63a d227 be3a 428f 3a3b 54b0 0538
000001e0: d855 e433 45c3 153a 51f6 1b3a d4ef 983a
000001f0: 07ff 5c37 1d2e be33 d427 e939 d30c f039
00000200: 8fd0 6c3a 9ee7 2337 9411 2034 3bd2 3b3a
00000210: 9911 433a f18c bf3a 6b77 8837 0000 0000
00000220: 0000 0000 0000 0000 0000 0000 0000 0000
00000230: 0000 0000 0000 0000 0000 0000 0000 0000
00000240: 0000 0000 0000 0000 0000 0000 0000 0000
00000250: 0000 0000 0000 0000 0000 0000 0000 0000
00000260: 0000 0000 0000 0000 0000 0000 0000 0000
00000270: 0000 0000 0000 0000 0000 0000 0000 0000
00000280: 16f5 cf2b 03aa b332 c906 c031 e1ab e332
00000290: 7322 ea2f 69c2 c634 d12e d43a 4f69 df3a
000002a0: 6eed 593b 0f48 1d38 0000 0000 0000 0000
000002b0: 0000 0000 0000 0000 0000 0000 6358 8034
000002c0: 1e9a 9a3a 646d a03a f39f 1d3b b9b5 dd37
000002d0: b074 8135 2fa6 ef3b af92 f63b e222 733c
000002e0: 5f90 1f39 4a9c c934 4295 0d3b 60c8 113b
000002f0: 8bc1 8f3b 5a0b 4738 0000 0000 0000 0000
00000300: 0000 0000 0000 0000 0000 0000 0000 0000
00000310: 0000 0000 0000 0000 0000 0000 0000 0000
00000320: 0dcd 4735 6370 443b 8168 4f3b 2e09 ca3b
00000330: 01f9 9338 0000 0000 0000 0000 0000 0000
00000340: 0000 0000 0000 0000 d153 d634 6d0e 1b3b
00000350: 235e 213b c146 9e3b 2fc0 6a38 747b 4635
00000360: 15a6 673b cde7 723b de6d ed3b c083 ad38
00000370: 0000 0000 0000 0000 0000 0000 0000 0000
00000380: 0000 0000 0000 0000 0000 0000 0000 0000
00000390: 0000 0000 0000 0000 9575 bf33 a7b0 123a
000003a0: ac5d 163a 7fa0 943a 49ce 4d37 0000 0000
000003b0: 0000 0000 0000 0000 0000 0000 0000 0000
000003c0: 33b3 9634 89bb 013b 3382 063b 712f 843b
000003d0: 7d7e 4038 fb63 d034 815c 0a3b c4fe 0c3b
000003e0: 9dcc 8b3b 0d8e 3a38 1821 5634 8e95 093b
000003f0: 30f5 0b3b 0ddb 8a3b 1552 3938 18c1 3e34

exp_avg f4 [256]
0.0 2.0190037e-11 9.752983e-06 0.0 1.3825588e-05 -0.00015313004 0.0 4.7383386e-07
4.5626805e-09 5.154905e-05 0.00020042941 -0.0001821888 0.0 1.5593796e-05 0.0 0.0
0.0 0.0 -1.6393515e-05 6.671692e-11 0.00013904869 0.0003480251 0.0 2.1194264e-05
3.4070938e-05 -5.3662527e-05 -3.387351e-05 0.0 0.0 0.0 0.0 0.0
1.6578707e-07 8.240521e-05 0.0 -2.074859e-05 0.0013291712 -0.00014275027 0.0 0.0
-4.9729497e-05 0.0 -4.6589692e-05 0.00011698937 0.0 0.0 -2.0197658e-05 0.0
-3.447191e-05 8.0361024e-05 -9.7516284e-05 -9.4654344e-05 0.0 0.0 0.00014947464 -0.00019148775
3.9042832e-05 0.0 2.881366e-07 0.0 -0.00015844479 0.0 0.00012542956 -0.0001266488
8.280139e-05 6e-45 -7.007038e-05 0.0 0.0 -0.00013507891 0.0 0.00016785404
0.0 1.16198635e-07 0.00014437929 -3.62114e-05 0.0 0.0 0.0 0.0
-4.3961973e-07 0.0 1.4102736e-05 0.00010065479 -8.887799e-05 6.7659435e-05 0.0 0.0
0.0 -1.8401664e-05 0.0014462322 0.0 5.4223317e-05 -2.4398498e-05 0.0 6.48089e-05
0.0 0.000106648135 0.0 0.0 -1.4069852e-05 3.7254595e-05 7.602534e-05 0.0
0.0 7.9153055e-05 0.0 0.00025833782 1.8835526e-06 0.0 0.0 3.031992e-05
6.8236346e-05 6e-45 6e-45 2.3714283e-06 0.0 -9.5010546e-07 2.5807145e-05 0.0016340674
-0.00015895002 5.6275087e-07 0.0 -6.511981e-05 0.0 0.0 -5.8019727e-05 0.00016008022
-4.2371394e-06 -2.4393228e-05 0.00013839657 -6.794237e-05 0.0 0.0 7.917438e-05 0.00011683882
0.0 0.0 -4.3052667e-05 -5.6667086e-06 0.0 7.6222845e-05 0.0 0.0
-2.2598946e-05 0.00019270397 6e-45 0.0 6e-45 -0.00013789389 0.0 0.0
5.6647812e-05 0.0002015289 0.0 0.0 -0.00013101415 0.0 0.0 0.0
6.958701e-05 -6.417072e-05 9.921095e-08 0.0 6.858195e-05 -6.8098605e-05 -2.2053595e-05 -5.362432e-05
0.0 0.0 0.0 0.0 2.134001e-05 4.7227595e-06 0.0 0.0
0.00014222886 0.0 -7.870816e-05 0.0 1.0000964e-05 0.00011575637 8.781703e-06 0.0
0.0 8.2457194e-11 -8.6126965e-05 0.0 2.4328037e-06 0.0 0.0 0.0
0.0 0.0 -4.137437e-06 1.7304654e-05 0.0 0.0 -7.7595185e-05 9.086954e-10
0.0 8.8695145e-08 -8.0165955e-07 -4.1585386e-05 0.0 0.0 6.8513065e-05 0.0
-2.4885025e-05 0.0 0.00014211997 0.0 0.0016266683 0.00035525038 4.5083812e-05 4.426247e-06
0.0 6e-45 0.0 -7.9750025e-05 0.0 0.0 2.6646467e-05 -3.137507e-05
-3.1610518e-05 0.0 6.0260274e-05 -3.4916e-05 0.0 2.873265e-10 0.0 0.00052771333
0.0 0.0 0.0 -2.3762204e-05 -0.00015166009 1.6405465e-05 8.0443744e-05 -3.4911252e-05
0.00021366571 -9.155169e-05 -1.3014128e-05 -6.982284e-05 -9.954942e-05 0.0 0.0 0.00018708507
0.0 0.000108940796 0.0 0.0 -2.3519837e-05 0.0 1.37954685e-05 6.656813e-05
00000000: 0000 0000 ec97 b12d bea0 2337 0000 0000
00000010: 73f4 6737 8891 20b9 0000 0000 3b63 fe34
00000020: c3c5 9c31 5f36 5838 5c2a 5239 ef09 3fb9
00000030: 0000 0000 6ccf 8237 0000 0000 0000 0000
00000040: 0000 0000 0000 0000 ce84 89b7 49b6 922e
00000050: 99cd 1139 2377 b639 0000 0000 56ca b137
00000060: 64e7 0e38 b313 61b8 6813 0eb8 0000 0000
00000070: 0000 0000 0000 0000 0000 0000 0000 0000
00000080: 3403 3234 f6d0 ac38 0000 0000 420d aeb7
00000090: 9637 ae3a 3caf 15b9 0000 0000 0000 0000
000000a0: a494 50b8 0000 0000 4d69 43b8 3158 f538
000000b0: 0000 0000 0000 0000 246e a9b7 0000 0000
000000c0: ee95 10b8 7f87 a838 a881 ccb8 2a81 c6b8
000000d0: 0000 0000 0000 0000 4bbc 1c39 1aca 48b9
000000e0: ecc1 2338 0000 0000 31b1 9a34 0000 0000
000000f0: 3324 26b9 0000 0000 be85 0339 07cd 04b9
00000100: a8a5 ad38 0400 0000 c0f2 92b8 0000 0000
00000110: 0000 0000 f8a3 0db9 0000 0000 fa01 3039
00000120: 0000 0000 e088 f933 8564 1739 b2e1 17b8
00000130: 0000 0000 0000 0000 0000 0000 0000 0000
00000140: e004 ecb4 0000 0000 ca9a 6c37 a116 d338
00000150: 0264 bab8 62e4 8d38 0000 0000 0000 0000
00000160: 0000 0000 465d 9ab7 808f bd3a 0000 0000
00000170: d86d 6338 60ab ccb7 0000 0000 03ea 8738
00000180: 0000 0000 48a8 df38 0000 0000 0000 0000
00000190: 8e0d 6cb7 d141 1c38 cb6f 9f38 0000 0000
000001a0: 0000 0000 f9fe a538 0000 0000 8471 8739
000001b0: 60ce fc35 0000 0000 0000 0000 8857 fe37
000001c0: 1c1a 8f38 0400 0000 0400 0000 d424 1f36
000001d0: 0000 0000 c00a 7fb5 6c7c d837 342e d63a
000001e0: d2ab 26b9 f20f 1735 0000 0000 ef90 88b8
000001f0: 0000 0000 0000 0000 355a 73b8 35db 2739
00000200: c02c 8eb6 0fa0 ccb7 8c1e 1139 487c 8eb8
00000210: 0000 0000 0000 0000 6c0a a638 5d07 f538
00000220: 0000 0000 0000 0000 7393 34b8 a824 beb6
00000230: 0000 0000 d4d9 9f38 0000 0000 0000 0000
00000240: de92 bdb7 9410 4a39 0400 0000 0000 0000
00000250: 0400 0000 9c97 10b9 0000 0000 0000 0000
00000260: 2099 6d38 8151 5339 0000 0000 0000 0000
00000270: d860 09b9 0000 0000 0000 0000 0000 0000
00000280: 3eef 9138 6593 86b8 cc0d d533 0000 0000
00000290: a7d3 8f38 29d0 8eb8 bcff b8b7 adea 60b8
000002a0: 0000 0000 0000 0000 0000 0000 0000 0000
000002b0: 5303 b337 3278 9e36 0000 0000 0000 0000
000002c0: 4523 1539 0000 0000 1f10 a5b8 0000 0000
000002d0: d0c9 2737 3ac2 f238 2155 1337 0000 0000
000002e0: 0000 0000 4653 b52e 109f b4b8 0000 0000
000002f0: 4043 2336 0000 0000 0000 0000 0000 0000
00000300: 0000 0000 0000 0000 50d4 8ab6 7629 9137
00000310: 0000 0000 0000 0000 99ba a2b8 c1c7 7930
00000320: 0000 0000 ac78 be33 a031 57b5 f86b 2eb8
00000330: 0000 0000 0000 0000 acae 8f38 0000 0000
00000340: 2fc0 d0b7 0000 0000 0a06 1539 0000 0000
00000350: ee35 d53a e640 ba39 6018 3d38 2c85 9436
00000360: 0000 0000 0400 0000 0000 0000 783f a7b8
00000370: 0000 0000 0000 0000 da86 df37 ba98 03b8
00000380: 8995 04b8 0000 0000 fabf 7c38 c572 12b8
00000390: 0000 0000 9cf5 9d2f 0000 0000 3e56 0a3a
000003a0: 0000 0000 0000 0000 0000 0000 f254 c7b7
000003b0: f206 1fb9 789e 8937 e8b3 a838 ac6d 12b8
000003c0: 740b 6039 70ff bfb8 4157 5ab7 da6d 92b8
000003d0: 30c5 d0b8 0000 0000 0000 0000 442c 4439
000003e0: 0000 0000 2577 e438 0000 0000 0000 0000
000003f0: 774c c5b7 0000 0000 1673 6737 7e9a 8b38
