master_thesis/auto_docking/neural_network_models/final_trained_model.pt (torch, 829487 bytes, 18 tensors)

weight f4 [256, 5]
-0.3150259 0.2677811 -0.15077329 -0.044849887 0.0831927 -0.43151858 0.27812034 -0.09162453
-0.42657757 0.35175115 0.33231217 -0.1987974 0.04168701 -0.0061244965 -0.1614356 -0.20641036
-0.32028627 -0.20086063 -0.24597113 0.13195765 -0.34658998 -0.21111296 0.09009147 -0.28618687
0.38036847 0.49260947 -0.087138236 -0.30992988 -0.10348847 -0.14953345 -0.01570496 0.419962
-0.06105516 0.0012701004 -0.3405604 -0.012028515 -0.030348837 0.36601448 -0.12299347 -0.39176548
-0.36465764 0.10684031 0.13663691 -0.043596447 -0.17563578 -0.22689125 0.03920192 -0.16407791
-0.023429459 0.37519807 0.0649724 -0.26881063 -0.12679005 -0.185437 0.19878745 -0.31213513
-0.061895132 0.34979987 -0.44520164 0.08528155 -0.07910529 0.18247765 0.18858624 -0.2834915
0.335658 0.38946182 -0.018236607 -0.15673664 -0.20289832 -0.3740581 0.0897091 -0.11192083
-0.2783007 -0.28448102 0.026431084 -0.21072944 -0.2938456 -0.35775304 -0.06299917 0.13944505
0.18614212 0.04594786 -0.1827788 0.33735424 -0.2036595 -0.09831869 -0.39560738 0.05476999
0.2889582 0.29762715 0.2804622 -0.2279208 0.093294024 0.067560315 0.06505513 -0.22737657
0.020825947 -0.32189223 -0.011542377 0.25408942 -0.23178703 0.28511527 -0.31701913 0.062432922
0.4251644 -0.116031155 0.40350276 0.40431806 0.39900094 0.3146757 0.068739295 0.32002383
0.050599337 -0.3416486 -0.40098524 -0.17409027 -0.22728138 0.28688836 0.10179877 0.30432332
0.30185694 0.10396575 -0.1524773 0.08136926 0.3337145 -0.07212189 -0.11417231 -0.28945822
-0.21696407 -0.2027425 -0.43453354 -0.23761676 -0.28141588 -0.2525521 -0.15548709 -0.42403114
-0.03467402 -0.10299012 -0.44340476 0.3982938 -0.16195302 -0.3242275 -0.014469107 0.24332066
-0.17722052 0.34995568 -0.11980656 -0.3168355 -0.24941221 0.07684624 0.030998042 -0.1065846
-0.2385504 0.158582 0.35298982 -0.277918 -0.22620772 0.27937078 0.32203123 0.28450212
0.20963204 0.0050989133 0.1275119 0.07768162 0.2784656 -0.049095303 -0.30671617 -0.15085977
-0.20261092 0.14126593 -0.44254473 0.34757906 -0.1896793 -0.07009618 0.043069217 -0.025628835
-0.043361694 -0.26696023 -0.29302907 0.09659535 0.32482752 0.062147975 -0.2757014 -0.19728552
0.053164616 -0.0473591 -0.18487726 -0.088779554 0.36979356 -0.20489562 -0.06736386 0.014860567
0.16867429 0.28174588 -0.37068385 -0.19458658 0.2574103 -0.3025974 -0.04387848 -0.39872247
-0.27826592 0.14119473 0.18333897 0.19336638 0.0003786882 0.28668374 0.031629395 -0.23839216
0.373206 0.42050672 -0.30459547 0.14013332 -0.030697107 -0.37456018 -0.15509233 -0.09898612
-0.15880579 0.015495926 0.033531815 0.43807948 -0.07192856 -0.19154948 0.09504169 -0.32249546
0.29979712 -0.4218949 0.39315128 -0.34534964 0.08206113 -0.16317113 -0.15677658 -0.15564303
-0.33636189 0.35367242 0.29272678 0.23845166 -0.035386726 -0.16887602 0.3551033 -0.2273524
0.08553631 0.1958179 0.39990887 0.34636465 0.10534534 0.29467827 -0.15408577 -0.16406094
0.34894952 0.22557239 -0.10554817 0.33903736 -0.02008833 0.3103496 0.29712337 -0.26830605
00000000: 134b a1be 9b1a 893e 5064 1abe 84b4 37bd
00000010: ef60 aa3d 01f0 dcbe ca65 8e3e a4a5 bbbd
00000020: 6068 dabe ba18 b43e d224 aa3e 8c91 4bbe
00000030: 00c0 2a3d 00b0 c8bb 604f 25be 3d5d 53be
00000040: 90fc a3be 69ae 4dbe dbdf 7bbe e81f 073e
00000050: 3e74 b1be ff2d 58be e081 b83d 1687 92be
00000060: a8bf c23e 4f37 fc3e 8875 b2bd 21af 9ebe
00000070: c3f1 d3bd 4c1f 19be b0a7 80bc 4205 d73e
00000080: fa14 7abd 7f79 a63a ef5d aebe 4013 45bc
00000090: 209e f8bc 4066 bb3e 00e4 fbbd 7c95 c8be
000000a0: 68b4 babe 18cf da3d 8cea 0b3e 3092 32bd
000000b0: ded9 33be 2e56 68be 3192 203d 0a04 28be
000000c0: 23ef bfbc f619 c03e 4010 853d 8ca1 89be
000000d0: 40d5 01be 32e3 3dbe f08e 4b3e 2dd0 9fbe
000000e0: c085 7dbd f818 b33e 78f1 e3be 18a8 ae3d
000000f0: f401 a2bd 6cdb 3a3e c01c 413e cc25 91be
00000100: 5edb ab3e 8a67 c73e f064 95bc 927f 20be
00000110: 94c4 4fbe 8b84 bfbe 68b9 b73d c036 e5bd
00000120: 6e7d 8ebe 7fa7 91be 0086 d83c 75c9 57be
00000130: ee72 96be 682b b7be b505 81bd afca 0e3e
00000140: 0a9c 3e3e d333 3c3d 5e2a 3bbe b2b9 ac3e
00000150: 1e8c 50be 4f5b c9bd 0d8d cabe 7f56 603d
00000160: 54f2 933e 9662 983e be98 8f3e 1264 69be
00000170: f010 bf3d 105d 8a3d a03b 853d 67d5 68be
00000180: 2d9b aa3c 0fcf a4be 3d1c 3dbc 0218 823e
00000190: 9459 6dbe a1fa 913e 5550 a2be aab9 7f3d
000001a0: 26af d93e bea1 edbd ea97 ce3e c702 cf3e
000001b0: da49 cc3e 2c1d a13e 30c7 8c3d 2ada a33e
000001c0: 4041 4f3d 91ec aebe f04d cdbe b844 32be
000001d0: 73bc 68be 08e3 923e e07b d03d 44d0 9b3e
000001e0: fe8c 9a3e ffeb d43d 0223 1cbe eda4 a63d
000001f0: a0dc aa3e a4b4 93bd 2cd3 e9bd de33 94be
00000200: d42b 5ebe bb9b 4fbe 2e7b debe cf51 73be
00000210: be15 90be 824e 81be 0238 1fbe 9c1a d9be
00000220: 5806 0ebd 7cec d2bd f305 e3be 2aed cb3e
00000230: 03d7 25be 2601 a6be d50f 6dbc 0d29 793e
00000240: 4c79 35be 642d b33e 245d f5bd 4338 a2be
00000250: ea65 7fbe 9061 9d3d 9bef fd3c 0749 dabd
00000260: 8e46 74be 5263 223e 15bb b43e 454b 8ebe
00000270: ffa2 67be b009 8f3e 47e1 a43e 43aa 913e
00000280: c8a9 563e c914 a73b 7b92 023e 8b17 9f3d
00000290: 0b93 8e3e 2818 49bd e709 9dbe fc7a 1abe
000002a0: 3d79 4fbe 04a8 103e 3995 e2be e2f5 b13e
000002b0: 4a3b 42be 968e 8fbd 5969 303d 90f3 d1bc
000002c0: 089c 31bd 03af 88be e807 96be c8d3 c53d
000002d0: cb4f a63e e08e 7e3d bc28 8dbe 3705 4abe
000002e0: 24c3 593d 9efb 41bd 7750 3dbe 0ed2 b5bd
000002f0: 9555 bd3e 28d0 51be 10f6 89bd bc79 733c
00000300: f4b8 2c3e ff40 903e 46ca bdbe b441 47be
00000310: 48cb 833e 0cee 9abe ecb9 33bd 5a25 ccbe
00000320: df78 8ebe 5a95 103e 36bd 3b3e d601 463e
00000330: ab8a c639 36c8 923e d38d 013d 131d 74be
00000340: db14 bf3e a84c d73e f0f3 9bbe 1c7f 0f3e
00000350: 8078 fbbc 5ac6 bfbe 86d0 1ebe 3cb9 cabd
00000360: fc9d 22be a0e2 7d3c a858 093d f44b e03e
00000370: 484f 93bd 8c25 44be 38a5 c23d 201e a5be
00000380: 027f 993e 9c02 d8be 204b c93e abd1 b0be
00000390: aa0f a83d 5516 27be 0a8a 20be e360 1fbe
000003a0: a037 acbe 8d14 b53e 49e0 953e ac2c 743e
000003b0: acf1 10bd d6ed 2cbe 1ad0 b53e 11cf 68be
000003c0: a92d af3d 7d84 483e dbc0 cc3e b556 b13e
000003d0: 4cbf d73d 12e0 963e a9c8 1dbe 97ff 27be
000003e0: 83a9 b23e 73fc 663e a429 d8bd 4e96 ad3e
000003f0: 4890 a4bc 25e6 9e3e 8e20 983e 695f 89be

bias f4 [256]
-0.10504384 0.105611145 0.43403977 0.023627818 0.19334126 0.12503593 0.028883534 -0.31148547
-0.019163162 0.20198555 -0.16996354 -0.35840005 -0.0655767 0.15154356 0.3001724 0.021248126
-0.09572987 0.059247687 0.27321565 0.40170944 0.36183476 -0.36604512 0.1944173 0.10216719
0.2663772 0.2763918 -0.3951406 0.06584644 0.27682006 0.3510722 0.24187462 -0.32136673
0.1673779 0.19812673 0.25769794 -0.13311097 0.16354114 0.060955834 0.30916724 -0.09690328
-0.4121608 0.22465773 0.1627503 -0.29065818 0.14597172 0.17055479 0.15759748 -0.16430746
-0.02908866 0.23807631 -0.27703723 -0.41260028 0.38640445 0.03312522 -0.14120513 -0.44800746
0.41093123 0.36017454 0.07657868 -0.29651377 0.42957294 0.057238758 -0.15161851 0.24788207
-0.009848403 -0.23957919 0.034964766 -0.01569286 -0.0065394863 -0.16667795 0.43127003 -0.42175096
0.040361986 -0.37934488 -0.08442318 0.23981315 -0.17747805 -0.12964997 -0.13006042 -0.4144139
-0.047953516 0.22454861 0.09930706 -0.30424124 -0.17264616 -0.410065 -0.30478203 -0.40595463
-0.06904967 -0.19323218 -0.2531827 0.32010773 -0.08866358 0.32672358 -0.3866609 0.28967088
-0.1905975 -0.10302711 -0.16867298 0.08487812 -0.35199863 0.204974 0.32114947 -0.14817771
0.23025891 0.3575983 -0.37216002 -0.06824419 -0.07593237 -0.107665 0.24438941 0.2661184
-0.23794773 -0.049202677 0.1833635 -0.2884514 0.09738284 -0.2854732 0.30354825 -0.19157596
0.12191735 -0.10151854 0.04161654 0.094248116 0.018164724 0.11311593 -0.12338421 -0.1469889
-0.42213872 -0.086478874 0.2123059 0.36860594 -0.40768823 -0.12477521 0.37149465 0.024989245
0.24994029 0.120949075 -0.42431444 -0.4205693 -0.08984552 0.21039099 -0.32908452 -0.2683132
-0.39158377 0.37503096 -0.013798315 0.19069906 0.30829322 -0.33465704 -0.34777024 0.041100368
-0.03666374 0.2643882 0.08598906 0.18029982 0.08406907 -0.27936035 0.4199813 -0.17563727
-0.4269223 -0.23690838 0.13220769 0.34906733 -0.3231602 0.15554625 0.34976125 0.089903794
-0.03170237 0.22716936 -0.3908044 -0.09833836 -0.28147182 0.3286593 -0.35576895 -0.24526946
-0.3398539 -0.4011039 0.39983675 0.29347366 -0.31583524 0.06757432 -0.20910828 -0.35045505
0.043087095 -0.4281031 0.41031855 -0.42790836 0.15046465 -0.34698763 0.0154773295 -0.445111
0.18319966 -0.27393878 0.01787634 0.26175046 0.21084355 0.3411656 0.0054445863 0.30632246
-0.20256726 -0.051503286 0.38348395 -0.21273348 0.31258464 -0.07859194 -0.38543245 -0.1706179
0.41370952 0.2522776 -0.1963191 0.09877905 -0.30845025 0.12411558 -0.0701884 0.44269925
-0.23703033 -0.2922619 0.4041817 -0.19446483 -0.13103682 0.33924234 -0.24168852 0.18259841
0.16189182 0.42288634 -0.42103264 0.39692032 -0.0805231 -0.22216438 -0.14261603 -0.22080892
-0.0078968955 -0.22757736 0.44122687 -0.23713598 0.34274966 -0.3164169 -0.3333602 -0.18221545
0.26925588 0.024630457 0.37936658 -0.12063202 -0.010150462 0.17044264 -0.325298 -0.24175878
0.16440964 0.3667907 -0.10136541 0.03816278 0.32761526 -0.40186572 -0.0843218 0.10020685
00000000: 3a21 d7bd a84a d83d 763a de3e 208f c13c
00000010: 40fb 453e 6b09 003e 299d ec3c 067b 9fbe
00000020: 10fc 9cbc 4dd5 4e3e ec0a 2ebe 3680 b7be
00000030: 144d 86bd 3c2e 1b3e 32b0 993e 8d10 ae3c
00000040: 060e c4bd b4ad 723d ece2 8b3e dcac cd3e
00000050: 6842 b93e 446a bbbe 5415 473e 083d d13d
00000060: 9862 883e 3a83 8d3e de4f cabe 80da 863d
00000070: 5cbb 8d3e bcbf b33e fbad 773e 2e8a a4be
00000080: 1d65 2b3e bce1 4a3e fcf0 833e 3e4e 08be
00000090: 5477 273e d3ac 793d 2b4b 9e3e 3a75 c6bd
000000a0: be06 d3be ad0c 663e 04a8 263e 26d1 94be
000000b0: 9c79 153e eaa5 2e3e 3c61 213e 3740 28be
000000c0: 574b eebc 47ca 733e d3d7 8dbe 5840 d3be
000000d0: ced6 c53e 50ae 073d 1498 10be 3c61 e5be
000000e0: 9465 d23e cc68 b83e 48d5 9c3d a7d0 97be
000000f0: fcf0 db3e 3073 6a3d e241 1bbe ccd4 7d3e
00000100: 325b 21bc 3f54 75be 3737 0f3d 508e 80bc
00000110: 3049 d6bb a0ad 2abe 6dcf dc3e beef d7be
00000120: 9c52 253d 7e39 c2be 0fe6 acbd 9491 753e
00000130: cebc 35be f6c2 04be 8f2e 05be 0f2e d4be
00000140: e86a 44bd 12f0 653e 8061 cb3d 82c5 9bbe
00000150: 28ca 30be 0af4 d1be 640c 9cbe 49d9 cfbe
00000160: ea69 8dbd a8de 45be 2aa1 81be 29e5 a33e
00000170: 4095 b5bd 5048 a73e 6bf8 c5be be4f 943e
00000180: fe2b 43be e1ff d2bd 9cb8 2cbe 94d4 ad3d
00000190: 2a39 b4be b4e4 513e b46d a43e e6bb 17be
000001a0: fec8 6b3e 2017 b73e c28b bebe 9cc3 8bbd
000001b0: 6e82 9bbd 787f dcbd 3841 7a3e ac40 883e
000001c0: 92a8 73be bf88 49bd a4c3 3b3e e7af 93be
000001d0: a870 c73d 8b29 92be ad6a 9b3e 7d2c 44be
000001e0: ceaf f93d f4e8 cfbd 1b76 2a3d 2805 c13d
000001f0: 30ce 943c 53a9 e73d dcb0 fcbd 4284 16be
00000200: 9122 d8be d61b b1bd b866 593e ebb9 bc3e
00000210: 83bc d0be 258a ffbd 8c34 be3e 3fb6 cc3c
00000220: 59f0 7f3e 26b4 f73d be3f d9be dc54 d7be
00000230: ee00 b8bd bc70 573e c47d a8be 5960 89be
00000240: ab7d c8be 0f04 c03e 5412 62bc 9d46 433e
00000250: 9cd8 9d3e 2b58 abbe f10e b2be dc58 283d
00000260: b82c 16bd e45d 873e 081b b03d 84a0 383e
00000270: 682c ac3d 5208 8fbe ca07 d73e 42da 33be
00000280: 8f95 dabe 1c98 72be 7461 073e f4b8 b23e
00000290: 4175 a5be 8447 1f3e e813 b33e 7b1f b83d
000002a0: 58da 01bd 169f 683e 8417 c8be 9f65 c9bd
000002b0: 131d 90be 0846 a83e 5927 b6be eb27 7bbe
000002c0: 5501 aebe 7e5d cdbe 67b7 cc3e 2e42 963e
000002d0: 28b5 a1be 6864 8a3d 7b20 56be d86e b3be
000002e0: 187c 303d 5430 dbbe 4615 d23e ce16 dbbe
000002f0: 6813 1a3e 5da8 b1be a094 7d3c 97e5 e3be
00000300: b198 3b3e b441 8cbe 6771 923c 2804 863e
00000310: 5fe7 573e 42ad ae3e 8068 b23b 4cd6 9c3e
00000320: cb6d 4fbe 1cf5 52bd 0258 c43e ced6 59be
00000330: 180b a03e d0f4 a0bd 6757 c5be 75b6 2ebe
00000340: bcd1 d33e 882a 813e e007 49be ac4c ca3d
00000350: 31ed 9dbe 4f30 fe3d f0be 8fbd 7aa9 e23e
00000360: 14b8 72be 5aa3 95be e7f0 ce3e ca21 47be
00000370: 842e 06be 2cb1 ad3e 327d 77be 14fb 3a3e
00000380: f8c6 253e 8f84 d83e 9791 d7be 2439 cb3e
00000390: 4ce9 a4bd 0f7f 63be f009 12be bc1b 62be
000003a0: fb61 01bc 0a0a 69be 7de8 e13e c6d3 72be
000003b0: e27c af3e 6501 a2be 30ae aabe b096 3abe
000003c0: e8db 893e d0c5 c93c 563c c23e ec0d f7bd
000003d0: 204e 26bc 8488 2e3e 768d a6be 9d8f 77be
000003e0: 005b 283e fecb bb3e ab98 cfbd 9350 1c3d
000003f0: 30bd a73e 58c1 cdbe e8b0 acbd 4039 cd3d

weight f4 [256, 256]
-0.024915086 0.06218081 -0.0016583726 0.037729092 0.050006643 0.021279283 0.049765695 -0.04048384
-0.025996283 -0.010495651 0.0426879 -0.0073997825 -0.026613712 0.027464852 -0.0027656034 -0.021969553
0.058039818 -0.0035903591 0.043484777 0.04357821 -0.0654564 0.0069984486 -0.04647711 0.0020118654
-0.025462054 -0.0104591325 0.031867497 -0.020943679 0.03189536 0.05876463 -0.014718237 -0.020017453
-0.04633525 -0.0070277452 0.016150393 0.040999956 -0.036678545 0.0051142597 -0.015081029 -0.028049503
0.011305404 0.008969842 -0.041358955 -0.029900208 0.059826046 0.053357344 -0.063798204 -0.041039374
-0.02714137 0.00036468374 -0.0050175427 0.017593578 0.012937449 0.017590329 0.029163033 0.0074854484
0.03504455 0.05544604 -0.029452711 -0.026731228 -0.045743115 -0.0051307306 -0.0071287826 0.03570863
-0.039222464 0.030306108 0.04378235 0.026464537 0.019536527 -0.023235086 -0.04532451 0.019312978
0.046138123 0.043449026 -0.041017782 0.058903642 -0.024651892 -0.031771116 -0.023149703 0.013965286
0.036388747 0.055378005 -0.003697902 -0.009830392 -0.024406835 0.011313461 -0.0067472383 -0.01358287
-0.010189908 -0.016111262 -0.023804836 0.026481109 -0.057584755 0.018630847 0.059241027 0.043026168
-0.058799807 -0.019350527 0.048684504 0.055222094 -0.05675326 0.049520638 -0.006073229 0.0014410005
-0.009843759 -0.041414887 -0.00884607 -0.007587418 0.034497473 0.020714544 0.0060243383 -0.039754838
0.050040737 0.0005799966 -0.059336804 -0.021680176 0.055550113 0.053510282 -0.019070065 -0.020768968
0.0247064 -0.048264228 0.008048462 -0.06147997 -0.05464728 -0.020923866 0.059933715 0.00887011
0.028803103 -0.004465906 0.039663114 -0.0019378082 -0.014842335 -0.007537109 0.00794211 -0.026113844
-0.019328663 -0.010020739 0.060600206 -0.0433923 -0.05691745 0.021339886 0.032777607 0.047423385
-0.027109535 -0.06644417 0.024135688 -0.0136508355 0.052582793 0.011800975 0.049040068 -0.036599685
0.0018526837 0.013445176 -0.004413776 -0.05000574 -0.0107817575 -0.061388485 0.043488972 -0.061201632
-0.02077543 0.036144696 0.014857598 -0.0015713861 -0.04638949 -0.04188846 0.056952626 0.020979736
0.04701215 -0.04983591 0.03698998 -0.024842786 0.002447255 -0.04657966 -0.026760224 0.046653114
-0.0026928633 0.016404122 0.031203289 0.036974274 0.044533744 0.047747456 -0.030598879 -0.01483465
-0.016017795 -0.06465648 0.04989852 -0.003729115 -0.039386503 -0.060297586 0.021871522 -0.05392061
-0.00055795215 -0.038660053 -0.00696321 -0.014451124 -0.040559143 0.01553987 0.04673288 -0.008486647
-0.015267218 0.047541447 0.028096862 -0.028696416 0.009061685 0.013377905 0.0037162579 0.0017079889
-0.06385908 -0.0015992231 0.03288798 0.00706369 -0.056864038 -0.01122342 -0.005552992 -0.019491017
-0.036791842 0.023250148 0.01453968 0.013094855 -0.033361338 0.05678635 0.024312288 0.057281956
0.04056748 0.053079966 -0.025360085 -0.032195777 -0.007494591 -0.00054541056 0.0051129553 -0.040586643
0.001967614 -0.0058647175 -0.033507444 -0.053688228 0.012864977 -0.047819518 -0.016143836 -0.052133784
-0.0060230047 -0.059351332 -0.037623003 -0.020964198 0.05047646 0.04535348 0.03905016 -0.041239414
0.040308796 0.049696 0.045442875 0.02131764 0.0037452013 0.043694142 -0.04731498 -0.06043265
00000000: b91a ccbc 4eb1 7e3d c05d d9ba d289 1a3d
00000010: c4d3 4c3d e451 ae3c 1dd7 4b3d 62d2 25bd
00000020: 28f6 d4bc f3f5 2bbc 82d9 2e3d e079 f2bb
00000030: 0005 dabc f8fd e03c 203f 35bb 7ef9 b3bc
00000040: 29bb 6d3d 3b4c 6bbb 181d 323d 117f 323d
00000050: 010e 86bd 3e53 e53b c85e 3ebd 80d9 033b
00000060: cc95 d0bc c85c 2bbc 7e87 023d 1492 abbc
00000070: b6a4 023d 2eb3 703d c324 71bc a4fb a3bc
00000080: 08ca 3dbd 0049 e6bb d44d 843c 92ef 273d
00000090: 3e3c 16bd 8595 a73b 6c16 77bc 12c8 e5bc
000000a0: 4d3a 393c 3ff6 123c 0268 29bd 48f1 f4bc
000000b0: 280c 753d 3b8d 5a3d a2a8 82bd e718 28bd
000000c0: 9457 debc 0633 bf39 336a a4bb 6820 903c
000000d0: 98f7 533c 9819 903c 50e7 ee3c 7e48 f53b
000000e0: e08a 0f3d 631b 633d d046 f1bc 73fb dabc
000000f0: 225d 3bbd b01f a8bb 9098 e9bb 3643 123d
00000100: bca7 20bd 8444 f83c 1f55 333d 28cc d83c
00000110: 110b a03c 8257 bebc 32a6 39bd 4036 9e3c
00000120: 54fb 3c3d 9bf7 313d 4302 28bd f244 713d
00000130: c4f2 c9bc 6e22 02bd 72a4 bdbc a8ce 643c
00000140: 5e0c 153d 0cd4 623d 8058 72bb a70f 21bc
00000150: d8f0 c7bc 185c 393c f017 ddbb b08a 5ebc
00000160: 92f3 26bc c4fb 83bc 5c02 c3bc e9ee d83c
00000170: fedd 6bbd b89f 983c b8a6 723d 353c 303d
00000180: 11d8 70bd ff84 9ebc 6769 473d 9030 623d
00000190: 1b76 68bd 27d6 4a3d f001 c7bb f4df bc3a
000001a0: b847 21bc a8a2 29bd 1bef 10bc e09f f8bb
000001b0: 394d 0d3d 8cb1 a93c d067 c53b f8d5 22bd
000001c0: 84f7 4c3d ea0a 183a 260b 73bd a09a b1bc
000001d0: 8488 633d 992d 5b3d d338 9cbc af23 aabc
000001e0: 1465 ca3c b6b0 45bd b2dd 033c 6cd2 7bbd
000001f0: d4d5 5fbd 8768 abbc 0e7d 753d f053 113c
00000200: 7cf4 eb3c bc56 92bb ca75 223d 0efe fdba
00000210: 442d 73bc daf9 f6bb a01f 023c b3ec d5bc
00000220: 2557 9ebc 072e 24bc ec37 783d 20bc 31bd
00000230: 4622 69bd fcd0 ae3c d041 063d 063f 423d
00000240: d114 debc e213 88bd 35b8 c53c c1a7 5fbc
00000250: 0e61 573d e058 413c 3dde 483d 8de9 15bd
00000260: c0d5 f23a 2849 5c3c 70a1 90bb d2d2 4cbd
00000270: f8a5 30bc 7e72 7bbd 7e21 323d 90ae 7abd
00000280: 3c31 aabc 760c 143d 486d 733c f8f6 cdba
00000290: e802 3ebd 3c93 2bbd 2847 693d b2dd ab3c
000002a0: d08f 403d bd20 4cbd ce82 173d 1983 cbbc
000002b0: 2062 203b 50ca 3ebd 4238 dbbc 5617 3f3d
000002c0: c07a 30bb f061 863c 0a9e ff3c 5672 173d
000002d0: 0469 363d d692 433d 80aa fabc 080d 73bc
000002e0: c037 83bc 9e6a 84bd 6462 4c3d 2b64 74bb
000002f0: be53 21bd 9afa 76bd e82b b33c dcdb 5cbd
00000300: 8943 12ba 015a 1ebd a42b e4bb 68c4 6cbc
00000310: 5821 26bd f09a 7e3c fa6a 3f3d 940b 0bbc
00000320: 5b23 7abc d2ba 423d 642b e63c bf14 ebbc
00000330: 7677 143c 002f 5b3c 768c 733b 99de df3a
00000340: 8dc8 82bd 069d d1ba 8cb5 063d 8776 e73b
00000350: 44ea 68bd 6fe2 37bc e0f5 b5bb a0ab 9fbc
00000360: 0bb3 16bd 1877 be3c d737 6e3c cd8b 563c
00000370: e6a5 08bd ce98 683d 902a c73c 7ca0 6a3d
00000380: 162a 263d 616a 593d f4bf cfbc b8df 03bd
00000390: 3095 f5bb e2f9 0eba 948a a73b 2e3e 26bd
000003a0: 16f3 003b d12c c0bb 1a3f 09bd 30e8 5bbd
000003b0: a0c7 523c 66de 43bd 1440 84bc 3c8a 55bd
000003c0: a05c c5bb 621a 73bd 941a 1abd 1cbd abbc
000003d0: 68c0 4e3d 92c4 393d 10f3 1f3d a9ea 28bd
000003e0: d61a 253d 088e 4b3d 4f22 3a3d 55a2 ae3c
000003f0: 0d72 753b a1f8 323d 5acd 41bd 3a88 77bd

bias f4 [256]
-2.724984e-05 0.0042047696 -0.01153138 0.052605286 -0.009027007 0.051933326 -0.027402855 0.0568896
-0.03862936 -0.03042335 0.047444955 -0.056011345 -0.04404927 -0.059724364 -0.0165615 -0.0011564791
0.019606678 0.01914867 0.031685673 -0.054268792 0.061552458 -0.053946532 -0.04716775 -0.01181513
-0.05107043 -0.0018997937 0.030176207 0.056910396 -0.008703141 -0.0060561746 -0.037129357 0.0059818067
0.022138685 -0.013290209 0.017422251 -0.018470395 -0.057016995 0.0056182444 -0.006159611 0.054304563
-0.06750973 -0.011553593 0.0467425 0.01755654 0.045364738 -0.06799388 -0.020885214 -0.03094482
-0.041369617 0.017289624 0.047132563 -0.05824302 0.05022353 -0.038802255 0.028949998 -0.015997559
-0.017824082 -0.016714437 0.025888665 -0.04885406 0.051621325 0.053268507 0.020152032 0.009690519
0.021929033 -0.043867927 -0.05527291 0.009338938 -0.00057888334 -0.049988203 0.02381874 -0.008689873
-0.054190822 -0.035582803 0.018198416 0.057046592 0.060476087 0.053121373 0.012738266 -0.023605125
-0.021702848 -0.0058609876 0.018958867 -0.02744871 0.045743853 -0.060158662 -0.022136368 -0.042408723
-0.025385955 -0.0027932147 0.018396944 -0.040165536 0.057252582 0.053010218 0.019253992 -0.025754347
0.022858478 0.033669367 0.04597716 0.007674992 -0.06671476 0.0420568 -0.041770242 -0.0039779674
-0.04540781 -0.016017325 -0.008835793 0.051319145 0.033048306 0.02568829 -0.028438618 -0.005446285
0.036971882 0.0594262 -0.009973897 -0.009398947 0.007383272 0.047336854 -0.042697124 0.027772956
0.04554638 -0.043108944 -0.05408124 -0.042862926 0.039466284 -0.013235688 0.0021039322 0.035337687
-0.01192794 -0.0570651 0.0351208 -0.019361101 0.012378835 0.033633374 -0.0504302 0.058957778
-0.021656957 0.010116499 0.014248218 0.007947579 -0.03658624 0.0020403918 -0.046946052 -0.030904502
-0.0022250798 -0.0022071018 0.013384886 0.0015407545 -0.02303296 0.034675077 0.02105926 -0.045732744
-0.030143932 0.003944439 -0.0146755725 0.009383267 -0.013535139 0.02374032 0.00563655 -0.040329717
-0.03870218 -0.06540196 0.042259477 0.037465885 0.010892339 -0.05375975 0.041207384 -0.013491297
-0.0409675 0.055585794 -0.061049424 0.009977214 -0.047024697 0.005405777 -0.009043695 0.01209563
-0.00566864 0.05182418 -0.009776428 -0.011434089 -0.04563862 -0.018289544 -0.022581473 0.038125522
-0.016189106 0.03311166 -0.003981337 -0.017449543 0.034365013 0.02061304 -0.044433765 0.015182145
-0.0026782914 0.04959796 -0.006228026 -0.022436865 -0.021160886 -0.064356804 -0.0013513565 -0.036447417
-0.05968695 -0.03888681 0.055014357 -0.020778209 0.008383229 0.061007306 0.03526611 0.057370726
0.012033603 0.06178277 0.061586447 -0.05674672 -0.02463327 0.038821943 0.05471254 -0.03605666
-0.0011568666 -0.008945793 0.016132101 0.0074646748 -0.060329482 -0.043502748 0.030968148 0.048474453
-0.021037016 -0.04057702 0.04611039 -0.038262144 -0.047829367 -0.024445172 0.02644924 -0.031107657
0.058560334 -0.03269753 0.047948375 0.010660191 0.039756402 -0.0068597724 -0.027412921 -0.027856149
-0.041879773 0.036384262 0.03069812 0.036339365 -0.03570106 -0.04750046 0.015390657 -0.05387507
-0.005974725 0.015077145 0.0018317013 0.041942157 -0.056576166 0.019899175 -0.015903894 0.024961237
00000000: 9696 e4b7 2ac8 893b 1dee 3cbc a478 573d
00000010: 03e6 13bc 0ab8 543d f47b e0bc 1205 693d
00000020: d239 1ebd 643a f9bc a455 423d 276c 65bd
00000030: 026d 34bd 89a1 74bd fcab 87bc 0095 97ba
00000040: 2f9e a03c acdd 9c3c d6c8 013d f448 5ebd
00000050: 6e1e 7c3d 0af7 5cbd f832 41bd 3f94 41bc
00000060: 3a2f 51bd 8002 f9ba 1834 f73c e01a 693d
00000070: 9e97 0ebc e072 c6bb f414 18bd 0803 c43b
00000080: 305c b53c 2dbf 59bc 1cb9 8e3c 3a4f 97bc
00000090: a78a 69bd 4019 b83b 90d6 c9bb 766e 5e3d
000000a0: 8b42 8abd 484b 3dbc 1075 3f3d bcd2 8f3c
000000b0: 60d0 393d 6040 8bbd 7817 abbc fe7f fdbc
000000c0: 3073 29bd f8a2 8d3c 130e 413d 3c90 6ebd
000000d0: 30b7 4d3d 1def 1ebd 8c28 ed3c 500d 83bc
000000e0: cf03 92bc b7ec 88bc 7714 d43c 321b 48bd
000000f0: e270 533d 1430 5a3d e015 a53c fcc4 1e3c
00000100: 84a4 b33c dbae 33bd d965 62bd 5802 193c
00000110: 34c0 17ba 6ec0 4cbd 851f c33c f85f 0ebc
00000120: 32f7 5dbd 46bf 11bd d814 953c b0a9 693d
00000130: c6b5 773d cc95 593d 29b4 503c 895f c1bc
00000140: 2cca b1bc 870d c0bb a04f 9b3c 1edc e0bc
00000150: e85d 3b3d ee68 76bd 5457 b5bc c5b4 2dbd
00000160: 35f6 cfbc 5e0e 37bb 30b5 963c 9e84 24bd
00000170: af81 6a3d 3e21 593d 8cba 9d3c c8fa d2bc
00000180: b441 bb3c e4e8 093d 8c52 3c3d 807e fb3b
00000190: c0a1 88bd c043 2c3d 4617 2bbd 9c59 82bb
000001a0: 8afd 39bd c436 83bc 00c4 10bc 0634 523d
000001b0: a95d 073d 4070 d23c 1bf8 e8bc c076 b2bb
000001c0: d46f 173d e368 733d 8e69 23bc 0afe 19bc
000001d0: 60ef f13b 4ae4 413d 2ee3 2ebd 1c84 e33c
000001e0: d78e 3a3d 0193 30bd 4a84 5dbd 0991 2fbd
000001f0: 66a7 213d 80da 58bc 20e2 093b 40be 103d
00000200: 686d 43bc 18bd 69bd d4da 0f3d 2c9b 9ebc
00000210: 99d0 4a3c 26c3 093d e68f 4ebd b67d 713d
00000220: ee69 b1bc acbf 253c 5c71 693c 9036 023c
00000230: 74db 15bd 18b8 053b 814a 40bd 702b fdbc
00000240: a5d2 11bb 06a5 10bb 484c 5b3c 24f3 c93a
00000250: 9eaf bcbc 7407 0e3d 7884 ac3c 4252 3bbd
00000260: 68f0 f6bc 5a40 813b d071 70bc 46bc 193c
00000270: 7dc2 5dbc 0f7b c23c cfb2 b83b c630 25bd
00000280: 2d86 1ebd 76f1 85bd 4618 2d3d d475 193d
00000290: c875 323c 2f33 5cbd 13c9 283d 9a0a 5dbc
000002a0: 8acd 27bd eead 633d f60e 7abd 7877 233c
000002b0: f89c 40bd f222 b13b 022c 14bc c02c 463c
000002c0: 00c0 b9bb 9745 543d 502d 20bc 0c56 3bbc
000002d0: 90ef 3abd f4d3 95bc c8fc b8bc 8229 1c3d
000002e0: 049f 84bc 18a0 073d e075 82bb 58f2 8ebc
000002f0: 54c2 0c3d aedc a83c 2e00 36bd 88be 783c
00000300: 4686 2fbb 3b27 4b3d 7814 ccbb 84cd b7bc
00000310: 9859 adbc 80cd 83bd 0020 b1ba e349 15bd
00000320: 4e7a 74bd c747 1fbd bc56 613d 1037 aabc
00000330: d059 093c cce2 793d 3273 103d 91fd 6a3d
00000340: 9728 453c ee0f 7d3d 1242 7c3d 406f 68bd
00000350: b6cb c9bc c203 1f3d 421a 603d 26b0 13bd
00000360: 00a2 97ba 6091 12bc 7827 843c 3b9a f43b
00000370: 0c1c 77bd f02f 32bd eab0 fd3c 268d 463d
00000380: d255 acbc 1734 26bd 40de 3c3d c4b8 1cbd
00000390: bae8 43bd 3e41 c8bc 14ac d83c 7cd5 febc
000003a0: f6dc 6f3d d8ed 05bd 8465 443d 15a8 2e3c
000003b0: 9cd7 223d f1c7 e0bb 1091 e0bc 9432 e4bc
000003c0: 208a 2bbd aa07 153d a07a fb3c 96d8 143d
000003d0: 463b 12bd d88f 42bd 1829 7c3c 1bac 5cbd
000003e0: a0c7 c3bb 2106 773c b215 f03a 8acb 2b3d
000003f0: 69bc 67bd 9803 a33c e248 82bc 827b cc3c

weight f4 [5, 256]
-0.018930258 -0.007198876 0.057750855 -0.053218633 -0.04332679 -0.009196736 0.021224849 -0.032958
-0.040841006 0.041951723 0.002389153 -0.04117188 0.025593478 0.018572964 0.04288779 0.045846663
-0.02683372 -0.05949533 0.0061045336 0.042132072 -0.06078524 0.019119747 -0.021009631 -0.002159368
0.014255045 -0.054082006 -0.022868194 -0.03605634 0.03171362 -0.007613048 0.06014117 0.042705745
-0.054238193 -0.038193 -0.04035093 -0.029317005 -0.03990554 -0.034116186 -0.011842996 0.04027476
0.040422916 0.045182273 0.031103 0.01075241 -0.02648406 -0.029035121 0.027380288 -0.004876061
0.0019073265 -0.023189045 -0.025972271 0.039574556 -0.04695251 -0.010119157 -0.04656747 0.057609126
0.008878162 -0.036634907 -0.052355215 -0.049675338 -0.053699516 0.00239585 -0.02422195 -0.04322198
-0.045795232 0.0017038898 0.009809899 -0.016278744 0.05685529 -0.05765131 0.0483611 0.0047347546
-0.028284334 0.057320543 0.0049254894 0.050355002 0.04510723 -0.0009467751 -0.003355171 0.0036009823
-0.003586471 -0.0010243872 -0.031159248 0.029462371 -0.038158104 -0.0067477375 -0.0073930994 -0.040091578
0.019631134 -0.0056415703 -0.002068646 0.0022655316 0.00208691 -0.017178722 0.027573636 -0.019193973
-0.016105786 -0.05862382 0.029151658 0.05949474 0.01301387 -0.0045504197 -0.01108066 0.027439967
-0.027133554 0.017580017 0.0076634884 0.024828106 -0.03075339 0.01422093 0.00095228513 0.028855443
-0.00031987063 0.0207906 -0.040403713 -0.021608567 0.008266844 0.051427074 0.000587856 0.012009598
0.0073473877 -0.0042031137 0.0018791705 -0.053178992 -0.044453148 -0.0045821704 -0.039208338 -0.025309347
-0.016134053 -0.020928912 0.061079003 -0.016590629 0.038171068 -0.0162033 -0.03894429 0.045352362
0.024041943 0.014962194 -0.008388177 0.024608694 0.029295146 0.0041296952 0.04421713 0.049544334
0.042695224 -0.02668026 0.005328115 0.015583101 -0.04990288 -0.025897421 0.011598548 -0.012876965
-0.026527591 0.04223566 0.02831997 -0.0004163293 0.008067458 0.029572412 -0.013918465 -0.035347026
0.011827544 -0.00534104 0.0588151 -0.04987643 0.017029226 0.025736887 0.010720365 0.029429788
-0.054310374 -0.04405085 0.029607542 -0.007460028 0.023044297 0.004991964 0.0025571627 0.041785963
0.040309027 -0.028228436 -0.017823538 -0.018243644 0.039472803 0.02821124 0.022718286 0.02070523
0.041814446 -0.050835855 0.014876921 -0.023994945 0.007575982 -0.0233016 0.060130626 0.025507279
0.040557723 0.037769675 0.03569689 0.042196363 -0.05523354 0.009874717 -0.040659375 -0.027371198
-0.03456167 0.05647637 0.032377444 0.050976522 -0.011416614 -0.015580058 0.049523644 0.037028216
0.033865217 0.048728548 0.04384446 -0.056927636 -0.03397236 0.037227802 -0.021972 0.04253894
-0.0003822297 -0.004444793 -0.019349657 -0.018980581 -0.022658966 0.04812379 -0.05268284 -0.0042360453
-0.03569364 -0.026450353 -0.026737176 0.039272077 0.054640606 0.030457031 0.007442597 0.03515546
-0.008301504 -0.050983787 -0.022325754 0.026952894 0.01590871 -0.015601054 0.022470579 -0.010000758
-0.047927685 -0.023682157 -0.043221146 -0.015679063 -0.0050124386 0.012293149 0.03542427 0.049633306
0.01607173 0.004340675 0.0054577556 0.04490228 0.0075182198 0.0075906888 0.05878665 -0.0406327
00000000: a113 9bbc 8ce4 ebbb 298c 6c3d c8fb 59bd
00000010: 6f77 31bd e8ad 16bc bcdf ad3c f8fe 06bd
00000020: e648 27bd 92d5 2b3d 5693 1c3b d8a3 28bd
00000030: 6aa9 d13c 5426 983c 1bab 2f3d b6c9 3b3d
00000040: 64d2 dbbc 60b1 73bd 8a08 c83b ae92 2c3d
00000050: f2f9 78bd 04a1 9c3c 641c acbc 2f84 0dbb
00000060: fe8d 693c 1885 5dbd 1456 bbbc d0af 13bd
00000070: 24e6 013d e076 f9bb 9656 763d 38ec 2e3d
00000080: de28 5ebd 4370 1cbd 0447 25bd 372a f0bc
00000090: fe73 23bd 6abd 0bbd 2009 42bc 26f7 243d
000000a0: 8092 253d 0c11 393d b8cb fe3c e02a 303c
000000b0: 19f5 d8bc 10db edbc a04c e03c 5dc7 9fbb
000000c0: 42ff f93a f4f6 bdbc cdc3 d4bc ee18 223d
000000d0: 4651 40bd d2ca 25bc 88bd 3ebd 8cf7 6b3d
000000e0: b675 113c 7c0e 16bd 6c72 56bd 5e78 4bbd
000000f0: 06f4 5bbd b103 1d3b 1c6d c6bc 8809 31bd
00000100: c893 3bbd 0e55 df3a b3b9 203c 005b 85bc
00000110: 18e1 683d c823 6cbd 4a16 463d 0026 9b3b
00000120: 8cb4 e7bc f2c8 6a3d 0066 a13b 0c41 4e3d
00000130: 5cc2 383d 0031 78ba 6ee2 5bbb 75fe 6b3b
00000140: 000b 6bbb bb44 86ba ae41 ffbc 125b f13c
00000150: ac4b 1cbd 201c ddbb d041 f2bb 1137 24bd
00000160: 79d1 a03c ecdc b8bb 1f92 07bb 5079 143b
00000170: 8ac4 083b 64ba 8cbc 1be2 e13c ae3c 9dbc
00000180: 48f0 83bc 881f 70bd 75cf ee3c c2b0 733d
00000190: 2138 553c b01b 95bb a88b 35bc c8c9 e03c
000001a0: 3047 debc f803 903c 001e fb3b 5064 cb3c
000001b0: 89ee fbbc e7fe 683c c6a2 793a 4062 ec3c
000001c0: 4fb4 a7b9 0c51 aa3c 5d7e 25bd 7304 b1bc
000001d0: a871 073c 32a5 523d 591a 1a3a e8c3 443c
000001e0: 5bc2 f03b 46ba 89bb 804e f63a 37d2 59bd
000001f0: 8114 36bd 0826 96bb ec98 20bd 8c55 cfbc
00000200: 902b 84bc 1c73 abbc fa2d 7a3d 12e9 87bc
00000210: 4459 1c3d c8bc 84bc 0c84 1fbd 66c3 393d
00000220: 9cf3 c43c fd23 753c 906e 09bc 2c98 c93c
00000230: 60fc ef3c 6552 873b 051d 353d 00ef 4a3d
00000240: 30e1 2e3d 9090 dabc 7897 ae3b 4350 7f3c
00000250: f666 4cbd d426 d4bc d607 3e3c e8f9 52bc
00000260: 6450 d9bc 4dff 2c3d 48ff e73c c646 dab9
00000270: 5f2d 043c d841 f23c 460a 64bc 0bc8 10bd
00000280: 51c8 413c e403 afbb 1ae8 703d 3a4b 4cbd
00000290: e080 8b3c 2ad6 d23c 78a4 2f3c bd16 f13c
000002a0: 8e74 5ebd aa6e 34bd 848b f23c 4073 f4bb
000002b0: 65c7 bc3c a193 a33b 1296 273b c227 2b3d
000002c0: 141b 253d 523f e7bc ab02 92bc b273 95bc
000002d0: 3cae 213d 421b e73c b31b ba3c 049e a93c
000002e0: a045 2b3d 4239 50bd 54be 733c 0c91 c4bc
000002f0: f13f f83b ffe2 bebc 884b 763d a4f4 d03c
00000300: db1f 263d 60b4 1a3d e736 123d 18d6 2c3d
00000310: 903c 62bd 91c9 213c 728a 26bd 9039 e0bc
00000320: 8a90 0dbd c453 673d 369e 043d c2cc 503d
00000330: c00c 3bbc 8043 7fbc 4ed9 4a3d e6aa 173d
00000340: 41b6 0a3d 9697 473d 4096 333d f42c 69bd
00000350: 9a26 0bbd 2e7c 183d a0fe b3bc 503d 2e3d
00000360: 0066 c8b9 a0a5 91bb 2c83 9ebc 2a7d 9bbc
00000370: 4c9f b9bc 741d 453d f6c9 57bd 86ce 8abb
00000380: 7f33 12bd 69ae d8bc ec07 dbbc c2db 203d
00000390: d4ce 5f3d 0681 f93c 07e1 f33b 2cff 0f3d
000003a0: 0803 08bc 60d4 50bd 80e4 b6bc 51cc dc3c
000003b0: fc52 823c 909b 7fbc 3814 b83c 38da 23bc
000003c0: d24f 44bd 1501 c2bc a808 31bd 6171 80bc
000003d0: 623f a4bb 3469 493c 0a19 113d 4b4c 4b3d
000003e0: dca8 833c 393c 8e3b f9d6 b23b 74eb 373d
000003f0: 665b f63b 50bb f83b 45ca 703d 796e 26bd

bias f4 [5]
0.04733076 0.04819557 -0.006729262 -0.033138964 0.0035108384
00000000: e6dd 413d b868 453d 2481 dcbb b9bc 07bd
00000010: 1816 663b

exp_avg f4 [256, 5]
0.0009103619 0.006778041 -0.005592592 0.008642361 0.00012869248 0.0 0.0 0.0
0.0 0.0 0.0 0.0 0.0 0.0 0.0 0.0
0.0 0.0 0.0 0.0 0.0 0.0 0.0 0.0
0.0 0.0002777109 0.020280687 -0.020113237 0.028584301 0.0026119482 -4.409894e-05 0.020324875
-0.021672122 0.029710632 0.0028980384 0.0 0.0 0.0 0.0 0.0
0.0 0.0 0.0 0.0 0.0 -0.00052764453 0.0062006135 -0.006898593
0.009343546 0.0013326947 0.0 0.0 0.0 0.0 0.0 0.0
0.0 0.0 0.0 0.0 0.0 0.0 0.0 0.0
0.0 0.0 0.0 0.0 0.0 0.0 0.0 0.0
0.0 0.0 0.0 0.0008681739 -0.02165177 0.026571117 -0.034236714 -0.0038605735
-0.00034938176 0.0034364955 -0.0067719724 0.007142651 0.0007896968 -2.0355114e-05 -0.0030541834 0.0032951932
-0.004497459 -0.00040743078 0.0 0.0 0.0 0.0 0.0 6.644068e-06
-0.013351029 0.0131463 -0.018795626 -0.0018886495 0.00068259425 0.03370637 -0.033704728 0.047622953
0.004123682 -0.00021087457 0.005379559 -0.0061029624 0.008147449 0.0009554989 0.0 0.0
0.0 0.0 0.0 0.0 0.0 0.0 0.0 0.0
0.00058640324 0.0007175645 0.0011968724 -0.00037251227 -0.0004241122 0.0 0.0 0.0
0.0 0.0 0.0 0.0 0.0 0.0 0.0 0.0
0.0 0.0 0.0 0.0 -0.0003705618 -6.255414e-05 -0.0009166526 0.0006297617
0.0003189948 0.0 0.0 0.0 0.0 0.0 -0.00067066343 0.0053296876
-0.0070369733 0.008820843 0.0013732683 1.1460802e-06 4.7012538e-05 -3.286956e-05 5.7325757e-05 5.6106765e-06
-0.0001606066 0.0058449544 -0.0053768605 0.008000385 0.000966451 0.0 0.0 0.0
0.0 0.0 0.0001404885 0.004602898 -0.0049338117 0.0067255683 0.0005421683 0.0
0.0 0.0 0.0 0.0 -0.0011696165 -0.008144794 0.0053333007 -0.009426758
-7.804809e-05 3.7784805e-05 0.0090900315 -0.009964279 0.013456585 0.001236186 -0.0003520717 -0.005442732
0.0040646736 -0.0067451396 -0.0004620356 0.00020978277 0.01590333 -0.01572578 0.022384476 0.0020503767
-0.000403256 -0.005438934 0.0040013785 -0.0066814087 -0.00040553324 -0.00081721717 -0.0014360528 -0.00059371255
-0.0005203206 0.00053940667 0.0 0.0 0.0 0.0 0.0 0.0
0.0 0.0 0.0 0.0 0.0 0.0 0.0 0.0
0.0 0.00046710315 -0.011730611 0.011772135 -0.016747102 -0.0020738964 0.00014888705 0.0011211736
-0.0009326986 0.0014358629 2.8382987e-05 0.0003316497 -0.008062522 0.00967902 -0.012570508 -0.0014412844
0.00068385084 0.015663581 -0.013718987 0.020778343 0.0015895296 8.179752e-06 0.014808927 -0.016080076
0.021851553 0.0020990064 0.00051727856 -0.0030107563 0.0054082507 -0.005933972 -0.0008679525 0.0
00000000: 5aa5 6e3a 541a de3b 1042 b7bb b098 0d3c
00000010: a0f1 0639 0000 0000 0000 0000 0000 0000
00000020: 0000 0000 0000 0000 0000 0000 0000 0000
00000030: 0000 0000 0000 0000 0000 0000 0000 0000
00000040: 0000 0000 0000 0000 0000 0000 0000 0000
00000050: 0000 0000 0000 0000 0000 0000 0000 0000
00000060: 0000 0000 ba99 9139 af23 a63c 84c4 a4bc
00000070: a029 ea3c 382d 2b3b e0f6 38b8 5a80 a63c
00000080: bc89 b1bc b663 f33c 04ed 3d3b 0000 0000
00000090: 0000 0000 0000 0000 0000 0000 0000 0000
000000a0: 0000 0000 0000 0000 0000 0000 0000 0000
000000b0: 0000 0000 a051 0aba 842e cb3b 980d e2bb
000000c0: ac15 193c d0ad ae3a 0000 0000 0000 0000
000000d0: 0000 0000 0000 0000 0000 0000 0000 0000
000000e0: 0000 0000 0000 0000 0000 0000 0000 0000
000000f0: 0000 0000 0000 0000 0000 0000 0000 0000
00000100: 0000 0000 0000 0000 0000 0000 0000 0000
00000110: 0000 0000 0000 0000 0000 0000 0000 0000
00000120: 0000 0000 0000 0000 0000 0000 2a96 633a
00000130: 0e5f b1bc acab d93c cc3b 0cbd ad01 7dbb
00000140: 3a2d b7b9 d436 613b 6ce7 ddbb e60c ea3b
00000150: a803 4f3a 46c0 aab7 b228 48bb 2bf4 573b
00000160: 6c5f 93bb 6f9c d5b9 0000 0000 0000 0000
00000170: 0000 0000 0000 0000 0000 0000 1cf0 de36
00000180: 46be 5abc 9463 573c 49f9 99bc 908c f7ba
00000190: 20f0 323a b10f 0a3d f80d 0abd 4910 433d
000001a0: f41f 873b 361e 5db9 0347 b03b 5cfb c7bb
000001b0: e17c 053c 727a 7a3a 0000 0000 0000 0000
000001c0: 0000 0000 0000 0000 0000 0000 0000 0000
000001d0: 0000 0000 0000 0000 0000 0000 0000 0000
000001e0: dbb8 193a f01a 3c3a 60e0 9c3a c04d c3b9
000001f0: 605b deb9 0000 0000 0000 0000 0000 0000
00000200: 0000 0000 0000 0000 0000 0000 0000 0000
00000210: 0000 0000 0000 0000 0000 0000 0000 0000
00000220: 0000 0000 0000 0000 0000 0000 0000 0000
00000230: f647 c2b9 802f 83b8 844b 70ba 9816 253a
00000240: c23e a739 0000 0000 0000 0000 0000 0000
00000250: 0000 0000 0000 0000 76cf 2fba a9a4 ae3b
00000260: 6996 e6bb 4c85 103c 3dff b33a 04d3 9935
00000270: 542f 4538 6cdd 09b8 1071 7038 5843 bc36
00000280: 8268 28b9 0887 bf3b 6030 b0bb 0c14 033c
00000290: 6e59 7d3a 0000 0000 0000 0000 0000 0000
000002a0: 0000 0000 0000 0000 1850 1339 e8d3 963b
000002b0: d0ab a1bb 2862 dc3b 4c20 0e3a 0000 0000
000002c0: 0000 0000 0000 0000 0000 0000 0000 0000
000002d0: d14d 99ba be71 05bc f8c2 ae3b b072 1abc
000002e0: c0ad a3b8 207b 1e38 5bee 143c 3741 23bc
000002f0: 0279 5c3c 8507 a23a 4396 b8b9 f258 b2bb
00000300: f430 853b 5506 ddbb 5e3d f2b9 22f9 5b39
00000310: b347 823c 5ad3 80bc a65f b73c 9d5f 063b
00000320: 1b6c d3b9 1639 b2bb ff1d 833b b8ef dabb
00000330: c09d d4b9 843a 56ba f039 bcba 60a3 1bba
00000340: 2066 08ba f866 0d3a 0000 0000 0000 0000
00000350: 0000 0000 0000 0000 0000 0000 0000 0000
00000360: 0000 0000 0000 0000 0000 0000 0000 0000
00000370: 0000 0000 0000 0000 0000 0000 0000 0000
00000380: 0000 0000 86e5 f439 c031 40bc eadf 403c
00000390: 3831 89bc 35ea 07bb 901e 1c39 58f4 923a
000003a0: 5880 74ba 9033 bc3a 0018 ee37 45e1 ad39
000003b0: ab18 04bc c194 1e3c 88f4 4dbc 7be9 bcba
000003c0: 7444 333a e950 803c 9ac5 60bc 5837 aa3c
000003d0: c357 d03a c43b 0937 24a1 723c 5dba 83bc
000003e0: 0702 b33c 7c8f 093b fa99 073a 1c50 45bb
000003f0: b237 b13b c471 c2bb 4e87 63ba 0000 0000

exp_avg_sq f4 [256, 5]
3.3487083e-06 0.10010609 0.10652511 0.20680134 0.0019634902 0.0 0.0 0.0
0.0 0.0 0.0 0.0 0.0 0.0 0.0 0.0
0.0 0.0 0.0 0.0 0.0 0.0 0.0 0.0
0.0 2.3209614e-06 0.09761263 0.10450331 0.20224045 0.0018816967 2.527046e-06 0.10596541
0.11248419 0.21858221 0.0020297235 0.0 0.0 0.0 0.0 0.0
0.0 0.0 0.0 0.0 0.0 4.134628e-06 0.17387009 0.18560088
0.3597527 0.0033510188 0.0 0.0 0.0 0.0 0.0 0.0
0.0 0.0 0.0 0.0 0.0 0.0 0.0 0.0
0.0 0.0 0.0 0.0 0.0 0.0 0.0 0.0
0.0 0.0 0.0 1.6582612e-06 0.03667108 0.040412482 0.07709078 0.0007428614
1.7791189e-06 0.071093306 0.07525481 0.14647827 0.0013754349 1.4973255e-06 0.04545467 0.049595077
0.095085174 0.00086299167 0.0 0.0 0.0 0.0 0.0 3.3326958e-06
0.1342081 0.1423968 0.27683365 0.0025817165 6.3822617e-06 0.2522957 0.26904485 0.5217043
0.0048727123 1.8681478e-06 0.07437165 0.079399586 0.15383008 0.0014241236 0.0 0.0
0.0 0.0 0.0 0.0 0.0 0.0 0.0 0.0
1.8755288e-06 0.08269813 0.08763334 0.17041562 0.0016038833 0.0 0.0 0.0
0.0 0.0 0.0 0.0 0.0 0.0 0.0 0.0
0.0 0.0 0.0 0.0 3.7477284e-06 0.1530678 0.16349955 0.31662998
0.0029267734 0.0 0.0 0.0 0.0 0.0 5.5158657e-06 0.1810737
0.19340312 0.37476498 0.0035037973 2.1757654e-07 0.012552846 0.012948257 0.02550149 0.0002503751
7.7575316e-07 0.034126084 0.036165085 0.07036273 0.00066006306 0.0 0.0 0.0
0.0 0.0 4.3125397e-06 0.19097716 0.20350218 0.3946413 0.0036651625 0.0
0.0 0.0 0.0 0.0 8.641776e-06 0.25398532 0.2703773 0.52486295
0.004991499 1.4389542e-06 0.06373797 0.06775449 0.13157979 0.0012276499 1.5210528e-06 0.07119595
0.07559582 0.14684051 0.0013699454 1.0479706e-06 0.048762962 0.051622756 0.100472815 0.00094712473
1.1834483e-06 0.045653798 0.04860209 0.09431242 0.0008787422 4.531838e-06 0.14420764 0.15399578
0.2984445 0.0028175937 0.0 0.0 0.0 0.0 0.0 0.0
0.0 0.0 0.0 0.0 0.0 0.0 0.0 0.0
0.0 3.5330281e-06 0.13509864 0.14329931 0.27859017 0.0025947788 1.8686425e-06 0.08772834
0.093376376 0.18116981 0.001698067 3.4766933e-06 0.14582908 0.15564394 0.30161634 0.0028086454
2.7417982e-06 0.11591435 0.123311356 0.23933196 0.0022415144 1.0925504e-06 0.046867453 0.049906906
0.0968433 0.0009007322 8.210213e-06 0.34596568 0.36782527 0.71402985 0.0066305087 0.0
00000000: 5fba 6036 6c04 cd3d d629 da3d bbc3 533e
00000010: e6ad 003b 0000 0000 0000 0000 0000 0000
00000020: 0000 0000 0000 0000 0000 0000 0000 0000
00000030: 0000 0000 0000 0000 0000 0000 0000 0000
00000040: 0000 0000 0000 0000 0000 0000 0000 0000
00000050: 0000 0000 0000 0000 0000 0000 0000 0000
00000060: 0000 0000 d0c1 1b36 21e9 c73d d505 d63d
00000070: 1f18 4f3e 44a3 f63a 5296 2936 6504 d93d
00000080: 1c5e e63d 04d4 5f3e 1c05 053b 0000 0000
00000090: 0000 0000 0000 0000 0000 0000 0000 0000
000000a0: 0000 0000 0000 0000 0000 0000 0000 0000
000000b0: 0000 0000 2fbc 8a36 000b 323e 280e 3e3e
000000c0: 8231 b83e c49c 5b3b 0000 0000 0000 0000
000000d0: 0000 0000 0000 0000 0000 0000 0000 0000
000000e0: 0000 0000 0000 0000 0000 0000 0000 0000
000000f0: 0000 0000 0000 0000 0000 0000 0000 0000
00000100: 0000 0000 0000 0000 0000 0000 0000 0000
00000110: 0000 0000 0000 0000 0000 0000 0000 0000
00000120: 0000 0000 0000 0000 0000 0000 6c91 de35
00000130: 6a34 163d 8f87 253d c5e1 9d3d 96bc 423a
00000140: 0fca ee35 5e99 913d 321f 9a3d 66fe 153e
00000150: f047 b43a b6f7 c835 ad2e 3a3d 3524 4b3d
00000160: 04bc c23d 643a 623a 0000 0000 0000 0000
00000170: 0000 0000 0000 0000 0000 0000 47a7 5f36
00000180: d96d 093e 77d0 113e 24bd 8d3e 0432 293b
00000190: 3627 d636 e72c 813e 3fc0 893e 6a8e 053f
000001a0: 46ab 9f3b 12bd fa35 2a50 983d 409c a23d
000001b0: a285 1d3e a9a9 ba3a 0000 0000 0000 0000
000001c0: 0000 0000 0000 0000 0000 0000 0000 0000
000001d0: 0000 0000 0000 0000 0000 0000 0000 0000
000001e0: aeba fb35 a35d a93d 1c79 b33d 6f81 2e3e
000001f0: 6539 d23a 0000 0000 0000 0000 0000 0000
00000200: 0000 0000 0000 0000 0000 0000 0000 0000
00000210: 0000 0000 0000 0000 0000 0000 0000 0000
00000220: 0000 0000 0000 0000 0000 0000 0000 0000
00000230: 7c81 7b36 cebd 1c3e 6d6c 273e 531d a23e
00000240: 1ccf 3f3b 0000 0000 0000 0000 0000 0000
00000250: 0000 0000 0000 0000 ed14 b936 626b 393e
00000260: 780b 463e 32e1 bf3e f79f 653b fc9e 6934
00000270: 74aa 4d3c ed24 543c 80e8 d03c c744 8339
00000280: 5a3d 5035 cbc7 0b3d d721 143d 561a 903d
00000290: 1508 2d3a 0000 0000 0000 0000 0000 0000
000002a0: 0000 0000 0000 0000 6fb4 9036 848f 433e
000002b0: e062 503e 6d0e ca3e 3933 703b 0000 0000
000002c0: 0000 0000 0000 0000 0000 0000 0000 0000
000002d0: 25fc 1037 5d0a 823e e56e 8a3e 6b5d 063f
000002e0: ba8f a33b 1722 c135 0e89 823d dec2 8a3d
000002f0: dabc 063e 18e9 a03a fa26 cc35 2fcf 913d
00000300: fbd1 9a3d 5c5d 163e bd8f b33a ffa7 8c35
00000310: acbb 473d 6272 533d b1c4 cd3d 7748 783a
00000320: f9d6 9e35 7aff 3a3d fc12 473d df26 c13d
00000330: 645b 663a 3110 9836 2bab 133e 12b1 1d3e
00000340: b8cd 983e 61a7 383b 0000 0000 0000 0000
00000350: 0000 0000 0000 0000 0000 0000 0000 0000
00000360: 0000 0000 0000 0000 0000 0000 0000 0000
00000370: 0000 0000 0000 0000 0000 0000 0000 0000
00000380: 0000 0000 f618 6d36 4c57 0a3e 0ebd 123e
00000390: 5fa3 8e3e 2a0d 2a3b 11ce fa35 eaaa b33d
000003a0: 1d3c bf3d 9484 393e ac91 de3a 2351 6936
000003b0: 3854 153e 2061 1f3e 756d 9a3e 4011 383b
000003c0: bcff 3736 8164 ed3d aa8a fc3d 7013 753e
000003d0: 5fe6 123b bfa3 9235 16f8 3f3d 2f6b 4c3d
000003e0: c855 c63d 1d1f 6c3a 99be 0937 6a22 b13e
000003f0: 9853 bc3e a9ca 363f bd44 d93b 0000 0000

exp_avg f4 [256]
0.00026459317 0.0 0.0 0.0 0.0 0.00073584553 0.0007267493 0.0
0.0 0.0002050043 0.0 0.0 0.0 0.0 0.0 -0.00076200766
0.00011212577 -0.00010893478 0.0 -0.00047924859 0.0012239086 0.00018961688 0.0 0.0
4.132703e-05 0.0 0.0 0.0 -1.3131459e-05 0.0 0.00017891711 1.7205957e-06
0.00020520654 0.0 0.00017383689 0.0 -0.0003177154 0.00032441417 -0.00020731078 0.00057554466
-0.00020595643 -7.0743845e-05 0.0 0.0 0.0 -0.00040916645 4.5141554e-05 -0.00028256612
0.0005789115 0.0005365908 -8.929844e-05 0.0 0.0 0.0 0.0 0.00026367453
0.0 -0.00022203976 0.0 3.02396e-40 0.0 0.0 0.0 0.0
-0.00034463196 0.0 0.00024343954 0.0 0.00068325305 6e-45 -6.83332e-05 0.0
-0.00052743277 -0.0005572093 5.413872e-05 0.0 0.0 0.0 -0.00023134427 -0.00020791264
0.0 0.00013754658 0.0 -0.00063158746 0.0 0.0 0.0 0.0
0.00013808068 0.0 0.0 -0.00042060067 0.0 0.0 0.0 0.00056083826
0.00091625587 0.00085958943 -0.00044110336 -0.00016964145 6.624208e-05 0.00037313785 0.0 -4.031438e-05
3.454e-42 0.0 0.00033911184 0.0 -0.0006922932 0.0 0.0 0.0
0.0 -0.00043741654 0.0 -2.4019928e-05 0.0 0.00048889243 -0.00012891933 0.00016960931
1.8401071e-05 0.0 -5.9023587e-05 0.0 0.0 -0.00010571274 0.0 0.0
0.0 0.0002114836 0.0 0.0007418078 -0.00049315137 0.00023835269 0.0 0.00017854417
-0.0005569004 -0.000250421 0.0 -0.0005942353 -0.00031001118 0.0 0.0 7.085935e-39
0.0007584578 6e-45 3.3918208e-05 -0.0006342254 0.0 0.0 4.11881e-40 0.00030329527
0.0 0.0 0.0 0.0 0.0 6.559637e-05 -0.00039778356 0.0
-0.00031507033 -1.319524e-05 0.0 -2.1597909e-05 -0.0010026746 0.0 0.0 1.7588769e-05
0.0 0.00014390422 0.0 -0.00014499483 0.0 0.0 0.00026042637 -0.00041417373
0.0 0.0 -0.00020194467 0.0 0.00037936386 0.0 0.0 0.0
0.0 -0.00029997627 6e-45 1.34291695e-05 0.0 0.00020523048 0.0 0.0
-0.0003452325 0.00014327426 0.00055971375 0.0 0.000111248315 0.0 0.0 5.570728e-06
7.442327e-05 0.0006083223 8.3e-44 7.775883e-05 0.0006188027 0.0 0.00017275708 -0.00026121212
-8.0381404e-05 -0.00023009523 0.0 -0.00025339704 0.0 0.00047286012 0.0 0.0
6e-45 0.0 -8.335135e-05 -0.00021195249 -0.00021822785 0.0 0.0 0.0
0.0 0.000581114 0.0 0.0 0.0 -0.00012853858 -7.352844e-05 0.0
-6.42385e-05 0.00017943844 2.55258e-40 -0.00043779024 0.0 -8.413414e-05 0.0 0.0
0.0 0.0 6.3523366e-06 0.0 0.0 0.0 0.0 -7.991999e-05
0.0 0.0 -4.897447e-06 -3.076433e-05 -0.0003387967 0.00026481197 0.0 0.0
00000000: 18b9 8a39 0000 0000 0000 0000 0000 0000
00000010: 0000 0000 c2e5 403a 5283 3e3a 0000 0000
00000020: 0000 0000 6cf6 5639 0000 0000 0000 0000
00000030: 0000 0000 0000 0000 0000 0000 78c1 47ba
00000040: 1025 eb38 ea73 e4b8 0000 0000 a843 fbb9
00000050: 8f6b a03a e5d3 4639 0000 0000 0000 0000
00000060: 9056 2d38 0000 0000 0000 0000 0000 0000
00000070: 304f 5cb7 0000 0000 b29b 3b39 38ef e635
00000080: b62c 5739 0000 0000 fc47 3639 0000 0000
00000090: 0a93 a6b9 2216 aa39 9061 59b9 26e0 163a
000000a0: 02f6 57b9 505c 94b8 0000 0000 0000 0000
000000b0: 0000 0000 6485 d6b9 6056 3d38 6225 94b9
000000c0: 18c2 173a 00aa 0c3a bc45 bbb8 0000 0000
000000d0: 0000 0000 0000 0000 0000 0000 cc3d 8a39
000000e0: 0000 0000 58d3 68b9 0000 0000 f54a 0300
000000f0: 0000 0000 0000 0000 0000 0000 0000 0000
00000100: b8af b4b9 0000 0000 ce43 7f39 0000 0000
00000110: 561c 333a 0400 0000 1b4e 8fb8 0000 0000
00000120: 6a43 0aba af11 12ba 0213 6338 0000 0000
00000130: 0000 0000 0000 0000 0195 72b9 2003 5ab9
00000140: 0000 0000 613a 1039 0000 0000 1e91 25ba
00000150: 0000 0000 0000 0000 0000 0000 0000 0000
00000160: c0c9 1039 0000 0000 0000 0000 1184 dcb9
00000170: 0000 0000 0000 0000 0000 0000 3805 133a
00000180: e430 703a 1256 613a e443 e7b9 c8e1 31b9
00000190: 72eb 8a38 b7a1 c339 0000 0000 3c17 29b8
000001a0: a109 0000 0000 0000 d2ca b139 0000 0000
000001b0: 037b 35ba 0000 0000 0000 0000 0000 0000
000001c0: 0000 0000 0e55 e5b9 0000 0000 677e c9b7
000001d0: 0000 0000 0429 003a 852e 07b9 27d9 3139
000001e0: 005c 9a37 0000 0000 1890 77b8 0000 0000
000001f0: 0000 0000 18b2 ddb8 0000 0000 0000 0000
00000200: 0000 0000 b2c1 5d39 0000 0000 e175 423a
00000210: d446 01ba 50ee 7939 0000 0000 9637 3b39
00000220: f4fc 11ba f04a 83b9 0000 0000 75c6 1bba
00000230: ff88 a2b9 0000 0000 0000 0000 b428 4d00
00000240: 3ed3 463a 0400 0000 6643 0e38 2542 26ba
00000250: 0000 0000 0000 0000 287c 0400 9a03 9f39
00000260: 0000 0000 0000 0000 0000 0000 0000 0000
00000270: 0000 0000 c890 8938 9b8d d0b9 0000 0000
00000280: 0630 a5b9 2061 5db7 0000 0000 282d b5b7
00000290: 2d6c 83ba 0000 0000 0000 0000 988b 9337
000002a0: 0000 0000 ffe4 1639 0000 0000 c109 18b9
000002b0: 0000 0000 0000 0000 d689 8839 7525 d9b9
000002c0: 0000 0000 0000 0000 1cc1 53b9 0000 0000
000002d0: 5be5 c639 0000 0000 0000 0000 0000 0000
000002e0: 0000 0000 2246 9db9 0400 0000 d84d 6137
000002f0: 0000 0000 2333 5739 0000 0000 0000 0000
00000300: 5200 b5b9 e43b 1639 c1b9 123a 0000 0000
00000310: fc4d e938 0000 0000 0000 0000 30ec ba36
00000320: b013 9c38 d277 1f3a 3b00 0000 7412 a338
00000330: 2537 223a 0000 0000 2026 3539 4cf3 88b9
00000340: 7092 a8b8 b845 71b9 0000 0000 60da 84b9
00000350: 0000 0000 36ea f739 0000 0000 0000 0000
00000360: 0400 0000 0000 0000 eacc aeb8 903f 5eb9
00000370: 18d4 64b9 0000 0000 0000 0000 0000 0000
00000380: 0000 0000 e755 183a 0000 0000 0000 0000
00000390: 0000 0000 50c8 06b9 4833 9ab8 0000 0000
000003a0: c8b7 86b8 a427 3c39 8ec7 0200 3687 e5b9
000003b0: 0000 0000 2c71 b0b8 0000 0000 0000 0000
000003c0: 0000 0000 0000 0000 2826 d536 0000 0000
000003d0: 0000 0000 0000 0000 0000 0000 b89a a7b8
000003e0: 0000 0000 0000 0000 c054 a4b6 f308 01b8
000003f0: 86a0 b1b9 76d6 8a39 0000 0000 0000 0000
