master_thesis/auto_docking/neural_network_models/final_trained_model.pt (torch, 10689 bytes, 12 tensors)

weight f4 [32, 10]
0	0x3e6248de	0.22098109
1	0x3cf6e203	0.030137068
2	0x3f0cec7f	0.55048364
3	0xbdeb75d1	-0.11497081
4	0x3e11c824	0.14236504
5	0x3f4b9273	0.7952034
6	0x3eac21ba	0.3361948
7	0x3e07c541	0.1325884
8	0xbd2f0acf	-0.042734917
9	0xbe8e0747	-0.27739927
10	0x3ea1bcb5	0.31589285
11	0xbc121248	-0.008915491
12	0xbf1751b3	-0.5910904
13	0xbe50cb76	-0.20390114
14	0x3ebb518f	0.36585662
15	0x4006eddf	2.1082685
16	0xbdfcb1fe	-0.12338637
17	0x3e00484e	0.12527582
18	0x3e3e8b4d	0.18607827
19	0xbf674e3d	-0.9035376
20	0xbe21f618	-0.15816534
21	0xbdfd8712	-0.12379278
22	0xbc61407c	-0.013748284
23	0xbcf02c50	-0.029318005
24	0xbc89e8c4	-0.016834624
25	0xbcc21289	-0.023690479
26	0xbe1e4f35	-0.15459903
27	0xbe4ecb3a	-0.20194712
28	0xbe9d3aa1	-0.30708793
29	0x3dfcdea7	0.12347155
30	0xbea18e39	-0.3155382
31	0x4041a781	3.0258486
32	0x409320ee	4.5977697
33	0x3de79042	0.11306812
34	0x3e41a585	0.18910797
35	0x3fc236e6	1.5173004
36	0xc091a297	-4.5510974
37	0x400a9695	2.1654408
38	0x3ddc0cff	0.10744666
39	0x3f2ee04c	0.68311
40	0xbe41ff6d	-0.18945093
41	0xbdbd8524	-0.0925391
42	0xbe2e095c	-0.16995758
43	0xbc4cfee7	-0.012511945
44	0x3e7d9d36	0.24767002
45	0x3dbdb4c4	0.09262994
46	0xbe92a014	-0.28637755
47	0x3e2a5174	0.16632634
48	0xbe256108	-0.16150296
49	0xbe3de22d	-0.1854331
50	0xbe476cb8	-0.19475067
51	0xbe4f424f	-0.20240138
52	0x3e9c5673	0.30534706
53	0xbd335357	-0.04378065
54	0xbbf9d0e4	-0.0076237787
55	0xbee6b4f5	-0.45059934
56	0xc03c5877	-2.9428995
57	0x3e55c1b2	0.2087467
58	0xbceef24b	-0.029168269
59	0x3f005029	0.50122315
60	0xbea89f2c	-0.32933939
61	0xbe154c0d	-0.14579792
62	0xbf5ef211	-0.87088114
63	0xbdf6fc1d	-0.120598055
64	0x3c74629d	0.014916089
65	0xbecaac98	-0.39584804
66	0x3f1cfbc1	0.61321646
67	0x3f23ffc1	0.64062124
68	0xbe4b5e5f	-0.19860218
69	0xbdd9f5b4	-0.10642567
70	0x3e836eb5	0.256704
71	0xbe427784	-0.18990904
72	0xc0208f20	-2.5087357
73	0xbe2dc60b	-0.16970079
74	0xbde19c96	-0.110161945
75	0x3f23e2ea	0.6401812
76	0x40bacf4b	5.8378043
77	0xc08d8e9b	-4.423658
78	0x3e04e93b	0.12979595
79	0xbf38f8c8	-0.7225461
80	0xbe635cd1	-0.22203375
81	0x3f87644e	1.0577486
82	0x3fa0bbce	1.2557313
83	0xbc720fa2	-0.014774235
84	0x3e586406	0.21131906
85	0x3b6391dc	0.003472439
86	0xbf039e2e	-0.5141324
87	0x3fd43978	1.6580038
88	0x3e97eeed	0.29674473
89	0x3f066387	0.52495617
90	0x3d243088	0.040085346
91	0xbdfd3186	-0.123629615
92	0x3d4b5740	0.049643755
93	0xbe331371	-0.17487885
94	0x3dabd04c	0.08389339
95	0xbe91aa8c	-0.2845043
96	0xbe9e5fc7	-0.30932447
97	0xbdd455a8	-0.103679
98	0x3d076f90	0.03306538
99	0xbd2bcaf0	-0.041941583
100	0x3cf75e2d	0.030196274
101	0x3e92528a	0.28578597
102	0x3eae550e	0.34049267
103	0xbdb17446	-0.086647555
104	0x3e5bc4bd	0.21461768
105	0x4026a3d9	2.6037505
106	0xbf7f11c3	-0.9963648
107	0xc017afde	-2.370109
108	0x3e3106ed	0.17287798
109	0x3eec7f30	0.46190786
110	0xbe1b9be2	-0.15196183
111	0xbe5de8a6	-0.2167078
112	0xbe3c9ed5	-0.18419965
113	0xbdab9c3e	-0.0837941
114	0x3e35b87e	0.1774616
115	0xbe98b771	-0.29827455
116	0x3e0dde14	0.13854247
117	0x3d163110	0.036667883
118	0xbd78c938	-0.060738772
119	0xbe8880ec	-0.2666086
120	0x3e196a2c	0.14981908
121	0xbe3a406b	-0.18188636
122	0x3e14e8aa	0.1454188
123	0xbda97a36	-0.08275263
124	0x3e2807cc	0.16409224
125	0xbdaed4e6	-0.08536701
126	0xbdabf67c	-0.083966225
127	0xbe1a285d	-0.1505446
128	0xbe5cfdca	-0.21581188
129	0xbd410b88	-0.047130138
130	0x3d9d1015	0.07669083
131	0xbd96b2d7	-0.0735833
132	0xbe837e40	-0.2568226
133	0x3e673dce	0.2258217
134	0x3e8835de	0.26603597
135	0x3e4adaf3	0.19810085
136	0xbe49e9fc	-0.19718164
137	0x3df68ac1	0.12038184
138	0xbe22fc45	-0.15916546
139	0x3e67ae8e	0.22625181
140	0xbe6f0515	-0.23341782
141	0x3f3f04b1	0.74616534
142	0x3f02261a	0.5083939
143	0xbdcd12bf	-0.10013341
144	0x3d94d335	0.07266847
145	0x3bee274e	0.007267869
146	0xbf1f1569	-0.62142044
147	0xbf2bbc2b	-0.67083997
148	0x3e66d5cb	0.22542493
149	0x3ea794a4	0.3273059
150	0x3dabcdd5	0.08388869
151	0x3ea52610	0.32255602
152	0x3e12dbd5	0.14341672
153	0xbd44ac64	-0.048015967
154	0x3d439e47	0.047758367
155	0x3fe93289	1.8218547
156	0x3ee12ace	0.4397797
157	0x3f8074a9	1.0035602
158	0xbdcbcf4a	-0.099516466
159	0x3e041585	0.12898834
160	0xbe12b1fc	-0.14325708
161	0x3d99bb74	0.07506457
162	0xbdac9e66	-0.084286496
163	0xbe8fe9e6	-0.28108138
164	0x3ea0f35d	0.3143567
165	0x3e8b31f7	0.27186558
166	0xbe8dce87	-0.2769663
167	0x3df6335c	0.12021515
168	0xbe9ba827	-0.30401728
169	0x3e1fe976	0.15616402
170	0x3e014812	0.12625149
171	0x3d95ee1c	0.073208064
172	0xbe195086	-0.14972124
173	0xbcf2f4a4	-0.02965767
174	0xbcee8663	-0.029116815
175	0x3e3e4f7f	0.18585013
176	0xbd611fa8	-0.05496183
177	0x3e2996ef	0.16561483
178	0xbe40d2f6	-0.18830475
179	0xbe0e3a9c	-0.13889545
180	0xbe29676e	-0.16543362
181	0x3b57aeae	0.0032910514
182	0x3e9c25f3	0.30497703
183	0x3d9b635b	0.0758731
184	0xbe2eb01e	-0.17059371
185	0x3f9703cd	1.1798035
186	0xbfb5edd9	-1.421321
187	0x403a9f41	2.91597
188	0xbe2913c8	-0.16511452
189	0xbef0a597	-0.47001335
190	0x3e0354d4	0.12825328
191	0xbdae689d	-0.08516047
192	0xbe28760e	-0.16451284
193	0xbe49fbd9	-0.19724979
194	0xbd90095b	-0.070330344
195	0xbe387b82	-0.18015864
196	0x3d0140b1	0.031555835
197	0xbe11b18d	-0.14227886
198	0xbda596af	-0.08085381
199	0x3db04f33	0.08608856
200	0x3dda8e84	0.10671714
201	0xbdaa2388	-0.08307558
202	0x3e316902	0.17325214
203	0x3dc74acc	0.09731063
204	0x3d953bfc	0.07286832
205	0xbe9def9a	-0.30846864
206	0xbe3ad3a2	-0.18244794
207	0x3d0a1d30	0.03371924
208	0xbe92be8e	-0.28661007
209	0x3e7e7b16	0.24851641
210	0x3e6f3522	0.23360112
211	0xbe63692e	-0.22208092
212	0x3de61e50	0.112362504
213	0xbe3551b9	-0.17706956
214	0x3d03a22f	0.032137092
215	0xbe1c2532	-0.15248564
216	0xbe61a9bc	-0.22037405
217	0xbe7a5129	-0.24445023
218	0xbdff256c	-0.124583095
219	0xbd99d0b3	-0.07510509
220	0x3e908979	0.28229883
221	0xbe9e3302	-0.3089829
222	0x3e30d7e0	0.1726985
223	0xbe337b10	-0.17527413
224	0x3e9ec9e9	0.3101342
225	0x3e04181c	0.12899822
226	0xbe0f6332	-0.14002684
227	0x3e3ddcae	0.18541214
228	0x3dd0cca0	0.10195279
229	0x3d7df750	0.062003434
230	0xbe5df861	-0.2167678
231	0xbe05e1a2	-0.13074353
232	0x3e13beaf	0.14428209
233	0x3d427e24	0.04748358
234	0x3dd5e232	0.10443534
235	0x3e0c2a5c	0.13688034
236	0x3e85244a	0.2600425
237	0xbe44f791	-0.19235064
238	0xbeb64f1d	-0.35607234
239	0x3eb67348	0.35634828
240	0xbe1c65af	-0.15273164
241	0xbe159d0a	-0.14610687
242	0x3ecf180c	0.40448034
243	0x3d2d2d5b	0.042279582
244	0x3d1cefcd	0.03831463
245	0x3f97329b	1.1812319
246	0x3ff72dc3	1.931084
247	0x3f25f37d	0.6482466
248	0xbdf57b1e	-0.11986373
249	0x3e09d96f	0.1346185
250	0xbf329903	-0.6976473
251	0x40405528	3.0051975
252	0x405128f2	3.268124
253	0x3c946554	0.018114723
254	0x3dc43e02	0.095821396
255	0x3fc7fbc4	1.5623708

bias f4 [32]
0	0xbe360b26	-0.1777769
1	0xbe8d4abc	-0.2759608
2	0xbd9eee8f	-0.07760345
3	0x3d438f8d	0.047744323
4	0xbe835769	-0.25652626
5	0xbb02a577	-0.001993505
6	0xbde3532e	-0.1109985
7	0x3d771c57	0.06032976
8	0x3db50a09	0.08839805
9	0x3b80f3c0	0.0039353073
10	0xbccbdcd0	-0.024885565
11	0xbd2e7bd0	-0.042598546
12	0x3d79c888	0.060982257
13	0xbe1132fb	-0.14179604
14	0xbd5f1a30	-0.054468334
15	0xbe95138e	-0.29116482
16	0xbe2370ba	-0.1596097
17	0x3e7f3b48	0.24924958
18	0xbe2de30f	-0.16981147
19	0xbda815ea	-0.08207305
20	0xbcee13d0	-0.029062182
21	0x3cd9fdc0	0.026610255
22	0x3d04f200	0.03245735
23	0x3e4960e8	0.19665873
24	0x3e5f7470	0.21821761
25	0x3eb8466b	0.35991225
26	0x3b797b80	0.0038067997
27	0x3ec343af	0.38137576
28	0x3e0c70eb	0.1371495
29	0xbe5a3932	-0.21310881
30	0xbd188e9a	-0.03724537
31	0x3dc7c264	0.09753874

weight f4 [5, 32]
0	0xbc9af34c	-0.018914841
1	0xbea14bb1	-0.3150306
2	0xbd8c0281	-0.06836415
3	0x3e63595c	0.22202057
4	0xbd018add	-0.03162657
5	0x3d041c78	0.032253712
6	0x3e5aa08e	0.21350309
7	0xbe61228a	-0.21985832
8	0x3e34f3b1	0.17671086
9	0x3ced3d68	0.028959945
10	0x3e4a9bca	0.19785991
11	0x3d27afc4	0.040939108
12	0x3d81ad46	0.063318774
13	0xbda17a09	-0.078846045
14	0x3e196128	0.14978468
15	0x3e3c1c4b	0.18370168
16	0xbcecd6f8	-0.028911099
17	0x3d84c450	0.06482756
18	0x3e2eb1af	0.17059968
19	0x3d8c51b4	0.06851521
20	0xbbc71340	-0.006075293
21	0x3dfb53fd	0.12271879
22	0xbda3141a	-0.079628184
23	0xbd16d6fb	-0.036826115
24	0x3df9da82	0.1219988
25	0x3e6cb834	0.23117143
26	0x3e31d5b5	0.17366679
27	0x3e8a2f51	0.26989225
28	0xbe1f15cd	-0.1553566
29	0xbe847d63	-0.25876912
30	0xbe48e214	-0.19617492
31	0xbca84f58	-0.020545647
32	0xbcd28c0f	-0.02570155
33	0x3b951801	0.0045499806
34	0x3e31211d	0.17297788
35	0x3e636f93	0.22210531
36	0xbd5488d2	-0.051888295
37	0x3d0bffab	0.03417937
38	0x3e806c4f	0.25082633
39	0xbe69ce4a	-0.228326
40	0x3e3e2ea9	0.18572487
41	0xb8037000	-3.1337142e-05
42	0x3b37e913	0.0028062507
43	0xbdeb65fe	-0.11494063
44	0xbda9af53	-0.082853936
45	0x3d6fbe10	0.058530867
46	0x3e192a51	0.14957549
47	0x3d741912	0.05959422
48	0xbe2bb6ce	-0.16768953
49	0xbe0dce41	-0.13848211
50	0x3d8592fa	0.06522174
51	0x3dc63bbe	0.09679364
52	0xbd50ca50	-0.05097419
53	0x3e20f48d	0.15718289
54	0x3d7f40c8	0.06231764
55	0x3d75b698	0.059988588
56	0x3cf2d673	0.029643273
57	0x3e6c71ff	0.23090361
58	0x3df31e2a	0.11870988
59	0x3e8eeca1	0.2791491
60	0x3e11f441	0.14253332
61	0xbe7bf3e1	-0.24604751
62	0xbe15e71c	-0.14638942
63	0x3e3029b3	0.17203407
64	0x3cd90f8e	0.026496675
65	0xbdf27c9c	-0.118401736
66	0x3e095c27	0.1341406
67	0x3e629464	0.22126919
68	0xbccee7e9	-0.025257068
69	0x3dfb0d48	0.122583926
70	0x3e633d86	0.22191438
71	0xbe630301	-0.22169115
72	0x3e59d3c1	0.21272184
73	0xbe009b30	-0.125592
74	0x3de04306	0.10950284
75	0xbd95bf38	-0.07311863
76	0x3db61952	0.08891548
77	0x3d1ba2b5	0.037996966
78	0x3e33e6a1	0.17568447
79	0x3d998092	0.07495226
80	0x3e06da8b	0.13169305
81	0xbddb1219	-0.10696811
82	0x3e2468db	0.16055624
83	0xbd776bfa	-0.06040571
84	0x3d6b6e98	0.057478517
85	0xbe2c0b4a	-0.16801181
86	0xbdf38e88	-0.1189242
87	0xbcde558f	-0.027140407
88	0xbd1da1a9	-0.03848425
89	0x3e6c0030	0.23046947
90	0xbd3e04fc	-0.046391472
91	0x3e852998	0.26008296
92	0xbd5e1d0c	-0.05422692
93	0xbe78fad7	-0.24314438
94	0xbdbb7270	-0.091526866
95	0xbdfd3fd6	-0.12365691
96	0x3e23abf4	0.15983564
97	0xbe92726c	-0.28602922
98	0xbd8cb1dd	-0.06869862
99	0x3e6eff2c	0.23339528
100	0x3d61fad9	0.055170868
101	0x3dda70ea	0.10666068
102	0x3e842f90	0.25817537
103	0xbe5c37e3	-0.21505694
104	0x3e78ec38	0.2430886
105	0xbd84367c	-0.064557046
106	0x3e29e2d4	0.16590434
107	0xbca6d968	-0.02036734
108	0xbe126cdb	-0.14299338
109	0xbd9fa2e5	-0.077947415
110	0x3e6b88da	0.23001423
111	0xbd5098e6	-0.050927065
112	0xbd9a906a	-0.07547076
113	0x3e0e1e9f	0.13878869
114	0x3e018e28	0.12651885
115	0xbad2643c	-0.0016051601
116	0xbe019f9f	-0.12658547
117	0xbe16c9f7	-0.14725481
118	0xbe31d768	-0.17367327
119	0x3de4465b	0.11146232
120	0xbd80f60c	-0.0629693
121	0x3e5cd610	0.21566033
122	0xbde2af7d	-0.11068628
123	0x3e7319ed	0.23740359
124	0xbdfdc37b	-0.123908006
125	0xbe6b638c	-0.22987193
126	0xbd55d2be	-0.052202933
127	0x3d591dd0	0.053006947
128	0xbda4351d	-0.08017943
129	0xbe5cac39	-0.21550073
130	0xbd90a8a7	-0.07063418
131	0x3e6a6468	0.22889864
132	0xbe044d28	-0.12920058
133	0x3c2fce8e	0.010730399
134	0x3e54c2ed	0.20777483
135	0xbe3a582b	-0.18197696
136	0x3e493c09	0.19651808
137	0x3bf74ea0	0.0075472146
138	0x3d86eef9	0.06588549
139	0x3d978b42	0.07399608
140	0x3d7f22d4	0.062289074
141	0xbd3a31d8	-0.04545769
142	0x3deee8da	0.11665507
143	0x3bad713e	0.0052930405
144	0xbdfae57e	-0.122508034
145	0xbe083aee	-0.1330373
146	0x3e2d4138	0.1691941
147	0x3e23ea88	0.16007435
148	0xbe2eda83	-0.17075543
149	0x3d24c3c4	0.04022576
150	0x3d52c728	0.05145946
151	0xbce3c9a0	-0.027806103
152	0x3d29f0b1	0.041489307
153	0x3e6ad5c2	0.22933105
154	0x3e0cb06d	0.13739176
155	0x3e8d9963	0.27656087
156	0xbe2240d2	-0.1584504
157	0xbe807c06	-0.25094622
158	0xbe30c7d6	-0.17263731
159	0xbdc4ffd1	-0.096191056

bias f4 [5]
0	0x3d9f302b	0.07772859
1	0x3e002ba5	0.12516649
2	0x3d86c793	0.065810345
3	0x3e00fb40	0.12595844
4	0x3cac7d3d	0.021055812

exp_avg f4 [32, 10]
0	0x00000004	6e-45
1	0x80000004	-6e-45
2	0x80000004	-6e-45
3	0x00000004	6e-45
4	0x80000004	-6e-45
5	0x00000004	6e-45
6	0x00000004	6e-45
7	0x00000004	6e-45
8	0x00000004	6e-45
9	0x80000004	-6e-45
10	0x00000004	6e-45
11	0x00000004	6e-45
12	0x80000004	-6e-45
13	0x00000004	6e-45
14	0x80000004	-6e-45
15	0x00000004	6e-45
16	0x00000004	6e-45
17	0x80000004	-6e-45
18	0x00000004	6e-45
19	0x80000004	-6e-45
20	0x80000004	-6e-45
21	0x00000004	6e-45
22	0x00000004	6e-45
23	0x00000004	6e-45
24	0x80000004	-6e-45
25	0x00000004	6e-45
26	0x80000004	-6e-45
27	0x80000004	-6e-45
28	0x00000004	6e-45
29	0x00000004	6e-45
30	0x38abb38d	8.187359e-05
31	0xb858f32c	-5.1724885e-05
32	0xb90750fb	-0.00012904771
33	0xba8b4744	-0.0010626097
34	0x3a875387	0.0010324576
35	0x36abf402	5.1246034e-06
36	0xb4f57c79	-4.5725372e-07
37	0x3634d348	2.6945072e-06
38	0xbac1e51c	-0.0014793011
39	0xb7438f3a	-1.1656253e-05
40	0x80000004	-6e-45
41	0x80000004	-6e-45
42	0x00000004	6e-45
43	0x00000004	6e-45
44	0x80000004	-6e-45
45	0x80000004	-6e-45
46	0x00000004	6e-45
47	0x00000004	6e-45
48	0x00000004	6e-45
49	0x80000004	-6e-45
50	0x390fbca2	0.00013707814
51	0xb923ce98	-0.00015621854
52	0xb9b6436f	-0.00034763987
53	0xbb029854	-0.001992722
54	0x3b03d974	0.0020118626
55	0xb7eb1765	-2.8025077e-05
56	0x36636877	3.3886442e-06
57	0xb672a437	-3.6156396e-06
58	0xbb39488c	-0.0028272
59	0xb92b7655	-0.00016351913
60	0x80000004	-6e-45
61	0x00000004	6e-45
62	0x00000004	6e-45
63	0x00000004	6e-45
64	0x80000004	-6e-45
65	0x80000004	-6e-45
66	0x00000004	6e-45
67	0x00000004	6e-45
68	0x00000004	6e-45
69	0x80000004	-6e-45
70	0x3afd1b91	0.0019310584
71	0x390587cc	0.00012734457
72	0xb807cc64	-3.237686e-05
73	0xba32c7a7	-0.00068199117
74	0xbab468b0	-0.001376411
75	0x38934a4a	7.023344e-05
76	0xb604c59f	-1.9784563e-06
77	0x36f439a3	7.2784765e-06
78	0x3a15919e	0.00057055976
79	0x388a3c9f	6.591644e-05
80	0xba2fde23	-0.0006708821
81	0xba23f005	-0.0006253722
82	0xb8d34626	-0.0001007433
83	0x3ab4f80c	0.0013806834
84	0xb8b11254	-8.4434316e-05
85	0xb8a6480d	-7.928917e-05
86	0x3572cbe1	9.044871e-07
87	0xb609a072	-2.0507982e-06
88	0x3a804f23	0.000978921
89	0xb8a29746	-7.752939e-05
90	0x00000000	0.0
91	0x00000000	0.0
92	0x00000000	0.0
93	0x00000000	0.0
94	0x00000000	0.0
95	0x00000000	0.0
96	0x00000000	0.0
97	0x00000000	0.0
98	0x00000000	0.0
99	0x00000000	0.0
100	0xb976a0b8	-0.0002352026
101	0x3ac940eb	0.001535443
102	0x3a149b52	0.00056688965
103	0x3b766473	0.0037596493
104	0xbba5cd69	-0.005059887
105	0x386bd378	5.622531e-05
106	0xb6df4705	-6.6541857e-06
107	0x37b4766d	2.1512818e-05
108	0x3bd2027d	0.006408988
109	0x38c40137	9.3462346e-05
110	0x00000000	0.0
111	0x00000000	0.0
112	0x00000000	0.0
113	0x00000000	0.0
114	0x00000000	0.0
115	0x00000000	0.0
116	0x00000000	0.0
117	0x00000000	0.0
118	0x00000000	0.0
119	0x00000000	0.0
120	0x00000000	0.0
121	0x00000000	0.0
122	0x00000000	0.0
123	0x00000000	0.0
124	0x00000000	0.0
125	0x00000000	0.0
126	0x00000000	0.0
127	0x00000000	0.0
128	0x00000000	0.0
129	0x00000000	0.0
130	0x80000004	-6e-45
131	0x80000004	-6e-45
132	0x00000004	6e-45
133	0x00000004	6e-45
134	0x80000004	-6e-45
135	0x80000004	-6e-45
136	0x00000004	6e-45
137	0x00000004	6e-45
138	0x00000004	6e-45
139	0x80000004	-6e-45
140	0xba5230b6	-0.0008018123
141	0xba4d2761	-0.00078259973
142	0x389d4b42	7.500361e-05
143	0x3aaca469	0.0013171557
144	0x398c1eb0	0.00026725745
145	0xb8c24f0e	-9.265366e-05
146	0xb630a752	-2.6323437e-06
147	0x371b28bd	9.248205e-06
148	0x3a410298	0.0007362752
149	0xb952a50c	-0.00020088645
150	0x39ca6bc2	0.00038608728
151	0x3a2e425d	0.0006647462
152	0x38667aee	5.495076e-05
153	0x3a2d8448	0.0006619138
154	0xbae07e43	-0.0017127473
155	0x38108c62	3.4463017e-05
156	0xb59d32a4	-1.171215e-06
157	0xb2130385	-8.557326e-09
158	0x3af0c3d3	0.0018368907
159	0xb876471f	-5.8717207e-05
160	0x00000000	0.0
161	0x00000000	0.0
162	0x00000000	0.0
163	0x00000000	0.0
164	0x00000000	0.0
165	0x00000000	0.0
166	0x00000000	0.0
167	0x00000000	0.0
168	0x00000000	0.0
169	0x00000000	0.0
170	0x00000004	6e-45
171	0x00000004	6e-45
172	0x00000004	6e-45
173	0x00000004	6e-45
174	0x80000004	-6e-45
175	0x00000004	6e-45
176	0x80000004	-6e-45
177	0x80000004	-6e-45
178	0x00000004	6e-45
179	0x80000004	-6e-45
180	0xba8ff4e5	-0.0010983018
181	0x3aaef0b7	0.0013346885
182	0x3a22cd5f	0.0006210412
183	0x3c6277c8	0.013822503
184	0xbc66573d	-0.014058885
185	0x37fe34b7	3.0303707e-05
186	0x3662ae7d	3.377819e-06
187	0xb73dfc6d	-1.132405e-05
188	0x3ca17ab3	0.019711828
189	0xb83834af	-4.3918084e-05
190	0x00000004	6e-45
191	0x80000004	-6e-45
192	0x80000004	-6e-45
193	0x00000004	6e-45
194	0x80000004	-6e-45
195	0x00000004	6e-45
196	0x00000004	6e-45
197	0x00000004	6e-45
198	0x00000004	6e-45
199	0x80000004	-6e-45
200	0x00000000	0.0
201	0x00000000	0.0
202	0x00000000	0.0
203	0x00000000	0.0
204	0x00000000	0.0
205	0x00000000	0.0
206	0x00000000	0.0
207	0x00000000	0.0
208	0x00000000	0.0
209	0x00000000	0.0
210	0x00000004	6e-45
211	0x80000004	-6e-45
212	0x80000004	-6e-45
213	0x00000004	6e-45
214	0x80000004	-6e-45
215	0x00000004	6e-45
216	0x00000004	6e-45
217	0x00000004	6e-45
218	0x00000004	6e-45
219	0x80000004	-6e-45
220	0x00000000	0.0
221	0x00000000	0.0
222	0x00000000	0.0
223	0x00000000	0.0
224	0x00000000	0.0
225	0x00000000	0.0
226	0x00000000	0.0
227	0x00000000	0.0
228	0x00000000	0.0
229	0x00000000	0.0
230	0x80000004	-6e-45
231	0x00000004	6e-45
232	0x00000004	6e-45
233	0x00000004	6e-45
234	0x80000004	-6e-45
235	0x00000004	6e-45
236	0x80000004	-6e-45
237	0x80000004	-6e-45
238	0x00000004	6e-45
239	0x00000004	6e-45
240	0x3934be80	0.00017237104
241	0x3990f455	0.00027647862
242	0xb9126304	-0.00013960531
243	0xba9a1b60	-0.0011757426
244	0x3a3e8cf3	0.0007268928
245	0xb7c6b1e7	-2.3686282e-05
246	0x350b8282	5.197145e-07
247	0x3457a829	2.0084612e-07
248	0xbab50459	-0.00138105
249	0xb88330cc	-6.255656e-05
250	0xb40a7f43	-1.2898549e-07
251	0x388c5bd9	6.692828e-05
252	0x385de47e	5.2903306e-05
253	0x37e5efb6	2.7410551e-05
254	0xb8c58e39	-9.420183e-05
255	0x37571964	1.282091e-05

exp_avg_sq f4 [32, 10]
0	0x2b6d78ae	8.436679e-13
1	0x2785df18	3.7156794e-15
2	0x25e67f1f	3.998478e-16
3	0x2af73b12	4.3917002e-13
4	0x2c2d6423	2.4640366e-12
5	0x259e1b20	2.7427012e-16
6	0x1f9d6ab7	6.666863e-20
7	0x20ccd9b9	3.470302e-19
8	0x2c4c4d27	2.9032972e-12
9	0x27627a01	3.1429939e-15
10	0x2ec8b1c3	9.126524e-11
11	0x2b4d39b0	7.291069e-13
12	0x2800ec99	7.156731e-15
13	0x2f020504	1.1825213e-10
14	0x2fd56650	3.8817172e-10
15	0x295f7894	4.9620532e-14
16	0x23e2f52a	2.46068e-17
17	0x24b0a0e9	7.6600425e-17
18	0x300b2b77	5.062967e-10
19	0x2b742665	8.6739497e-13
20	0x2ba69ffe	1.1839416e-12
21	0x2b98e88b	1.0864793e-12
22	0x2900095d	2.842983e-14
23	0x2b35d194	6.4594966e-13
24	0x2b21b5f5	5.7451206e-13
25	0x2725b22d	2.299494e-15
26	0x21c83968	1.3567722e-18
27	0x1a34d7fa	3.7397592e-23
28	0x2ba92371	1.2018009e-12
29	0x24fb7c51	1.090645e-16
30	0x358da79f	1.0554103e-06
31	0x34b847d7	3.432494e-07
32	0x342a30e6	1.5850273e-07
33	0x389f9295	7.609014e-05
34	0x38ac5eba	8.219243e-05
35	0x320a2cf1	8.042876e-09
36	0x2e7a4601	5.6905595e-11
37	0x3103fb6e	1.920593e-09
38	0x39262c04	0.00015847391
39	0x3553e8e3	7.894252e-07
40	0x1098e912	6.031253e-29
41	0x014958f7	3.69817e-38
42	0x0001e027	1.72246e-40
43	0x10d6bcc3	8.469895e-29
44	0x0e2b3342	2.1102057e-30
45	0x0ac8cf39	1.9337248e-32
46	0x000001f4	7e-43
47	0x000001f4	7e-43
48	0x10dc167e	8.6809354e-29
49	0x0d49c74e	6.217781e-31
50	0x37e9a87c	2.7854221e-05
51	0x369580cc	4.45554e-06
52	0x3683090a	3.9051565e-06
53	0x3976cec9	0.00023537422
54	0x3925fb29	0.0001582919
55	0x339ddc25	7.350926e-08
56	0x2fd4d801	3.8716055e-10
57	0x3105eb15	1.9487676e-09
58	0x39ce38d4	0.00039333722
59	0x357bd38d	9.3812633e-07
60	0x324ac9ab	1.18038015e-08
61	0x2eadf353	7.910352e-11
62	0x2dae29ed	1.9800129e-11
63	0x32b4ae45	2.1034007e-08
64	0x30d7026f	1.5644e-09
65	0x2cc3a69c	5.5607307e-12
66	0x268775fe	9.399489e-16
67	0x27936abf	4.091643e-15
68	0x32c22085	2.259936e-08
69	0x2f22b42c	1.4797824e-10
70	0x37f63781	2.9351331e-05
71	0x3595f210	1.1171815e-06
72	0x343bd6eb	1.7493919e-07
73	0x398831fe	0.00025977188
74	0x39ce1972	0.0003931034
75	0x32d5c3ef	2.4885564e-08
76	0x2edb96bb	9.985742e-11
77	0x3097fb2c	1.1058083e-09
78	0x3a2c879a	0.00065814855
79	0x36e67ba2	6.868927e-06
80	0x37c6a394	2.3679611e-05
81	0x3756c724	1.280176e-05
82	0x36b1ba28	5.2966825e-06
83	0x3a37236e	0.00069861754
84	0x3a520afc	0.0008012501
85	0x34096fc2	1.2799777e-07
86	0x3035a03d	6.607513e-10
87	0x318acc89	4.0395816e-09
88	0x3ac61c62	0.001511466
89	0x370a31d0	8.237039e-06
90	0x00000000	0.0
91	0x00000000	0.0
92	0x00000000	0.0
93	0x00000000	0.0
94	0x00000000	0.0
95	0x00000000	0.0
96	0x00000000	0.0
97	0x00000000	0.0
98	0x00000000	0.0
99	0x00000000	0.0
100	0x381aa76c	3.6872385e-05
101	0x381c027f	3.7195623e-05
102	0x375da87b	1.3211854e-05
103	0x3a8e091c	0.0010836455
104	0x3ab71e72	0.0013970865
105	0x34213f6f	1.501737e-07
106	0x30da86ee	1.5899937e-09
107	0x32820f6a	1.5141001e-08
108	0x3b2310a7	0.0024881752
109	0x35eefe9a	1.7806481e-06
110	0x00000000	0.0
111	0x00000000	0.0
112	0x00000000	0.0
113	0x00000000	0.0
114	0x00000000	0.0
115	0x00000000	0.0
116	0x00000000	0.0
117	0x00000000	0.0
118	0x00000000	0.0
119	0x00000000	0.0
120	0x00000000	0.0
121	0x00000000	0.0
122	0x00000000	0.0
123	0x00000000	0.0
124	0x00000000	0.0
125	0x00000000	0.0
126	0x00000000	0.0
127	0x00000000	0.0
128	0x00000000	0.0
129	0x00000000	0.0
130	0x040318fd	1.541045e-36
131	0x03a53200	9.709308e-37
132	0x01ecbfd0	8.6967946e-38
133	0x05f95604	2.3447445e-35
134	0x056f84e8	1.1262137e-35
135	0x00139596	1.798536e-39
136	0x0000591f	3.197e-41
137	0x0002d7a0	2.61023e-40
138	0x0637cfcd	3.4571142e-35
139	0x01756f0b	4.5079063e-38
140	0x388413a4	6.297909e-05
141	0x37b6221b	2.1711972e-05
142	0x375bfca2	1.3112238e-05
143	0x3b111732	0.002213907
144	0x3b295da4	0.0025843168
145	0x34645147	2.1263723e-07
146	0x30fb3ca4	1.8279889e-09
147	0x3294771b	1.728363e-08
148	0x3b9e2a1b	0.0048267967
149	0x371b41a4	9.254003e-06
150	0x37c0d484	2.2987144e-05
151	0x38344b01	4.2985197e-05
152	0x35acb1e2	1.2866769e-06
153	0x385dbe9a	5.2868018e-05
154	0x38b9ba88	8.8562316e-05
155	0x34036a47	1.2238989e-07
156	0x2f5b187a	1.992663e-10
157	0x2b91588c	1.0327446e-12
158	0x39144e0c	0.00014143455
159	0x32c7473e	2.3199046e-08
160	0x00000000	0.0
161	0x00000000	0.0
162	0x00000000	0.0
163	0x00000000	0.0
164	0x00000000	0.0
165	0x00000000	0.0
166	0x00000000	0.0
167	0x00000000	0.0
168	0x00000000	0.0
169	0x00000000	0.0
170	0x236b3c0f	1.27520934e-17
171	0x000008b8	3.128e-42
172	0x00009be8	5.5929e-41
173	0x2317d4dd	8.230802e-18
174	0x243f440f	4.147417e-17
175	0x1dd1cfca	5.553669e-21
176	0x000004f5	1.778e-42
177	0x0000198f	9.169e-42
178	0x2464dcca	4.9626635e-17
179	0x1f8eab57	6.04228e-20
180	0x37b7eb91	2.1924994e-05
181	0x3704b153	7.9091e-06
182	0x373f819e	1.1414666e-05
183	0x3b0b4706	0.002125205
184	0x3b1abf29	0.0023612475
185	0x33698a1d	5.4375153e-08
186	0x30c497f5	1.4304066e-09
187	0x324dfdec	1.1990306e-08
188	0x3b938694	0.004502127
189	0x36b905c9	5.514103e-06
190	0x2ab882f2	3.2775827e-13
191	0x259dcaca	2.7372574e-16
192	0x214921ee	6.8146355e-19
193	0x2a662d0a	2.044373e-13
194	0x2b927b9c	1.0408232e-12
195	0x248b76ea	6.048309e-17
196	0x1d18fb7c	2.0247047e-21
197	0x159032c8	5.8241256e-26
198	0x2baf42e9	1.2453069e-12
199	0x26d6d7b9	1.4907705e-15
200	0x00000000	0.0
201	0x00000000	0.0
202	0x00000000	0.0
203	0x00000000	0.0
204	0x00000000	0.0
205	0x00000000	0.0
206	0x00000000	0.0
207	0x00000000	0.0
208	0x00000000	0.0
209	0x00000000	0.0
210	0x1165161c	1.8071728e-28
211	0x0f0f272a	7.057987e-30
212	0x0b01f33a	2.502748e-32
213	0x11aa71e7	2.6891469e-28
214	0x1269cf1b	7.3777114e-28
215	0x0c26fcde	1.2864269e-31
216	0x0700b71f	9.683464e-35
217	0x0028b8eb	3.739756e-39
218	0x129f699c	1.0060345e-27
219	0x0e11f13c	1.798878e-30
220	0x00000000	0.0
221	0x00000000	0.0
222	0x00000000	0.0
223	0x00000000	0.0
224	0x00000000	0.0
225	0x00000000	0.0
226	0x00000000	0.0
227	0x00000000	0.0
228	0x00000000	0.0
229	0x00000000	0.0
230	0x2cce9fbb	5.872606e-12
231	0x261024f1	5.00101e-16
232	0x29d0fd9b	9.281049e-14
233	0x2ce76b6f	6.5773424e-12
234	0x28c1e59c	2.1526882e-14
235	0x27a05a57	4.4506868e-15
236	0x221ee2d8	2.1533083e-18
237	0x1a79df53	5.1672393e-23
238	0x2ce82b86	6.5986687e-12
239	0x2801b073	7.1992e-15
240	0x38483e3f	4.7741687e-05
241	0x37ba4bb6	2.2208184e-05
242	0x366e6aab	3.5526853e-06
243	0x396f8219	0.00022841281
244	0x38d50f42	0.000101594735
245	0x341d9e5e	1.4679378e-07
246	0x2fa26701	2.9540817e-10
247	0x2f4b52bc	1.8492136e-10
248	0x39ad1bb0	0.0003301776
249	0x3518d8ef	5.694009e-07
250	0x36184b0c	2.2693448e-06
251	0x352f4aa4	6.5301197e-07
252	0x34f7d8c8	4.6165064e-07
253	0x392ad440	0.00016291533
254	0x393e8593	0.00018169572
255	0x3294155b	1.7239179e-08

exp_avg f4 [32]
0	0x00000004	6e-45
1	0x00000004	6e-45
2	0x00000004	6e-45
3	0xb829f574	-4.0521336e-05
4	0x00000004	6e-45
5	0xb8a3e0dd	-7.81433e-05
6	0x00000004	6e-45
7	0xb7a9307c	-2.0168947e-05
8	0x37e66678	2.7465852e-05
9	0x00000000	0.0
10	0x3949e6eb	0.00019254877
11	0x00000000	0.0
12	0x00000000	0.0
13	0x00000004	6e-45
14	0x37a30f8c	1.9438354e-05
15	0x384a57a5	4.824218e-05
16	0x00000000	0.0
17	0x00000004	6e-45
18	0x3a107c6b	0.0005511704
19	0x00000004	6e-45
20	0x00000000	0.0
21	0x00000004	6e-45
22	0x00000000	0.0
23	0x00000004	6e-45
24	0xb80927e6	-3.2700504e-05
25	0x36663424	3.430302e-06
26	0x00000000	0.0
27	0xb884165d	-6.298416e-05
28	0x00000004	6e-45
29	0x37e9b39e	2.7859405e-05
30	0x37617abd	1.3439622e-05
31	0x00000000	0.0

exp_avg_sq f4 [32]
0	0x262896f3	5.8491283e-16
1	0x2a2a3174	1.511619e-13
2	0x27a25b52	4.5063042e-15
3	0x33d9bf76	1.01396765e-07
4	0x0c116208	1.1199894e-31
5	0x34abca65	3.1998493e-07
6	0x2dfc28e1	2.8667237e-11
7	0x34bcb411	3.5148744e-07
8	0x358f5c76	1.068124e-06
9	0x00000000	0.0
10	0x35f10fb1	1.7960466e-06
11	0x00000000	0.0
12	0x00000000	0.0
13	0x00e30dc9	2.0851603e-38
14	0x365aecea	3.2622434e-06
15	0x34815b52	2.4094567e-07
16	0x00000000	0.0
17	0x1e4d95e2	1.0883605e-20
18	0x364d6415	3.0605636e-06
19	0x25998ceb	2.663676e-16
20	0x00000000	0.0
21	0x0ca39edc	2.5209736e-31
22	0x00000000	0.0
23	0x281d33ab	8.7264544e-15
24	0x34b23309	3.3192217e-07
25	0x346b2f67	2.1903325e-07
26	0x00000000	0.0
27	0x35019385	4.8270914e-07
28	0x22377f87	2.4868637e-18
29	0x34a0b18f	2.9931513e-07
30	0x330d83b4	3.2948904e-08
31	0x00000000	0.0

exp_avg f4 [5, 32]
0	0x00000004	6e-45
1	0x80000004	-6e-45
2	0x00000004	6e-45
3	0x3d9825ee	0.074291095
4	0x80000004	-6e-45
5	0x3944f16c	0.00018781953
6	0x80000004	-6e-45
7	0xbc1e7871	-0.00967227
8	0x3ceef926	0.029171538
9	0x00000000	0.0
10	0x3bd59661	0.0065181707
11	0x00000000	0.0
12	0x00000000	0.0
13	0x00000000	0.0
14	0x3ca81b5c	0.020520858
15	0x37fda75b	3.0237881e-05
16	0x00000000	0.0
17	0x80000004	-6e-45
18	0x3b6de8b6	0.0036302037
19	0x80000004	-6e-45
20	0x00000000	0.0
21	0x80000004	-6e-45
22	0x00000000	0.0
23	0x00000004	6e-45
24	0xb8ea57ca	-0.000111743415
25	0x3d8dd466	0.069252774
26	0x00000000	0.0
27	0x3db5d7e4	0.088790685
28	0x00000004	6e-45
29	0xbb9ddd63	-0.004817651
30	0x35909ccd	1.0774471e-06
31	0x00000000	0.0
32	0x80000004	-6e-45
33	0x00000004	6e-45
34	0x00000000	0.0
35	0xbd8e5008	-0.069488585
36	0x00000000	0.0
37	0x34082db1	1.268261e-07
38	0x80000004	-6e-45
39	0xbbae7645	-0.0053241574
40	0xbd3f9877	-0.04677626
41	0x00000000	0.0
42	0xba04bc64	-0.0005063473
43	0x00000000	0.0
44	0x00000000	0.0
45	0x00000000	0.0
46	0xbd048b51	-0.032359425
47	0x00000004	6e-45
48	0x00000000	0.0
49	0x00000000	0.0
50	0xbb9d7864	-0.0048056114
51	0x00000004	6e-45
52	0x00000000	0.0
53	0x00000000	0.0
54	0x00000000	0.0
55	0x00000004	6e-45
56	0x322e15e5	1.0133111e-08
57	0xbd8c7c12	-0.06859602
58	0x00000000	0.0
59	0xbe113233	-0.14179306
60	0x00000000	0.0
61	0xbaedcabd	-0.0018142086
62	0xb84eac04	-4.927443e-05
63	0x00000000	0.0
64	0x00000004	6e-45
65	0x00000004	6e-45
66	0x00000000	0.0
67	0x3d4b12be	0.04957842
68	0x00000004	6e-45
69	0xb92cc9a1	-0.00016478311
70	0x00000004	6e-45
71	0xbb01e21e	-0.0019818614
72	0x3d2784ef	0.04089826
73	0x00000000	0.0
74	0xbb171fd4	-0.0023059743
75	0x00000000	0.0
76	0x00000000	0.0
77	0x00000004	6e-45
78	0x3cd2cd46	0.025732648
79	0xb7bc2e87	-2.2433012e-05
80	0x00000000	0.0
81	0x00000000	0.0
82	0x3bd05727	0.0063580456
83	0x00000000	0.0
84	0x00000000	0.0
85	0x00000000	0.0
86	0x00000000	0.0
87	0x80000004	-6e-45
88	0xb52928ce	-6.3016785e-07
89	0x3d37ed0f	0.04490381
90	0x00000000	0.0
91	0x3dfd2979	0.12361426
92	0x00000004	6e-45
93	0x39a0e49d	0.00030687908
94	0x38604076	5.3465796e-05
95	0x00000000	0.0
96	0x00000004	6e-45
97	0x00000004	6e-45
98	0x00000000	0.0
99	0xbd3e95c3	-0.046529543
100	0x00000004	6e-45
101	0xb8877646	-6.459332e-05
102	0x00000004	6e-45
103	0xbbc4d665	-0.006007003
104	0xbca4b8cf	-0.020107655
105	0x00000000	0.0
106	0xbb464432	-0.003025305
107	0x00000000	0.0
108	0x00000000	0.0
109	0x80000004	-6e-45
110	0xbc5afa04	-0.013365272
111	0x2fde906c	4.0484183e-10
112	0x00000000	0.0
113	0x00000000	0.0
114	0xbb2a7d80	-0.0026014745
115	0x00000004	6e-45
116	0x00000000	0.0
117	0x00000000	0.0
118	0x00000000	0.0
119	0x00000004	6e-45
120	0x38c80a38	9.5386466e-05
121	0xbd2399e5	-0.039941687
122	0x00000000	0.0
123	0xbd7bb1f2	-0.061449
124	0x80000004	-6e-45
125	0xbae943d9	-0.001779671
126	0x37187198	9.086354e-06
127	0x00000000	0.0
128	0x80000004	-6e-45
129	0x00000004	6e-45
130	0x00000000	0.0
131	0xbc304e59	-0.010760867
132	0x00000000	0.0
133	0x38022785	3.103122e-05
134	0x80000004	-6e-45
135	0x3cc2b367	0.023767186
136	0xbb9ab8ed	-0.004721752
137	0x00000000	0.0
138	0xba1f3e1b	-0.0006074623
139	0x00000000	0.0
140	0x00000000	0.0
141	0x00000000	0.0
142	0xbacc8726	-0.0015604242
143	0xb2225b8d	-9.450457e-09
144	0x00000000	0.0
145	0x00000000	0.0
146	0xbb2ed98f	-0.0026679968
147	0x80000004	-6e-45
148	0x00000000	0.0
149	0x00000000	0.0
150	0x00000000	0.0
151	0x00000000	0.0
152	0x319506d2	4.337246e-09
153	0xbc0530cc	-0.00812931
154	0x00000000	0.0
155	0xbc60dda7	-0.013724721
156	0x00000000	0.0
157	0x3c062e26	0.008189714
158	0xb69fc662	-4.761664e-06
159	0x00000000	0.0

exp_avg_sq f4 [5, 32]
0	0x28869de2	1.494546e-14
1	0x2d52a38b	1.1973432e-11
2	0x2d952009	1.6953565e-11
3	0x3e0da617	0.1383289
4	0x0fc942f9	1.9845927e-29
5	0x38969114	7.17958e-05
6	0x31bb64c8	5.453874e-09
7	0x3bf1ccbd	0.007379143
8	0x3d07caea	0.0331525
9	0x00000000	0.0
10	0x3a6d7716	0.00090585777
11	0x00000000	0.0
12	0x00000000	0.0
13	0x00000000	0.0
14	0x3c790a6a	0.015200237
15	0x37feb0b8	3.036145e-05
16	0x00000000	0.0
17	0x223ebada	2.584872e-18
18	0x3a927be9	0.0011175844
19	0x2a82631d	2.3161413e-13
20	0x00000000	0.0
21	0x0ef8f1c1	6.136952e-30
22	0x00000000	0.0
23	0x2aa2eb19	2.8940113e-13
24	0x37eac606	2.7987186e-05
25	0x3e05f82f	0.13082956
26	0x00000000	0.0
27	0x3e994e2e	0.2994246
28	0x26450c7e	6.8365035e-16
29	0x3aa964ef	0.0012923757
30	0x3512425e	5.4485815e-07
31	0x00000000	0.0
32	0x288e7341	1.581515e-14
33	0x2d546759	1.2073753e-11
34	0x00000000	0.0
35	0x3d4ae570	0.049535215
36	0x00000000	0.0
37	0x3702f895	7.806481e-06
38	0x31a364f9	4.7554036e-09
39	0x3b142057	0.0022602284
40	0x3caa4bc4	0.020788081
41	0x00000000	0.0
42	0x37be9487	2.2718928e-05
43	0x00000000	0.0
44	0x00000000	0.0
45	0x00000000	0.0
46	0x3c1798fb	0.009252782
47	0x2dccc4b5	2.327947e-11
48	0x00000000	0.0
49	0x00000000	0.0
50	0x3a5cb539	0.0008419338
51	0x2a81ed74	2.307977e-13
52	0x00000000	0.0
53	0x00000000	0.0
54	0x00000000	0.0
55	0x24bb5b78	8.1253277e-17
56	0x356e56fa	8.8788477e-07
57	0x3d21ef47	0.039534833
58	0x00000000	0.0
59	0x3e4082b4	0.1879986
60	0x00000000	0.0
61	0x3a0c13fa	0.0005343553
62	0x362a88a0	2.54115e-06
63	0x00000000	0.0
64	0x26cae5bd	1.4078836e-15
65	0x2a731abe	2.1592014e-13
66	0x00000000	0.0
67	0x3d5504be	0.052006476
68	0x1015612c	2.9459927e-29
69	0x384e08a5	4.9122278e-05
70	0x325ea744	1.29601325e-08
71	0x3a447f18	0.0007495745
72	0x3c76c0ce	0.015060617
73	0x00000000	0.0
74	0x39495e1b	0.00019203911
75	0x00000000	0.0
76	0x00000000	0.0
77	0x038f7a2d	8.432835e-37
78	0x3bef2683	0.007298292
79	0x37cafe4d	2.4198695e-05
80	0x00000000	0.0
81	0x00000000	0.0
82	0x3a11d6ce	0.00055633194
83	0x00000000	0.0
84	0x00000000	0.0
85	0x00000000	0.0
86	0x00000000	0.0
87	0x24b43ca7	7.8165305e-17
88	0x3799f25b	1.8351877e-05
89	0x3d50f8c0	0.051018476
90	0x00000000	0.0
91	0x3e0fefc4	0.14056307
92	0x0a674f58	1.1137168e-32
93	0x38b005f4	8.393443e-05
94	0x3709deaf	8.217684e-06
95	0x00000000	0.0
96	0x2838520b	1.0231842e-14
97	0x2bc9d932	1.4342193e-12
98	0x00000000	0.0
99	0x3dc75139	0.09732289
100	0x0f3b0ea3	9.222631e-30
101	0x3885afeb	6.3747015e-05
102	0x317ffd3d	3.7251333e-09
103	0x3b8306d8	0.0039986186
104	0x3ceb7a22	0.02874476
105	0x00000000	0.0
106	0x39edd3fd	0.00045362106
107	0x00000000	0.0
108	0x00000000	0.0
109	0x0003a182	3.33445e-40
110	0x3c516cbc	0.012782272
111	0x3447d62c	1.8611235e-07
112	0x00000000	0.0
113	0x00000000	0.0
114	0x3a3f2ed2	0.00072930485
115	0x2724f97e	2.2894822e-15
116	0x00000000	0.0
117	0x00000000	0.0
118	0x00000000	0.0
119	0x2a5cd5d1	1.9614108e-13
120	0x3775c5ea	1.4649218e-05
121	0x3daab1d6	0.08334701
122	0x00000000	0.0
123	0x3e6f9d44	0.23399836
124	0x0a33ed34	8.6631495e-33
125	0x3aaa4d74	0.0012993054
126	0x37727872	1.4452367e-05
127	0x00000000	0.0
128	0x271892f4	2.11739e-15
129	0x2a059c18	1.1866929e-13
130	0x00000000	0.0
131	0x3dd1c6d3	0.10243001
132	0x00000000	0.0
133	0x370b99c8	8.320851e-06
134	0x307aad33	9.11956e-10
135	0x3c5d263a	0.013497883
136	0x3d0dfece	0.03466683
137	0x00000000	0.0
138	0x397d3c5b	0.00024150444
139	0x00000000	0.0
140	0x00000000	0.0
141	0x00000000	0.0
142	0x3c8044ce	0.015657809
143	0x36c45aa4	5.851807e-06
144	0x00000000	0.0
145	0x00000000	0.0
146	0x3ad634d1	0.0016342645
147	0x0395df98	8.8087675e-37
148	0x00000000	0.0
149	0x00000000	0.0
150	0x00000000	0.0
151	0x00000000	0.0
152	0x360a9f4c	2.0656325e-06
153	0x3db5f9be	0.08885525
154	0x00000000	0.0
155	0x3ea6243e	0.32449526
156	0x00000000	0.0
157	0x3adedddf	0.0017003379
158	0x375428c5	1.2645677e-05
159	0x00000000	0.0

exp_avg f4 [5]
0	0x3a976f4a	0.0011553552
1	0xbbaf69cb	-0.0053531877
2	0x3baa476a	0.0051965015
3	0xbacabef9	-0.0015468291
4	0x39ce0800	0.00039297342

exp_avg_sq f4 [5]
0	0x39819157	0.00024713084
1	0x39a2546b	0.00030961944
2	0x3914fcc0	0.00014208537
3	0x39903544	0.00027505506
4	0x3a0332bc	0.00050048134
