master_thesis/auto_docking/neural_network_models/final_trained_model.pt (torch, 835631 bytes, 18 tensors)

weight f4 [256, 7]
000000 86 7b 4c 3e 22 b9 96 be 50 49 8a bd 70 a6 27 3d
       0.19968995 -0.2943812 -0.067522645 0.04093021
000010 ad 35 ba 3e 70 7b fe bd 04 b1 f8 bd f2 e7 83 be
       0.36369076 -0.124258876 -0.12143138 -0.25762898
000020 48 e3 ac 3d 01 06 03 bd e2 5c 11 3d 76 b4 09 3e
       0.08441788 -0.031988148 0.03548897 0.13447747
000030 5e 99 a7 3d f4 c9 a3 3d c8 27 57 3d fb 2d b1 3e
       0.08183549 0.07997504 0.052528173 0.34605393
000040 9a 24 2b 3e 6a ad 0f 3e ec 3a d8 bd 26 5c 8b be
       0.16713181 0.14030996 -0.105581135 -0.2721874
000050 9a 5d 63 3e f5 69 a0 3e 0c 93 f2 bd c4 c7 e0 3d
       0.22203675 0.3133084 -0.11844453 0.10975602
000060 f0 0c 9d bd 14 3b ea bd 9e e4 20 be 86 67 aa be
       -0.07668483 -0.114370495 -0.1571221 -0.33282107
000070 fb 4c 54 be 2c ea 9a be 2b cf 2a 3e c4 ad 7c be
       -0.2073249 -0.30256784 0.16680591 -0.24675661
000080 ae 46 a6 3d 72 89 be 3e ce 4c aa 3e 06 c6 75 3d
       0.0811895 0.37214237 0.33261722 0.060003303
000090 09 10 30 be 9d ab e1 3c e8 19 a0 3e 47 a2 f7 3d
       -0.17193617 0.027547652 0.31269765 0.12091499
0000a0 b8 e4 85 3e fd 86 ba be 70 f7 9b 3c 72 73 c1 be
       0.2615106 -0.36431113 0.019038886 -0.3778339
0000b0 a6 40 c1 be c2 98 6d be 60 40 9c 3d 47 2b 37 be
       -0.37744635 -0.23202804 0.07629466 -0.17887603
0000c0 a0 19 4a bc f2 f2 8c be 8d 0b 82 3e e6 bc a3 be
       -0.012335211 -0.27529103 0.25399438 -0.31980056
0000d0 40 91 a9 3c 0e d8 ba be 53 40 ab be f5 71 89 be
       0.020699143 -0.36492962 -0.33447513 -0.26844755
0000e0 10 2b cd bc a8 e8 26 3d 7f 44 66 be 57 2f 60 be
       -0.025044948 0.040749222 -0.22487067 -0.21893059
0000f0 d4 dd af be 32 cc 57 be 50 d2 51 bd 9a 45 5e 3e
       -0.3434893 -0.21073988 -0.05122596 0.21706238
000100 2d ed bf 3e 60 ce da bd 21 95 2f be b4 ba ab 3d
       0.37485638 -0.10683894 -0.17146732 0.0838522
000110 d5 9a 23 be 67 42 b2 3e 2c 06 09 be 30 9a 4b bd
       -0.15977032 0.34816286 -0.1338126 -0.04970759
000120 cc 85 ab be 8b bd bd 3e 7e 54 1b 3e 2a 4e 91 be
       -0.33500516 0.37058672 0.1516895 -0.28379947
000130 0e aa 3c 3e 00 83 aa be ba 3c c6 be a7 c0 2d be
       0.18424246 -0.3330307 -0.38718206 -0.16968022
000140 fe e6 ae be 46 68 5d bd fe 10 3c 3e b0 c4 85 3e
       -0.34160608 -0.05405452 0.18365857 0.26126623
000150 00 bc 6b 3a 71 78 75 be 94 8f 50 be 24 a4 ed 3d
       0.0008992553 -0.23971726 -0.2036727 0.11603573
000160 b8 e0 bf 3d bf 96 2d be d3 a1 ae 3e cb bd 32 3e
       0.093690336 -0.16952036 0.34107837 0.17455213
000170 f3 83 74 be 61 79 56 3e df c6 08 be f8 62 ac bb
       -0.2387846 0.2094474 -0.13357113 -0.0052608214
000180 bf fc b5 3d fa 5f f9 3d ed 6f d0 bd f8 41 55 be
       0.08886098 0.12176509 -0.10177598 -0.20825946
000190 9e 04 4e 3e 1f 59 2d 3e fc 84 d7 bd cc 39 f7 3d
       0.20118949 0.16928528 -0.10523412 0.12071571
0001a0 ca 7e 61 3e f6 bd 11 3e 80 89 05 3b 4f e7 bd be
       0.22021022 0.1423262 0.0020376146 -0.37090537
0001b0 a7 b6 58 be 59 d7 8e be b3 f7 6c be cd d8 7b be
       -0.21163426 -0.27898672 -0.23141365 -0.24594422
0001c0 8f 21 c7 3c 1f 23 99 3e eb f6 a2 bd 22 89 8d 3e
       0.024307994 0.29909608 -0.07957252 0.27643687
0001d0 c9 bb 43 be 5a 7b 88 3e d4 9b aa 3e e4 26 f5 bd
       -0.19114603 0.2665661 0.33322012 -0.119703084
0001e0 48 0a 1b 3d bc c1 71 be c4 a0 c0 3d 13 1e b0 3e
       0.0378516 -0.2360906 0.094056636 0.34397945
0001f0 9c 87 9d be 43 dc 8d 3e 74 8f fa bd e6 1f 02 be
       -0.30767524 0.2770711 -0.12234393 -0.12707481
000200 52 a5 92 be d6 77 85 be 9d 55 ab 3e 44 7f ef bd
       -0.28641754 -0.2606799 0.33463755 -0.11694196
000210 9e 69 7b 3e e4 a1 e2 3c 12 74 fb 3d d3 ca ad be
       0.24552009 0.027665086 0.12277998 -0.33943805
000220 da e0 4b 3c 2d 7b 8d be 47 33 5f be 38 40 84 be
       0.0124437455 -0.27633038 -0.21796905 -0.25830245
000230 80 30 cb 3a ab 76 6c bd 64 4d 74 3e 41 49 0b be
       0.0015502125 -0.057730358 0.23857647 -0.13602163
000240 61 46 78 be 47 c6 ed bc 5c 7c b3 be d6 26 3c bd
       -0.24245597 -0.02902521 -0.35055816 -0.045935474
000250 bf 31 97 3d 4f ad c0 3d 81 ea cd bc de 14 38 3e
       0.07382535 0.09408056 -0.025136234 0.1797671
000260 88 a2 84 3e 30 bc 3a be 18 2f a2 3e c8 e7 0d be
       0.25905252 -0.1823585 0.31676555 -0.13857949
000270 62 fb b5 3e 9b 25 87 3e 0f da f1 3c 6a d1 76 bb
       0.35543352 0.26395878 0.029522924 -0.0037661442
000280 f9 54 b6 be 8f 24 b5 3e c0 5d e1 bc 1b ea 91 be
       -0.35611704 0.35379454 -0.027510524 -0.2849892
000290 cb cd b9 be e8 11 16 3d fa 15 59 3e c4 f9 a3 be
       -0.3628982 0.03663817 0.2119979 -0.32026494
0002a0 b0 d5 60 be 7e b8 69 3e f2 93 04 be 1f 3c 3e be
       -0.21956515 0.22824284 -0.12947062 -0.18577622
0002b0 b9 5d a2 be 01 27 b5 3e 97 c5 cc 3c af 30 ae 3d
       -0.3171213 0.3538132 0.024996562 0.085053794
0002c0 68 3f 48 3d e1 01 09 3e 00 ef 19 bc ce eb 85 3d
       0.048888594 0.13379623 -0.009395361 0.06539117
0002d0 3c a7 8a 3e 4d 90 58 3e 0e fb 97 be c9 94 04 be
       0.27080715 0.21148796 -0.29683727 -0.12947382
0002e0 80 ba 48 bc 36 7f 83 be 54 23 58 be 7c d1 f9 bd
       -0.012251496 -0.25682992 -0.21107227 -0.12198159
0002f0 49 7e 30 be 00 93 cb bc 20 c2 c7 bc 00 b0 bb 39
       -0.17235674 -0.024850368 -0.024384558 0.0003579855
000300 61 fe 19 be df db b9 3e ac 99 9f bd 3c 33 8d be
       -0.15038444 0.3630056 -0.077929825 -0.2757815
000310 df 5d 89 be 19 e2 58 3d cb 26 3a be 4e 8b ae be
       -0.2682943 0.05295 -0.18178861 -0.34090656
000320 d5 d3 21 bd 44 a5 81 3e ef 87 20 bd 29 89 90 3e
       -0.03950866 0.253214 -0.039192136 0.28229645
000330 2e 2c 86 3e 58 de 9c be 5b 00 15 3e 2e 79 a4 3d
       0.2620558 -0.30638385 0.14550917 0.08030926
000340 3c 29 2a bd ce 83 21 be 6a f4 f2 bd b6 45 0d be
       -0.04154323 -0.15772936 -0.118630245 -0.13796124
000350 ad fb bc 3e c6 91 96 3e 87 44 ca bd 1e e4 8f 3e
       0.36910763 0.2940809 -0.09876352 0.28103727
000360 48 84 8b 3e 2b a6 82 3e 80 c2 a0 3c 26 56 01 be
       0.2724936 0.255174 0.019623995 -0.1263052
000370 e3 9f 9b be 80 ac b1 bc e6 e3 14 3e 4c 8e d4 bd
       -0.3039542 -0.0216887 0.14540061 -0.103787035
000380 fe c8 4a 3e 77 16 b8 bd 20 5e bf 3e 30 43 05 3e
       0.19803235 -0.0898866 0.373765 0.13013911
000390 c3 0f b9 be 22 cc 70 3e a0 6a 87 3e 85 84 84 bc
       -0.36144838 0.2351537 0.26448536 -0.016176471
0003a0 0f 89 b7 be 76 3e 84 3e ae 75 f0 3d 12 dd 93 3e
       -0.35846755 0.25828904 0.117411956 0.288796
0003b0 fb 07 b5 3e c2 2b 83 3d 7b be a6 be 65 f3 4e 3e
       0.3535765 0.064048305 -0.325672 0.20210035
0003c0 63 2c 71 be 82 68 6b 3e 67 3c 28 3e 58 fb 94 3e
       -0.23552088 0.22989085 0.16429292 0.2909801
0003d0 ac 2c a2 be ed be 94 be 8d e0 c6 bc cd 68 8c be
       -0.31674707 -0.29051915 -0.024276996 -0.27423707
0003e0 5a 81 a4 3e 6d 64 a3 be e5 29 95 3c 39 5f b8 3d
       0.32129937 -0.31912556 0.018208453 0.09002537
0003f0 77 b1 e7 bc df 70 8c be 74 a4 b7 be 8b b4 8f 3d
       -0.028282864 -0.27429864 -0.35867655 0.07016858

bias f4 [256]
000000 2c d4 7b be f8 19 c9 bd 3d 83 8d be 34 4c d5 bd
       -0.24592656 -0.09819406 -0.2763919 -0.10414925
000010 7d 63 60 3d a8 a2 7e 3e 00 dc f2 39 6d ff ab be
       0.05478238 0.24866736 0.0004632175 -0.33593312
000020 8f b6 ad 3e eb 5e 54 be 03 e0 b4 be 13 ec 34 be
       0.33928344 -0.20739333 -0.35327157 -0.1766818
000030 85 e9 9b 3e 0a 0c b4 3e bf c7 a1 3e e2 80 1b be
       0.304516 0.35165435 0.31597707 -0.15185884
000040 4d d3 88 be 5f 90 97 3e d8 2a 8c be d0 3d 51 3e
       -0.2672371 0.29602334 -0.27376437 0.20433736
000050 27 bf a0 3e 8e 7e b0 3c b2 ea 4f 3d 41 f7 97 3e
       0.31395838 0.021544721 0.050760932 0.29680827
000060 b3 a6 27 3e d3 34 71 3d d0 c1 2c bd 50 58 98 3d
       0.16372184 0.058888268 -0.04217702 0.07438719
000070 fe 98 32 bd 14 f4 6e 3e 18 9d a2 3e 48 62 9b 3d
       -0.043602936 0.23335296 0.31760478 0.07587105
000080 4e 69 8c 3c a3 3c 32 be c1 ea 4b be f8 b0 f9 3d
       0.017140057 -0.17405944 -0.1991377 0.12191957
000090 c9 94 c3 be 2e 03 9f be 03 b7 ab be bc 52 d5 bd
       -0.38199452 -0.31057113 -0.33538064 -0.10416171
0000a0 7d b6 61 be aa 98 b4 be 2b 59 bc 3e b2 5c 65 3d
       -0.2204227 -0.35272723 0.3678678 0.055996604
0000b0 4f 1d 99 3e 3d 08 97 3e f3 2c c1 be 55 23 8f be
       0.29905173 0.29498473 -0.37729606 -0.27956644
0000c0 a4 29 ea bd da 28 b9 3e 04 78 8e be e7 7c 18 be
       -0.114337236 0.3616398 -0.2782594 -0.14891396
0000d0 1f 25 0f be 5f 93 a9 3e 6b 45 b9 3d 5e 34 3d 3e
       -0.13979004 0.33120248 0.090464436 0.18477008
0000e0 ac 40 e4 3d 8e c7 4d be 77 b5 10 bb 21 c9 81 3e
       0.11145148 -0.20095655 -0.0022080818 0.25348762
0000f0 3a be 8f 3e ef 60 9c be 3e 53 76 3e 65 a6 04 be
       0.2807482 -0.30542704 0.24055192 -0.129541
000100 96 4e d7 3d 71 45 9c be 8d e6 89 3e eb 3e b7 be
       0.10513036 -0.3052173 0.2693371 -0.3579019
000110 3e 2c 51 3e c2 b6 58 3e a3 87 ac be a1 52 b6 3e
       0.20427033 0.21163467 -0.33697233 0.35609916
000120 74 fe ad be ee ea e1 3d 85 8d 42 be 99 5c c1 3e
       -0.33983195 0.110311374 -0.18999298 0.3776596
000130 0a e3 a2 3e 76 a5 58 be 3d 47 6c be f8 ac 94 3e
       0.31813842 -0.21156868 -0.2307405 0.29038215
000140 76 98 9d bc 1a 98 70 3e ad 51 8b 3e 40 de fc 3c
       -0.019237738 0.23495522 0.2721075 0.030867696
000150 a8 0e b5 be 66 28 0e 3e cf d0 9f 3e 4b de 15 be
       -0.35362744 0.13882598 0.31213996 -0.1463558
000160 da c9 80 3e 70 8c 34 be 1c bf 9e be a7 5c 9e 3e
       0.25154 -0.17631698 -0.3100518 0.30930063
000170 f2 e6 ee 3c 7c ad 7b be fa 87 11 3e f2 4f 6b 3e
       0.029162858 -0.24577898 0.14212027 0.22979715
000180 27 01 40 be ff 21 b3 be 9a 8b cf 3d ca 3d 83 be
       -0.1875044 -0.34986874 0.10134049 -0.2563308
000190 bb ba 61 bc 7a c5 35 3e b2 a0 92 3e 06 69 2f 3e
       -0.01377743 0.17751113 0.28638226 0.17129907
0001a0 b8 51 d5 bd fe 08 96 be 8c 26 41 be d8 63 ba be
       -0.10415977 -0.29303735 -0.1886236 -0.364043
0001b0 e7 6b 6e be 60 8c 3c 3d a5 19 8e 3e 08 f6 44 3e
       -0.23283349 0.04603231 0.2775394 0.19234478
0001c0 38 7d 09 be 40 a6 03 3d 86 41 43 3e 00 9c d5 3a
       -0.13426673 0.03214097 0.19067964 0.0016297102
0001d0 d8 9c ba be c0 6a 63 bc 2e 91 03 3e 33 84 fa 3d
       -0.36447787 -0.013880432 0.1284835 0.12232246
0001e0 df 81 85 3e 8f 97 47 3e 1b 86 97 3e d1 92 ee 3d
       0.26075646 0.19491409 0.29594502 0.11649097
0001f0 56 31 23 3e a6 ee 9e be 4c 27 0c 3e 26 c8 35 3e
       0.15936789 -0.3104145 0.13686866 0.17752132
000200 1a b2 ae 3c 50 43 3e be 86 49 19 3e 3c fc 08 3d
       0.02132516 -0.18580365 0.14969453 0.033443674
000210 c7 1c 9b 3e 4d 14 9a be d2 09 a6 be f8 44 95 be
       0.30295393 -0.30093613 -0.32429367 -0.2915418
000220 fc df a1 bd 7e 99 9a 3c ad 84 b7 3e 4e d2 54 3e
       -0.0790405 0.018872019 0.3584341 0.2078335
000230 0d 82 3a be aa cf 07 3d 40 36 b5 3c bb 39 cb bd
       -0.18213673 0.03315703 0.022120595 -0.099231206
000240 f2 fc 2b 3d 9a 15 27 3e 73 e6 ac be 0f 6f 0c be
       0.041989274 0.16316834 -0.3376957 -0.1371424
000250 c9 86 99 3e ba d9 4c 3e 40 18 d2 3c d6 af f2 3d
       0.29985645 0.20004931 0.025646329 0.11849944
000260 41 1f be 3e 0f 84 bf 3e 2d 7a 41 be 14 46 ac be
       0.3713322 0.3740544 -0.18894263 -0.33647215
000270 f5 95 4a 3e 27 eb 99 3e 1e 98 47 3e 24 66 20 be
       0.19783767 0.3006222 0.19491622 -0.15663964
000280 5a 14 4b 3e 0c 36 87 be 00 f5 ca 3b 84 8a 06 3e
       0.19831982 -0.26408422 0.006193757 0.13138777
000290 71 af 90 be 76 e9 8e be 30 03 bd be 4f 34 be 3e
       -0.2825885 -0.27912492 -0.36916494 0.37149283
0002a0 68 62 e5 bb 21 ab b2 be 70 21 11 3d be 62 57 be
       -0.0070002563 -0.34896186 0.03543228 -0.21033761
0002b0 a5 74 da bc 80 c3 87 be 1d 27 bf be bf f1 b0 3e
       -0.026666949 -0.26516342 -0.3733453 0.34559438
0002c0 e7 a2 f8 bd 92 8f 0a 3e c9 96 70 3c 81 c9 89 3e
       -0.12140446 0.1353133 0.0146843875 0.26911548
0002d0 97 36 2f be 79 7b 3f 3e c9 45 a7 3d da 23 88 be
       -0.17110668 0.18699445 0.08167607 -0.26589853
0002e0 99 36 92 3e 5f 6d 22 be 40 39 93 be ae 96 7b 3e
       0.2855728 -0.15862034 -0.28754616 0.24569198
0002f0 00 a6 2d bb 80 a3 aa 3d 73 71 2c 3e 88 34 b8 bd
       -0.0026496649 0.083319664 0.16840152 -0.089943945
000300 08 9c 38 3e 09 df 8c 3e 2e 97 6e 3e 83 a6 bd 3e
       0.18028271 0.27513912 0.23299858 0.370411
000310 79 c6 c0 be 59 c1 0f be 1b 27 04 3e 51 7a bd be
       -0.37651423 -0.140386 0.12905543 -0.37007383
000320 42 62 20 3e 40 b0 42 be 48 d0 af 3e c5 9a b7 3e
       0.15662482 -0.19012547 0.34338593 0.35860267
000330 5e 3d 7f 3e 14 da ff 3d a0 bb d6 bd 8a 49 28 be
       0.24925753 0.12492767 -0.104850054 -0.16434303
000340 6d 56 0f 3c a3 d7 09 be e4 0a 57 be b3 08 9a 3e
       0.008748633 -0.13461165 -0.21000248 0.30084762
000350 55 f9 96 3e cf 4b 97 be 3c cc d4 bd fe da f9 3d
       0.294871 -0.29550025 -0.10390517 0.121999726
000360 e7 7e 98 3e 9a 35 35 3e 85 bc a2 3e 86 45 84 3e
       0.2978432 0.17696229 0.31784454 0.25834292
000370 19 cc 13 be b5 d7 19 3e ec 86 ee 3d d2 22 06 3e
       -0.14433326 0.15023692 0.11646828 0.1309922
000380 5c 74 ce 3d bb fa 4e bd b4 45 ce bd bb d0 56 be
       0.100807875 -0.050532084 -0.100718886 -0.20978062
000390 16 26 52 3e e0 41 69 be c2 09 13 3e be 5d 62 3e
       0.20522341 -0.22779036 0.14359191 0.22106072
0003a0 c8 02 18 bd cd 38 9a 3e a0 a4 42 bd b0 26 ae 3e
       -0.037112027 0.3012146 -0.04752028 0.3401389
0003b0 da 5f 06 3e 64 cd 2d 3e ba a7 bf be f1 2a 8c be
       0.13122502 0.16972882 -0.37432653 -0.27376512
0003c0 51 b1 87 3b b1 67 87 be 28 6f ed 3d 0d 76 b8 3e
       0.004141011 -0.26446298 0.11593467 0.36027566
0003d0 74 57 81 bd 16 65 1f bd 33 a3 3f be 18 f5 d3 bd
       -0.063155085 -0.038914762 -0.187146 -0.10349482
0003e0 f9 79 98 be 80 5d 63 bd 78 ed 7c bd 2d b2 bf 3e
       -0.29780558 -0.05550909 -0.061749905 0.37440625
0003f0 3a 80 dd 3c 86 12 1a 3e 33 70 8c 3e bc a0 08 3d
       0.027038682 0.15046129 0.2742935 0.033356413

weight f4 [256, 256]
000000 b8 be 57 3d 93 98 5e bd 3a cd 71 3d b6 82 19 3d
       0.052672118 -0.054344725 0.05903361 0.03747817
000010 6b 8e 4f 3d c1 21 6b 3d 80 a3 3a ba 18 45 30 bc
       0.05067293 0.057405237 -0.00071197003 -0.010758661
000020 6c 49 c2 3c 8c 42 f3 bc 74 3b c5 3c 82 7e 65 3d
       0.02371665 -0.029694818 0.024076201 0.05602885
000030 98 91 17 bd 4d 23 1a 3c b7 0a 38 3d 88 ad 9d 3c
       -0.037004083 0.00940783 0.044932093 0.019247785
000040 36 49 3d bd ba 81 23 bd c4 12 ef 3c 79 2d 3d bd
       -0.046212398 -0.03991864 0.029183753 -0.046185944
000050 63 15 07 3d df a9 34 bd c3 e9 fa 3c 00 73 b4 b9
       0.03297938 -0.044107314 0.030629044 -0.00034417957
000060 ff 79 14 bc 1c 25 d7 bc c8 7d 45 3d d8 2e 89 3c
       -0.009062289 -0.026262812 0.048215657 0.01674597
000070 61 a5 57 3d 98 80 89 3c 9e 08 2d 3c 3c 14 ad bc
       0.052647952 0.016784951 0.0105611365 -0.021127813
000080 cb b3 64 3c 9f 69 75 bd c6 0a 1a 3d 84 0c 43 3d
       0.013958882 -0.05991518 0.03760793 0.047619358
000090 0d 2b 11 3d 10 29 8f bb a5 41 41 bd fc f5 82 bd
       0.035441447 -0.0043689087 -0.047181744 -0.06394574
0000a0 60 01 5c bc 94 85 16 bd ac 5e 3a bd 64 a1 3a bd
       -0.013428062 -0.036748484 -0.045500442 -0.04556407
0000b0 93 72 8d 3d 82 52 66 3d 9a 2f 19 3d 01 7c c5 3c
       0.06906619 0.05623103 0.037398912 0.024106981
0000c0 22 8c 2b 3d 5e 10 2e 3d 16 8e 23 3d f0 ee e0 bb
       0.041881688 0.042496078 0.039930426 -0.006864421
0000d0 b4 e6 cb 3c 9c d0 f2 3b cd b6 69 3d 46 a6 58 bd
       0.024890281 0.007410122 0.057059098 -0.052892946
0000e0 f0 72 1c bc 58 f3 0f bc c9 3a 17 bd 5a d6 7d 3d
       -0.009548888 -0.008786045 -0.036921296 0.061972
0000f0 ef ef 51 3d b4 9b af 3c e2 7c 54 bd 08 77 30 bc
       0.05125421 0.02143655 -0.05187691 -0.010770567
000100 95 45 bd bc d4 ea dc bc 70 f6 e1 3b 8d c5 a0 3b
       -0.023104468 -0.026967444 0.0068958327 0.0049063624
000110 be 3f 21 bd 9a e7 73 3d c8 59 0f 3d ce ed 48 bd
       -0.03936743 0.059547044 0.03499773 -0.049054913
000120 28 25 80 3c a7 66 d1 bb 00 fa a6 3c fc 43 68 3d
       0.015642717 -0.006390411 0.020382881 0.05670546
000130 be 7a 58 bd 23 74 89 3c ac b7 04 bd fd 34 69 bd
       -0.05285143 0.016779011 -0.032401726 -0.0569353
000140 0a ce 48 3d e4 5d 1d 3d 13 a2 2e bd 94 9a 77 3d
       0.04902462 0.03841962 -0.042635035 0.06045015
000150 c0 48 73 bc d2 0c 5c 3d 4e 13 da bc 6a cb 4c 3d
       -0.014848888 0.053723164 -0.026620533 0.04999868
000160 73 b4 c5 3c 10 91 f4 3c c7 8d 11 bd 50 58 60 3c
       0.024133896 0.029854327 -0.0355356 0.01369293
000170 b9 fe b3 bc 91 af a4 bb 2a 27 03 3d d0 76 79 3c
       -0.021972047 -0.005025812 0.03201977 0.015226081
000180 96 5c 22 bd 90 5b 27 bd 3c e0 6e 3d fe 28 3a 3d
       -0.039639078 -0.040858805 0.058319315 0.04544925
000190 12 07 a2 3c ec 6e f2 bc e4 4b 28 bd 98 b0 57 3c
       0.019778762 -0.029593907 -0.041088 0.013164662
0001a0 70 ad ce 3c 61 09 02 3d b2 c9 7c 3b 44 ff 3f 3d
       0.025229186 0.031747226 0.0038572368 0.0468743
0001b0 9b fb f3 3b f6 4c 3b 3d ac 39 4d 3d 69 d1 0d 3d
       0.007445765 0.045727693 0.05010383 0.034623537
0001c0 62 a4 40 3d 86 4c 52 bc f0 d6 c2 3b 98 89 ee 3c
       0.047031768 -0.012835627 0.0059460327 0.029118344
0001d0 c4 6f 83 3c 68 03 83 3c e8 7a bd 3c cf 04 99 3c
       0.016044505 0.015992835 0.023129895 0.01867905
0001e0 7a ab 0f bd a7 25 35 bd 18 fb 04 bc 27 0b 44 3d
       -0.035075642 -0.04422536 -0.008116506 0.0478622
0001f0 f8 8d 36 3c e7 0b 8d 3c 94 1e d0 bb 40 30 36 3d
       0.011142246 0.01721759 -0.0063513014 0.04447961
000200 aa 92 38 bd 18 f1 4e bd b8 06 1e bd f1 38 7f bd
       -0.045061745 -0.050522894 -0.038580626 -0.062310163
000210 48 bd ae bc 78 62 67 bc 52 d1 fb 3c 09 81 0b bc
       -0.02133049 -0.014122598 0.03073946 -0.008514651
000220 a6 55 ac bb 03 ca f3 3c 94 54 c4 bc 38 94 2c bc
       -0.0052592335 0.029759413 -0.023966111 -0.010533385
000230 c4 7b dc bc 29 f9 0b 3d a4 86 e6 3c b8 32 c0 bc
       -0.026914485 0.034173165 0.028140374 -0.023461685
000240 a7 83 77 bd 20 8b ca 3c 48 20 08 bd 76 be 7d 3d
       -0.060428288 0.024724543 -0.03323391 0.061949216
000250 ee 05 78 3d e0 41 01 bd 1e 57 1c bd 30 bd 6b 3c
       0.06055253 -0.031556964 -0.03816902 0.0143883675
000260 04 3b d8 bc 18 be 32 3d 16 89 66 bd c5 1a 9f 3c
       -0.026395328 0.04363832 -0.05628308 0.019421944
000270 aa c9 23 bd ea fa 13 bd 5c 94 eb bc 30 c8 07 3d
       -0.039987244 -0.036127962 -0.028757267 0.033149898
000280 80 37 85 bc a0 e4 09 3b b2 a3 15 bd 17 01 bf 3c
       -0.016261816 0.0021040812 -0.036533065 0.02331595
000290 0a eb 29 3d 8c 78 56 bd 2b 31 27 3c de 5d 6c 3d
       0.041483916 -0.052361056 0.010204594 0.057706706
0002a0 08 d8 92 bb dc cb 37 3d d2 18 62 3d 18 43 bd 3c
       -0.0044813193 0.04487215 0.05519945 0.023103282
0002b0 dc 15 d2 3c be 91 1e bd d2 a3 7c 3d c9 bc 8d bc
       0.025645189 -0.03871321 0.06167967 -0.017301934
0002c0 00 63 4e 3d 10 84 f8 bc ed 26 9e 3c 8a a7 23 3d
       0.050387383 -0.03033641 0.01930567 0.0399547
0002d0 30 4f 1b 3d 04 cd da bc e3 a7 1a bc 80 85 12 3d
       0.037917316 -0.026709087 -0.009439441 0.035771847
0002e0 d8 55 c5 3c 80 f1 db 3b 32 fc 51 bd 9c 10 52 bc
       0.024088785 0.0067121387 -0.051265903 -0.012821343
0002f0 e0 4b 66 bd 4d cf e7 bc a9 8a 62 3d d4 9a b3 bc
       -0.056224704 -0.02829709 0.055308018 -0.021924414
000300 76 57 c9 bc b6 11 66 bd c0 95 2a bb 16 0f 18 bb
       -0.024577837 -0.056169234 -0.00260292 -0.0023202351
000310 20 a5 c8 3c a0 5e d7 3b 80 89 11 3d e8 a1 fc bc
       0.0244928 0.0065725595 0.03553152 -0.030838922
000320 08 2a 90 bc 40 40 76 bd e7 33 4e bc 44 d9 8b 3c
       -0.017598167 -0.060119867 -0.012585617 0.017071374
000330 48 e8 6f 3d 80 0f 91 bc 14 32 90 3c 3d 29 85 bc
       0.05857113 -0.017707586 0.017602004 -0.016255016
000340 1a 3c b3 bc 00 90 2a 3d 40 b8 32 bb c6 3c 68 3d
       -0.021879245 0.041641235 -0.0027270466 0.056698583
000350 9e db 41 3d 83 33 f9 3b 94 99 26 bd c6 f2 5e bd
       0.047328584 0.0076050176 -0.040673807 -0.054430746
000360 b6 12 4e bd c7 eb 62 3c da dc 74 bd 4e 0c 36 3d
       -0.050310813 0.013850159 -0.059780933 0.04444533
000370 82 a8 5d bd b8 cb 3f bd f8 8d 24 3d 4e d7 6a bd
       -0.05411578 -0.04682514 0.040174454 -0.057334237
000380 ca ce 72 bd 46 b7 a5 bc d8 75 2d 3c f6 48 25 3d
       -0.05927924 -0.020228993 0.010587178 0.040352784
000390 0c 98 ab 3c 20 1b 75 bc e8 9a 27 bd 90 83 62 bd
       0.020946525 -0.01496008 -0.040919214 -0.05530125
0003a0 58 e6 ae bc 3c 78 f9 3c 1c f2 a2 bc 3f 75 5d 3d
       -0.02135007 0.03045284 -0.019890837 0.054066893
0003b0 d0 f9 0e 3d f3 3b ee 3c 99 77 29 3c 1d a8 63 3d
       0.03490621 0.02908132 0.010343456 0.055580247
0003c0 b3 a1 9d bc 9a 10 ab 3c 4c 15 0b 3d e2 9c 34 3d
       -0.019242143 0.02088194 0.033955857 0.044094928
0003d0 60 e7 6c 3c 30 86 12 3c cf 51 0f bd 10 09 17 bd
       0.014459461 0.008943126 -0.034990128 -0.036873877
0003e0 54 33 f8 3c 50 4b 54 bd 2c 18 46 bd 34 e5 13 3d
       0.030297913 -0.051829636 -0.048362896 0.036107257
0003f0 40 ec f8 3c f0 0b 50 bc 48 26 45 3d f4 3a 08 3d
       0.03038609 -0.012698159 0.04813221 0.033259347

bias f4 [256]
000000 02 fb 3f bd e6 f9 1c bc 0a f5 1b 3d 81 be 39 bd
       -0.04687024 -0.009581065 0.038075484 -0.045347694
000010 0c d2 9b bc f2 69 0d 3d e0 b4 ed bc dc 2c 5c 3c
       -0.019021057 0.034524865 -0.029016912 0.01343843
000020 08 0b 25 3c 81 fb 3b 3c 73 93 53 bd 6e 0b 07 3d
       0.010073431 0.011473537 -0.05165429 0.032969885
000030 80 94 3f bd b5 a9 db 3b 94 5f 11 bd 98 38 0d 3c
       -0.04677248 0.0067035803 -0.03549154 0.00861945
000040 00 e8 35 38 52 09 49 bd 64 bd a8 bb 88 22 70 3d
       4.336983e-05 -0.049081154 -0.0051495302 0.05862668
000050 0b a2 89 bc 60 8a c0 3b 4a 02 3b bd be 25 07 3d
       -0.0168009 0.0058758706 -0.04565648 0.032994978
000060 22 4a 05 bd 19 48 30 3d cc d3 51 bd fc 6e 47 bd
       -0.0325414 0.043037508 -0.051227376 -0.048689827
000070 b5 69 af 3c 68 0b d2 ba ac 37 f3 bc bb 55 8c 3c
       0.02141271 -0.0016025128 -0.029689632 0.017130723
000080 80 17 3a ba 34 6e 3e 3d 30 a2 d2 bb 74 65 c4 3c
       -0.00070988387 0.046491817 -0.0064280257 0.023974158
000090 e8 8c d5 3c f0 23 32 bc 24 72 28 bd 42 ab 24 bd
       0.026068166 -0.010872826 -0.041124478 -0.040202387
0000a0 00 87 4e 3d 66 52 01 3d 40 ec ee 3b 78 ed 2f 3d
       0.050421715 0.031572722 0.007291347 0.042951077
0000b0 40 7e 67 3b 18 95 2e 3c ce 9b 14 3d 30 6c 1d 3c
       0.0035323054 0.010655664 0.0362814 0.009608313
0000c0 98 08 da 3c ee 2c 5b bd 0e 6d 71 bd c0 df 74 bd
       0.026615426 -0.053509645 -0.058941893 -0.059783697
0000d0 f3 7d 73 bc d0 bf 59 bd ac 5d 58 bd 60 83 59 3d
       -0.014861572 -0.053161442 -0.052823707 0.053103805
0000e0 60 29 fe bc 97 d5 2c 3c 97 3a 78 3d e8 ce 28 bd
       -0.031025589 0.010548971 0.06060275 -0.041212946
0000f0 80 4b 26 3b a6 7c 34 3d f9 42 0f 3d 72 a9 41 3d
       0.0025374591 0.044064187 0.03497598 0.047280736
000100 9c e0 94 3c 33 72 86 bc 9a 5e 9f bc 94 d3 45 bc
       0.018173508 -0.016411876 -0.01945429 -0.01207437
000110 1f 9d ec bb a6 12 2f 3c 72 dd 77 3d 74 18 cb bc
       -0.0072208787 0.0106855985 0.06051392 -0.024791934
000120 d9 c4 1e bd 78 0f 36 bd e0 96 d9 bc 86 cd 0e bd
       -0.038761947 -0.044448346 -0.0265612 -0.03486397
000130 60 c3 65 bd 7e b2 1b bb 92 3e 24 3d f3 f1 b9 bc
       -0.056094527 -0.0023757513 0.040098734 -0.022698378
000140 04 63 5a bd 36 89 82 bd cc cb 93 bc a6 a9 5f 3c
       -0.053317085 -0.06373827 -0.018041514 0.013651287
000150 4a ac 18 3d e6 90 47 3d fc 42 ba bc 04 98 e0 3c
       0.037273683 0.04872217 -0.022737019 0.027416237
000160 74 d5 19 3d c2 90 54 3d 65 c9 55 bd fa bf 8e bc
       0.03755708 0.051895864 -0.052194018 -0.017425526
000170 f0 90 0a 3c 20 95 a1 3c 70 ac e5 bc 19 c9 1e 3d
       0.008457407 0.019724429 -0.028036326 0.038766
000180 6a 24 04 3d c9 23 c1 bc 68 4a cf bc ac 4f 80 3d
       0.03226129 -0.023576634 -0.025304034 0.06265196
000190 60 2b 9f bb 76 cc ee bc 0e cd a9 3c 9c bd 8a bc
       -0.0048574656 -0.029150229 0.02072766 -0.016936116
0001a0 72 03 60 bd 8a cc 0a 3c 66 4b 7d 3c 4d 30 51 3d
       -0.054690786 0.0084716175 0.015459871 0.051071454
0001b0 f0 d6 e5 bc 52 cf 5f bd a2 35 1b bd b0 5e ae bc
       -0.028056592 -0.054641075 -0.037892945 -0.021285385
0001c0 2c 44 be bc d7 0d 60 bc aa dc 2f bd a6 2d 44 3d
       -0.023225866 -0.013675175 -0.04293505 0.047895096
0001d0 b8 8e f1 3c eb b7 08 3d a8 87 49 bd 1e 36 0a bc
       0.029486999 0.033378523 -0.049201638 -0.008435754
0001e0 7a c0 6e 3d 06 5f 45 bd 54 e7 69 3d b0 ac c9 3c
       0.05828903 -0.048186325 0.057105377 0.024618477
0001f0 cc 50 32 3d 6a 26 3e 3d 29 3f 1b 3b aa 68 19 bd
       0.043534085 0.046423353 0.002368877 -0.03745333
000200 56 44 2e bd ff 92 2e 3d af 75 29 3d d4 5f a3 bc
       -0.04254564 0.042620655 0.041371997 -0.019943155
000210 a8 d5 f3 3c 20 15 bb bc 54 f3 19 bd 59 33 15 3d
       0.029764965 -0.022837222 -0.03758557 0.036425922
000220 a7 f0 c3 3c 10 35 4a bd 90 31 34 3c 38 0b bf 3b
       0.023918463 -0.04936701 0.010998145 0.005830195
000230 de 99 76 3d 88 13 5e 3c 50 c5 5b 3c 3e 2f 73 bd
       0.060205333 0.013554461 0.013413742 -0.059371226
000240 6f 75 44 bc 3c ee de 3c 8d 97 52 3d 1f 81 31 bd
       -0.011990889 0.027213208 0.05141406 -0.04333603
000250 70 7e 09 bd f9 44 fc 3c d8 7c 9e 3c 7a e8 44 bd
       -0.033567846 0.030794607 0.01934664 -0.04807327
000260 58 27 02 3c 01 af b0 3c 80 81 d4 bc a0 a1 a9 bc
       0.007943951 0.021567823 -0.025940657 -0.020706952
000270 4c 04 c8 3c 26 ae 7d bd 09 21 54 bd f0 2f 07 bd
       0.024416111 -0.06193366 -0.051789317 -0.0330047
000280 c8 b1 a6 3c 9c 78 5e bd eb d8 14 bd 82 de 0d 3d
       0.020348445 -0.05431424 -0.03633968 0.034636028
000290 f0 8e 24 bd 6a 2f 62 3d 40 08 e7 bc 94 2e 4f 3d
       -0.04017538 0.055221 -0.028202176 0.05058153
0002a0 32 80 52 bd 7a 40 46 3d d4 47 4e bd 6b ec 17 bd
       -0.051391788 0.048401333 -0.05036147 -0.0370907
0002b0 8a 4d b9 3c 24 50 c0 3c 38 97 83 3c cc 16 6b 3d
       0.022619981 0.023475714 0.016063318 0.057394788
0002c0 3f 93 30 3a f8 ee 23 bd 4b d0 24 bd cc b1 e6 3c
       0.00067358086 -0.04002282 -0.040237706 0.028160952
0002d0 cc 39 75 3d b1 b3 14 3c 50 1d 85 3c d0 50 59 bd
       0.059869573 0.009076045 0.016249329 -0.053055584
0002e0 2f fe 83 bd 79 ea 47 3d db ba 40 3d c0 24 f2 ba
       -0.06444966 0.048807595 0.0470532 -0.0018474087
0002f0 e9 7c 73 3b 4c bf db 3c b8 94 51 bd 35 f1 29 3d
       0.003715331 0.026824616 -0.05116722 0.0414898
000300 57 2f 81 3c 4e e2 13 3d cd cc 21 3d 10 c1 ad 3b
       0.015769644 0.036104493 0.039501954 0.005302556
000310 f0 bd 12 3d de 86 77 bd b0 39 8d 3b 5b 77 3a bd
       0.03582567 -0.060431354 0.0043098554 -0.045523982
000320 76 9e 2c bd 98 7c 55 bc e0 0a e1 3c b6 44 4c 3d
       -0.042143308 -0.013030194 0.027471006 0.049870215
000330 2c c3 22 3c e0 45 14 3d fb 87 60 3d 2f 48 74 3c
       0.009934228 0.03619945 0.05481718 0.014909788
000340 fa 4a ca 3c d0 2d 4d 3c 76 5d 60 3d c0 55 7c bd
       0.024693955 0.01252313 0.05477663 -0.061605215
000350 00 68 05 bd 7c b9 b6 bc 40 6c 2f 3c e9 22 0a bd
       -0.032569885 -0.022305243 0.010706961 -0.0337247
000360 b1 ae 51 bd b0 2f 2f 3d a0 7f 71 3c ab 41 09 3d
       -0.05119199 0.042770088 0.014739901 0.03350989
000370 b0 4f f8 3c 0a 3b cb 3b 00 da 50 3d c6 2f 57 bd
       0.030311435 0.0062021064 0.05098915 -0.052535795
000380 82 f6 0f bd bf 4b cc bc 80 e1 95 3c 75 60 af 3b
       -0.035147198 -0.024938462 0.018296003 0.0053520747
000390 69 5a 1a bd c0 1a e1 bc 88 c1 79 bd e8 57 c4 3c
       -0.037683878 -0.027478576 -0.06097558 0.023967698
0003a0 e0 41 4d 3b c0 39 4e 3d c0 9b 38 3b cb c0 5d bd
       0.0031319782 0.050348043 0.0028169006 -0.05413894
0003b0 d8 e7 eb bc 30 cc 2e 3c 90 0c 55 bc 3c 84 91 3c
       -0.028797075 0.010668799 -0.013003483 0.01776325
0003c0 76 3b 25 bb 8c 84 22 bd 2f e0 13 bd ef b6 01 bb
       -0.0025212443 -0.039677188 -0.03610247 -0.0019792875
0003d0 9e be d9 3c 0f a2 c3 3c a4 25 47 3d c2 df 14 3d
       0.026580151 0.023880986 0.04861988 0.036346205
0003e0 64 cf bf 3c 02 d7 22 3d 50 b2 eb 3c 4a e4 4f 3d
       0.023414321 0.03975583 0.02877155 0.050754823
0003f0 d3 70 f0 3c 9e 68 34 3d 53 63 39 3d 74 96 30 bd
       0.029350674 0.044045083 0.04526074 -0.043112233

weight f4 [5, 256]
000000 5a a3 8f bb d8 99 10 3d 08 1a 17 bd e5 1c f7 3b
       -0.0043834867 0.035302967 -0.03689006 0.0075412863
000010 84 70 7d bd 0a 6c 01 3d 78 f9 3e 3c 97 d8 c7 3b
       -0.06187488 0.031597175 0.011656158 0.0060988176
000020 29 5b 23 bd 85 f8 45 bc 31 40 ac bc dc 4e f4 3c
       -0.03988186 -0.012083177 -0.021026703 0.02982276
000030 82 52 58 3d dd db 04 3d 72 dd 6c bd 2c 85 e2 bc
       0.05281306 0.03243624 -0.057828374 -0.027651392
000040 fc 21 4c 3d 00 d1 1a 3d 2a 30 20 3d eb 41 37 bd
       0.049837098 0.037796974 0.039108433 -0.0447406
000050 ad a5 97 bc 46 c6 58 bd d8 8b 84 3d bc e5 6f 3d
       -0.018511618 -0.052923463 0.064719856 0.0585687
000060 5a a8 4e bd 35 ca 02 3c 16 a8 89 3d 76 44 54 bd
       -0.05045352 0.00798278 0.06721513 -0.051823102
000070 f6 e1 b9 bb 64 b1 34 bd 40 ab b2 bc 4b 9c 53 3d
       -0.0056726886 -0.044114485 -0.021810174 0.051662724
000080 48 a6 05 3c 80 67 b3 3b dc 37 e7 bc 28 59 48 bc
       0.00815732 0.0054749846 -0.028224878 -0.012228288
000090 d4 a0 a9 3c 78 0d a6 bc bc e3 40 bd 80 4c bb 3b
       0.020706572 -0.020270094 -0.047092184 0.0057159066
0000a0 fb 8f b9 bc e8 f2 66 bd 90 13 e5 bc ad dc ff b9
       -0.022651663 -0.056383997 -0.02796343 -0.00048801806
0000b0 32 c4 43 bd 36 c4 32 3d a6 a2 2e 3d b0 56 a5 bb
       -0.04779453 0.043644153 0.042635582 -0.0050457343
0000c0 ae ab 0b bd ea 31 05 3d 08 2d 0e 3d ea df 1b bd
       -0.034099273 0.032518305 0.034710914 -0.038055338
0000d0 67 38 02 3c 98 dc 9e 3c 30 69 b0 3c fc c8 16 3d
       0.007948018 0.019392297 0.021534532 0.036812767
0000e0 b0 af f3 bb 31 dd 92 bc 4b a1 29 bc 04 5a 09 3d
       -0.007436715 -0.017927738 -0.010353397 0.03353311
0000f0 7e ec 63 3d 20 b9 3c bc cd 98 64 bd ec 71 cd bc
       0.05564546 -0.011518747 -0.055809785 -0.025078736
000100 ac 90 dc 3c 7a 64 11 3d c1 4b 7f 3d 5e d7 38 bc
       0.026924454 0.035496213 0.062328104 -0.011281816
000110 d6 45 8b bc a4 8d d3 bb ee 7b bb bb 40 1b db 3a
       -0.017001074 -0.006456094 -0.0057215607 0.0016716495
000120 af 5e 4e bd d0 ac 6e 3d 28 b4 04 bd f8 a5 33 3d
       -0.050383266 0.058270276 -0.032398373 0.043859452
000130 14 58 48 3d 86 31 ad bc 78 85 cb 3b 1a 06 6f 3d
       0.048912123 -0.021141779 0.006210979 0.05835543
000140 2e dd 2a 3d 94 5d be 3c a0 17 5f bb 13 02 d1 bc
       0.04171484 0.02323798 -0.0034041181 -0.025513684
000150 76 d0 64 bd 48 d0 df 3c 2c e2 69 3d f5 2f 88 3c
       -0.055862866 0.027320996 0.05710046 0.01662443
000160 d8 37 a5 3c 52 61 83 3c 90 90 5f bd be f8 52 3d
       0.02016823 0.016037617 -0.054581225 0.05150675
000170 08 7d 57 bd 70 37 5a bc 13 af 0a 3d 53 8d e5 bc
       -0.052609473 -0.013318881 0.03385837 -0.02802149
000180 04 30 e9 bc 45 c8 36 3b 60 a1 54 bd 89 3b 7a 3d
       -0.028465278 0.0027890366 -0.05191171 0.061091933
000190 d0 46 c5 3b b6 52 ce bc 16 d1 fe 3c 54 62 fa 3c
       0.0060204044 -0.025185924 0.03110556 0.030564465
0001a0 a0 d0 42 3c dc b7 8f 3c f9 91 2f 3d 7a f1 07 3d
       0.01189056 0.017543726 0.04286382 0.033189274
0001b0 88 77 c5 bc 90 61 96 3c 88 73 5b 3c 70 4b 7a 3d
       -0.024104849 0.018357068 0.013394244 0.0611071
0001c0 24 72 ed 3c 46 5f d0 3c 98 64 55 3d 00 34 2b 3d
       0.02898509 0.025436055 0.052097887 0.041797638
0001d0 93 a8 b0 bc ba cf 14 bd 58 d1 cc 3c 12 d0 3c bd
       -0.021564757 -0.036330916 0.025002167 -0.04609687
0001e0 f2 fc 75 3d 54 47 44 3d 4a ca 44 bd 86 b0 69 3d
       0.06005568 0.047919586 -0.04804448 0.05705311
0001f0 1f 67 3a 3d 30 e6 aa bc b9 e4 5d 3c 4c bd 13 3d
       0.0455085 -0.020861715 0.013543301 0.0360692
000200 70 bb 0a bc 17 e1 61 3d 4b d5 44 3d cc 6f 0c 3d
       -0.00846754 0.055146303 0.048054975 0.034286305
000210 44 77 50 3d 40 84 70 3c 68 f4 9c bc f4 d6 47 bd
       0.05089499 0.014679968 -0.01915951 -0.04878898
000220 21 62 4e 3d b8 97 0f 3c f0 41 58 3c 4e 28 81 bc
       0.05038655 0.0087642 0.0131993145 -0.01576629
000230 d4 a9 26 bd b0 a0 b1 bb 44 d5 7f bd ce 84 0b bd
       -0.040689304 -0.005420767 -0.062459245 -0.0340622
000240 4a f3 81 3d a8 37 47 bd c9 98 b9 bc b9 61 b4 bc
       0.06345232 -0.048637062 -0.022655861 -0.022019254
000250 d0 c0 bd bc 4e 85 7f 3c 3c 93 6d 3d a4 12 48 bd
       -0.02316323 0.015595747 0.05800174 -0.048845902
000260 18 c9 3c 3c 50 c5 32 3d 22 5d 49 3d f2 65 26 3d
       0.011522554 0.043645203 0.049161084 0.040624566
000270 a7 ff 8b 3d 57 9b a8 bc c8 50 27 bd d6 2c 7d bd
       0.06835871 -0.020581884 -0.040848523 -0.061810337
000280 c4 42 e1 bc fe be 5b 3d 67 c3 01 3d d4 f3 5f bd
       -0.027497657 0.05364894 0.03168049 -0.054675892
000290 b4 d7 c1 bc a0 a2 ec 3c 48 50 63 3c 38 05 8b 3c
       -0.023662426 0.02888614 0.013874121 0.016970262
0002a0 4c fc d5 3c 0c 1d af bc f6 51 36 bd fd b4 16 bd
       0.026121281 -0.021376155 -0.044511758 -0.036793698
0002b0 a5 93 6f 3d 1e 4f 1a bd b4 39 7e bd c0 f2 46 bc
       0.058490414 -0.03767311 -0.06206675 -0.012142837
0002c0 7c dd 1b bd 64 f3 4e 3d ae 0c 2f 3d b6 f2 7e 3d
       -0.03805302 0.050525084 0.0427367 0.062243186
0002d0 06 2f 70 3d 51 75 ad 3c 6c 48 bd 3c 60 cf 13 3b
       0.058638595 0.021174105 0.023105823 0.0022554025
0002e0 7a 03 47 bc 39 75 15 3a a1 98 25 bd 46 63 75 bd
       -0.012146825 0.00057013665 -0.04042876 -0.059909128
0002f0 ab 72 22 3d 3c fa ac 3c d3 18 49 bc a2 3c de 3c
       0.039660137 0.021115415 -0.012273985 0.027128521
000300 f9 c0 b0 3b 1c e4 5c 3d 94 4b 19 3d 14 79 a2 3c
       0.005394098 0.05392848 0.037425593 0.019833125
000310 02 fc 01 3d 14 de b4 3c 40 dd 9e 3a af 44 f6 bc
       0.031734474 0.022078551 0.0012120381 -0.030062048
000320 aa 8d e8 3c 40 d9 2e 3d c0 4f 0e bb 89 63 41 bc
       0.028387863 0.042687654 -0.0021715015 -0.011803516
000330 be f8 10 bc 6c 3e ac bc ce a1 21 bd ff 82 2f bd
       -0.008848367 -0.021025859 -0.03946095 -0.042849537
000340 94 d7 41 3c 14 7f 27 bd b0 f8 0b bc 9c df b4 3c
       0.011831183 -0.040892676 -0.008543178 0.022079282
000350 f8 8e 50 bd 82 08 53 bd ba 1b 68 3d 65 e4 92 bc
       -0.050917596 -0.051521786 0.056667067 -0.017931173
000360 2e 17 ec bc 53 a6 50 39 d8 6a 28 3d c5 97 8e bc
       -0.028819647 0.00019898386 0.04111752 -0.017406354
000370 30 3d 4d 3c 96 4f 6e 3d 48 8e 2b 3d 10 2a 1e 3c
       0.012526795 0.058181368 0.041883737 0.009653583
000380 70 b1 ff 3b 64 6e fa bc b8 84 b0 3c 68 0e 45 3d
       0.0078031346 -0.030570216 0.02154766 0.048109442
000390 49 fc ce 3b e0 82 48 3c 30 0a b6 3b b0 73 04 3d
       0.006316696 0.012238234 0.0055554137 0.03233689
0003a0 a0 44 03 3b 3d 54 0e 3d 52 c9 fe 3c 7c 4d 4c bd
       0.0020029917 0.034748305 0.031101856 -0.049878582
0003b0 da 78 7c bd 0e fd 5d bd 28 18 a0 3c ec 2c 34 bd
       -0.06163869 -0.05419641 0.019542769 -0.043988153
0003c0 14 9d 3f bd a0 8f 66 bd 96 c9 9c 3c 21 79 18 3d
       -0.04678066 -0.056289315 0.019139092 0.037224893
0003d0 cf 86 a9 3c 80 b7 36 3d d4 b4 7a 3d 9f 00 f5 3c
       0.020694165 0.044608593 0.061207607 0.029907523
0003e0 f8 70 ad bc ac 71 7f bd c4 93 5d 3d 66 92 13 bd
       -0.021172032 -0.062364265 0.054096 -0.03602829
0003f0 a1 d0 4f 3d 0a e3 a2 3c 92 17 72 3b 25 e7 60 3d
       0.050736073 0.019883651 0.0036940319 0.054907937

bias f4 [5]
000000 e9 39 64 bd 8c 20 d4 3c c3 f0 07 3d 3b 16 25 3d
       -0.05571929 0.025894426 0.033188593 0.040304404
000010 12 6d 91 3c
       0.017752204

exp_avg f4 [256, 7]
000000 00 00 00 00 00 00 00 00 00 00 00 00 00 00 00 00
       0.0 0.0 0.0 0.0
000010 00 00 00 00 00 00 00 00 00 00 00 00 8a 15 96 bb
       0.0 0.0 0.0 -0.0045802044
000020 c1 1f c7 3b 59 aa c1 3a 4e cc 94 3c f1 0e a1 bc
       0.0060767834 0.0014775499 0.018163826 -0.019660445
000030 c0 38 db 3c 67 d3 6c 3c 00 00 00 00 00 00 00 00
       0.026760459 0.014454699 0.0 0.0
000040 00 00 00 00 00 00 00 00 00 00 00 00 00 00 00 00
       0.0 0.0 0.0 0.0
000050 00 00 00 00 00 00 00 00 00 00 00 00 00 00 00 00
       0.0 0.0 0.0 0.0
000060 00 00 00 00 00 00 00 00 00 00 00 00 00 00 00 00
       0.0 0.0 0.0 0.0
000070 a6 e1 f2 3a 68 e7 8c bb 97 3c 99 ba 74 51 96 bd
       0.0018530383 -0.0043000467 -0.0011691031 -0.07339755
000080 62 54 9b 3d 54 28 d8 bd 14 a3 10 3c 3a 82 be bb
       0.07584454 -0.10554567 0.008827943 -0.005813864
000090 f0 d0 cb 3b 30 60 25 3a b0 2b 5a bc 70 84 53 3c
       0.0062199757 0.00063085835 -0.01331608 0.0129099935
0000a0 00 d4 97 bc 86 0c a3 3c 00 00 00 00 00 00 00 00
       -0.018533707 0.019903433 0.0 0.0
0000b0 00 00 00 00 00 00 00 00 00 00 00 00 00 00 00 00
       0.0 0.0 0.0 0.0
0000c0 00 00 00 00 00 00 00 00 00 00 00 00 00 00 00 00
       0.0 0.0 0.0 0.0
0000d0 00 00 00 00 00 00 00 00 00 00 00 00 00 00 00 00
       0.0 0.0 0.0 0.0
0000e0 00 00 00 00 00 00 00 00 00 00 00 00 00 00 00 00
       0.0 0.0 0.0 0.0
0000f0 00 00 00 00 00 00 00 00 00 00 00 00 00 00 00 00
       0.0 0.0 0.0 0.0
000100 00 00 00 00 00 00 00 00 00 00 00 00 00 00 00 00
       0.0 0.0 0.0 0.0
000110 00 00 00 00 00 00 00 00 00 00 00 00 00 00 00 00
       0.0 0.0 0.0 0.0
000120 00 00 00 00 00 00 00 00 00 00 00 00 00 00 00 00
       0.0 0.0 0.0 0.0
000130 00 00 00 00 8c 6d 36 bb 9d f4 92 3b 4f 99 9c 3a
       0.0 -0.002783629 0.0044847266 0.0011947545
000140 22 14 1b 3d dd 0b 22 bd a0 4b 60 3d 07 f9 79 3b
       0.037860997 -0.039562095 0.05475962 0.0038142817
000150 00 00 00 00 00 00 00 00 00 00 00 00 00 00 00 00
       0.0 0.0 0.0 0.0
000160 00 00 00 00 00 00 00 00 00 00 00 00 f4 c9 b2 35
       0.0 0.0 0.0 1.332081e-06
000170 2e 44 0c 37 24 3e 1f 37 76 ee 95 3a b1 33 97 ba
       8.360525e-06 9.491607e-06 0.0011438865 -0.0011535791
000180 4a f0 d4 3a ad ae e1 b8 9a b9 8d 3b 45 cc e6 bb
       0.0016245928 -0.00010761372 0.004325104 -0.007043394
000190 b7 d2 e1 ba 58 d3 85 bd 81 64 8b 3d bd 3c c1 bd
       -0.0017228936 -0.06534451 0.06806279 -0.09435413
0001a0 2e a0 1d bb 00 00 00 00 00 00 00 00 00 00 00 00
       -0.0024051773 0.0 0.0 0.0
0001b0 00 00 00 00 00 00 00 00 00 00 00 00 00 00 00 00
       0.0 0.0 0.0 0.0
0001c0 1b c6 34 bb 05 b7 5b 3b 5e 40 9d 3a 4c a4 8b ba
       -0.00275839 0.0033525836 0.0011997332 -0.0010653823
0001d0 00 0b f7 39 20 7b 8d ba f7 51 79 3c 00 00 00 00
       0.00047119707 -0.001079414 0.015217296 0.0
0001e0 00 00 00 00 00 00 00 00 00 00 00 00 00 00 00 00
       0.0 0.0 0.0 0.0
0001f0 00 00 00 00 00 00 00 00 00 00 00 00 00 00 00 00
       0.0 0.0 0.0 0.0
000200 00 00 00 00 00 00 00 00 00 00 00 00 00 00 00 00
       0.0 0.0 0.0 0.0
000210 00 00 00 00 4d 4d 01 ba 38 c6 bd b9 e8 cd c9 b9
       0.0 -0.0004932478 -0.00036196574 -0.0003849112
000220 ae 14 c1 bc 30 16 c8 3c 9a 06 0b bd 19 57 20 3b
       -0.023569431 0.024424642 -0.033941843 0.0024465977
000230 69 5b 91 ba 1e 33 f6 3a b9 0d 56 3a f8 85 6f 3c
       -0.0011089864 0.0018783545 0.0008165497 0.014619343
000240 e1 20 7c bc e0 df ad 3c 00 0b b4 3b 66 32 f5 39
       -0.015388698 0.021224916 0.0054944754 0.0004676759
000250 e5 a1 d9 b9 a8 1c a3 b7 3e 1e f6 3b 62 d7 f7 bb
       -0.00041510086 -1.9444458e-05 0.0075109294 -0.0075635174
000260 1a a2 2e 3c 38 95 5b bb e4 f1 aa b9 80 27 df 38
       0.010658765 -0.003350569 -0.0003260515 0.00010640826
000270 80 64 3a 37 eb bf 1d bc 34 59 21 3c 55 a5 61 bc
       1.1109863e-05 -0.009628276 0.009847928 -0.013772328
000280 d0 d0 5f 3b 00 00 00 00 00 00 00 00 00 00 00 00
       0.0034151562 0.0 0.0 0.0
000290 00 00 00 00 00 00 00 00 00 00 00 00 00 00 00 00
       0.0 0.0 0.0 0.0
0002a0 3e fe a8 3a 9a e3 53 bb 77 70 35 ba e4 a3 76 bd
       0.0012893153 -0.0032331706 -0.00069213606 -0.060214892
0002b0 2c 9a 7e 3d b7 3d b1 bd 44 20 1f 3c 92 96 8c bb
       0.06215875 -0.08654349 0.009712283 -0.0042904103
0002c0 9c 1c d1 3b b6 83 b5 3a 6e 4f 3e 3d 2a e0 46 bd
       0.0063815843 0.0013848457 0.04646247 -0.048553623
0002d0 31 a2 89 3d 08 5d a4 3b 00 00 00 00 00 00 00 00
       0.06720389 0.005015973 0.0 0.0
0002e0 00 00 00 00 00 00 00 00 00 00 00 00 00 00 00 00
       0.0 0.0 0.0 0.0
0002f0 00 00 00 00 00 00 00 00 00 00 00 00 00 00 00 00
       0.0 0.0 0.0 0.0
000300 00 00 00 00 00 00 00 00 00 00 00 00 00 00 00 00
       0.0 0.0 0.0 0.0
000310 b7 54 eb bb 2b 5c 1d 3c 74 b0 ae 3a a8 41 4b 3d
       -0.0071817297 0.009604494 0.0013327734 0.04962316
000320 20 2e 55 bd ca 47 93 3d d2 72 10 3c ba b2 b1 ba
       -0.05204594 0.07191427 0.008816438 -0.0013557293
000330 18 45 55 3a c4 2c 81 b9 c0 2b 36 bc c0 0d 3f 3c
       0.0008135601 -0.0002463815 -0.011118829 0.011660993
000340 de f9 83 bc be 62 ac 3a 90 32 0c 3b bc 18 3f bb
       -0.016110357 0.0013151986 0.0021392442 -0.002915903
000350 ff 53 3d ba e4 4b 5b bc 64 05 68 3c 1a 9f 9f bc
       -0.0007222294 -0.013384793 0.0141614415 -0.019485045
000360 95 b0 b7 bb 00 00 00 00 00 00 00 00 00 00 00 00
       -0.005605767 0.0 0.0 0.0
000370 00 00 00 00 00 00 00 00 00 00 00 00 00 00 00 00
       0.0 0.0 0.0 0.0
000380 7e b1 c0 ba fc a3 e5 3a 80 0c e8 38 70 0a cd 3b
       -0.0014701334 0.0017520185 0.000110649504 0.0062573478
000390 20 47 d6 bb 60 4f 14 3c 66 9e d9 3a 2e c3 f3 3a
       -0.0065392405 0.009052128 0.0016602993 0.0018597597
0003a0 6a 3e 51 bb 68 90 46 ba 2b 7e 12 bd e9 f3 17 3d
       -0.003192807 -0.0007574619 -0.035764854 0.037097845
0003b0 f6 12 53 bd df 89 47 b9 7e d7 7b 3b 38 73 c7 bb
       -0.051531754 -0.0001902948 0.0038428004 -0.006086733
0003c0 fb 1c ec ba 5f c9 46 bd 4c fa 4f 3d 34 d9 8f bd
       -0.0018014008 -0.048531886 0.05077581 -0.0702385
0003d0 d9 eb de bb 3e 57 0a bb 1e 24 10 3b 67 9b 0e 3a
       -0.0068030176 -0.002110913 0.0021994184 0.0005440027
0003e0 ca 81 2e bc 4e 0e 2d 3c 68 b5 75 bc 67 1d 38 3c
       -0.010651061 0.010562493 -0.014996864 0.011237479
0003f0 a8 18 21 ba d8 e8 a5 3a 24 0e 51 3a b0 ff e3 3b
       -0.00061453367 0.0012657894 0.00079748244 0.0069579706

exp_avg_sq f4 [256, 7]
000000 00 00 00 00 00 00 00 00 00 00 00 00 00 00 00 00
       0.0 0.0 0.0 0.0
000010 00 00 00 00 00 00 00 00 00 00 00 00 c1 09 6b 37
       0.0 0.0 0.0 1.40093625e-05
000020 38 02 d1 38 56 21 49 37 a0 eb 3a 3d e8 a4 47 3d
       9.96631e-05 1.1988295e-05 0.045634866 0.04874125
000030 5e 49 c1 3d e0 73 d9 39 00 00 00 00 00 00 00 00
       0.09437822 0.000414758 0.0 0.0
000040 00 00 00 00 00 00 00 00 00 00 00 00 00 00 00 00
       0.0 0.0 0.0 0.0
000050 00 00 00 00 00 00 00 00 00 00 00 00 00 00 00 00
       0.0 0.0 0.0 0.0
000060 00 00 00 00 00 00 00 00 00 00 00 00 00 00 00 00
       0.0 0.0 0.0 0.0
000070 91 97 24 37 c9 d1 bf 38 f2 cc 61 37 9a 30 67 3d
       9.810451e-06 9.146665e-05 1.3458763e-05 0.056442834
000080 c7 0b 76 3d d1 9f ee 3d 43 76 0d 3a c8 05 73 38
       0.060069826 0.11651576 0.00053963455 5.79411e-05
000090 84 0f d7 39 55 8b 5f 38 9b c9 54 3e 0a 9f 62 3e
       0.00041019556 5.3297106e-05 0.20780031 0.22130981
0000a0 ce b5 db 3e 0f 7c f8 3a 00 00 00 00 00 00 00 00
       0.42912143 0.0018957871 0.0 0.0
0000b0 00 00 00 00 00 00 00 00 00 00 00 00 00 00 00 00
       0.0 0.0 0.0 0.0
0000c0 00 00 00 00 00 00 00 00 00 00 00 00 00 00 00 00
       0.0 0.0 0.0 0.0
0000d0 00 00 00 00 00 00 00 00 00 00 00 00 00 00 00 00
       0.0 0.0 0.0 0.0
0000e0 00 00 00 00 00 00 00 00 00 00 00 00 00 00 00 00
       0.0 0.0 0.0 0.0
0000f0 00 00 00 00 00 00 00 00 00 00 00 00 00 00 00 00
       0.0 0.0 0.0 0.0
000100 00 00 00 00 00 00 00 00 00 00 00 00 00 00 00 00
       0.0 0.0 0.0 0.0
000110 00 00 00 00 00 00 00 00 00 00 00 00 00 00 00 00
       0.0 0.0 0.0 0.0
000120 00 00 00 00 00 00 00 00 00 00 00 00 00 00 00 00
       0.0 0.0 0.0 0.0
000130 00 00 00 00 da cd 10 36 a7 75 bf 36 df a5 d8 34
       0.0 2.1577493e-06 5.70594e-06 4.0353822e-07
000140 c3 27 dd 39 da 6c f1 39 52 4a 67 3a 95 62 92 36
       0.0004218203 0.00046048203 0.0008823025 4.3626155e-06
000150 00 00 00 00 00 00 00 00 00 00 00 00 00 00 00 00
       0.0 0.0 0.0 0.0
000160 00 00 00 00 00 00 00 00 00 00 00 00 15 4b 70 32
       0.0 0.0 0.0 1.398691e-08
000170 90 20 d3 36 f0 e3 c3 35 00 bc e6 3b 0a 30 f4 3b
       6.292081e-06 1.4594971e-06 0.0070414543 0.0074520158
000180 00 78 6d 3c 7c 00 93 38 2c 3a 4f 37 06 21 40 39
       0.014493942 7.0095964e-05 1.2351706e-05 0.00018322849
000190 c0 5b f2 37 97 19 07 3e 61 c1 0f 3e 7f 6e 8b 3e
       2.8891372e-05 0.13193356 0.14038612 0.2723274
0001a0 cc f1 a7 3a 00 00 00 00 00 00 00 00 00 00 00 00
       0.001281315 0.0 0.0 0.0
0001b0 00 00 00 00 00 00 00 00 00 00 00 00 00 00 00 00
       0.0 0.0 0.0 0.0
0001c0 ee 21 bd 37 69 e0 7d 39 06 99 13 38 b1 26 20 3e
       2.2546355e-05 0.0002421156 3.5190045e-05 0.1563976
0001d0 be 76 2a 3e de 4f a5 3e b0 47 c4 3a 00 00 00 00
       0.16646859 0.32287496 0.0014974978 0.0
0001e0 00 00 00 00 00 00 00 00 00 00 00 00 00 00 00 00
       0.0 0.0 0.0 0.0
0001f0 00 00 00 00 00 00 00 00 00 00 00 00 00 00 00 00
       0.0 0.0 0.0 0.0
000200 00 00 00 00 00 00 00 00 00 00 00 00 00 00 00 00
       0.0 0.0 0.0 0.0
000210 00 00 00 00 b7 ea bd 35 93 64 2c 38 d0 22 dd 36
       0.0 1.4149908e-06 4.1101663e-05 6.590366e-06
000220 c5 f0 08 3d be 7c 11 3d db 37 8d 3d 2c f0 ac 39
       0.03343274 0.035519354 0.06895419 0.00032985338
000230 51 c0 1d 37 f3 1c fe 38 20 e7 9a 37 2a e2 b4 3d
       9.402706e-06 0.00012117056 1.8465857e-05 0.088322
000240 ab 26 c0 3d c6 85 3a 3e 29 75 5f 3a aa 81 e4 35
       0.09382375 0.18215093 0.0008524233 1.7025061e-06
000250 1c 92 eb 37 00 3f 8c 36 9f fe a3 3c 96 84 ae 3c
       2.808222e-05 4.1796593e-06 0.020018874 0.021303456
000260 a6 42 29 3d 3a 55 4a 39 26 54 85 36 19 11 bd 38
       0.041323327 0.0001929597 3.973505e-06 9.015407e-05
000270 09 af 75 37 eb 89 9a 3d 9d 04 a4 3d 78 48 1f 3e
       1.46438915e-05 0.07545837 0.080086924 0.15554988
000280 3e d5 3f 3a 00 00 00 00 00 00 00 00 00 00 00 00
       0.00073178473 0.0 0.0 0.0
000290 00 00 00 00 00 00 00 00 00 00 00 00 00 00 00 00
       0.0 0.0 0.0 0.0
0002a0 a7 40 0a 37 1e 1b 8b 38 c1 89 21 37 23 2f 11 3d
       8.240494e-06 6.6330875e-05 9.628421e-06 0.035445344
0002b0 aa d8 1a 3d cb 04 96 3d 68 e6 b0 39 5d 53 62 37
       0.037804283 0.07325133 0.00033741002 1.3490059e-05
0002c0 8d 33 f8 38 53 4b 8b 37 ea f1 8d 3d 3a 37 97 3d
       0.000118351636 1.6605167e-05 0.06930907 0.073835805
0002d0 78 95 12 3e 4e cc 2a 3a 00 00 00 00 00 00 00 00
       0.1431483 0.0006515429 0.0 0.0
0002e0 00 00 00 00 00 00 00 00 00 00 00 00 00 00 00 00
       0.0 0.0 0.0 0.0
0002f0 00 00 00 00 00 00 00 00 00 00 00 00 00 00 00 00
       0.0 0.0 0.0 0.0
000300 00 00 00 00 00 00 00 00 00 00 00 00 00 00 00 00
       0.0 0.0 0.0 0.0
000310 16 63 2d 38 ab 3a 95 39 e3 f3 19 38 2d 70 19 3e
       4.1338695e-05 0.00028463206 3.670518e-05 0.14984198
000320 d9 1c 23 3e 84 47 9e 3e c8 e3 b1 3a de ba 5b 36
       0.15928973 0.30913937 0.0013571912 3.2742314e-06
000330 1b 2e 7c 38 fc 81 1d 37 f3 7b 2d 3d 51 77 38 3d
       6.012442e-05 9.388194e-06 0.042354535 0.045035664
000340 bf fa b2 3d 0a e2 dd 39 a5 54 89 36 35 a0 02 38
       0.08739232 0.00042320817 4.092772e-06 3.114362e-05
000350 96 89 86 36 0f a7 84 3c 3d 4f 8d 3c 20 fc 08 3d
       4.0095283e-06 0.016192941 0.017249698 0.03344357
000360 7d 48 1b 39 00 00 00 00 00 00 00 00 00 00 00 00
       0.00014808956 0.0 0.0 0.0
000370 00 00 00 00 00 00 00 00 00 00 00 00 00 00 00 00
       0.0 0.0 0.0 0.0
000380 0e a9 ee 36 8b 5d 86 38 f7 82 16 37 5b 63 32 3d
       7.1126333e-06 6.407042e-05 8.971189e-06 0.043551784
000390 60 3f 3d 3d ff d2 b7 3d f5 6a d3 39 81 05 c2 36
       0.046203017 0.08975791 0.00040324745 5.7822913e-06
0003a0 f6 a1 4a 38 49 be db 36 e9 87 c7 3c 68 05 d5 3c
       4.831139e-05 6.5488607e-06 0.0243568 0.026003554
0003b0 ac 47 4e 3d 3f 65 72 39 c0 1f 58 37 f4 76 37 39
       0.05036132 0.00023116636 1.2881996e-05 0.00017496553
0003c0 f0 34 e8 37 8c 13 fc 3d e7 13 06 3e d3 0f 82 3e
       2.7681206e-05 0.12308416 0.1309353 0.25402698
0003d0 f2 b5 9c 3a bd c3 34 37 1c 9d ca 38 6d 96 60 37
       0.0011956079 1.077441e-05 9.6613745e-05 1.3386464e-05
0003e0 0e 82 66 3d 8b a9 75 3d 61 17 ee 3d 1e 11 0b 3a
       0.056276374 0.059976142 0.11625553 0.000530498
0003f0 27 a2 ad 37 91 20 17 39 2d b1 96 37 78 42 82 3d
       2.0698715e-05 0.00014412614 1.7963897e-05 0.06360334
