master_thesis/auto_docking/neural_network_models/final_trained_model.pt (torch, 835631 bytes, 18 tensors)

weight f4 [256, 7]
-1.0474957 1.1340904 1.1101775 -0.0466179 -0.12955368 -0.20890608 1.1452254 0.058987975
0.090845674 0.0050512212 0.18854229 -0.00512379 -0.2881644 0.1445725 -0.2892519 0.228291
-0.16054279 -0.13075244 -0.11860943 -0.23150551 -0.2666108 -0.03219029 -0.006842348 -0.25581208
-0.15434195 0.28548923 -0.20129694 0.32128134 -0.013726675 0.003027727 0.16494456 -0.06686226
-0.014749556 -0.30709717 0.31877878 0.123906486 0.42590883 0.8646026 -1.5617529 0.32750028
-0.14866087 -1.5381205 -0.0631957 0.025093263 1.7467606 0.34518087 -0.115873024 -0.41530696
0.6987598 0.17056343 -0.31330997 -0.4076126 0.19816014 0.4674074 -0.42258587 2.1517286
-0.2205803 -0.21688269 -0.046815958 -0.15335917 -0.12629925 -0.29528198 0.04593622 -0.026424602
-0.08216382 0.6769585 1.121047 -1.1731051 0.00836967 0.35674477 -0.22637719 -0.008246716
-0.18215935 0.15822382 -0.105527565 -0.30291036 -0.20497948 -0.020790357 -0.49118888 0.6734598
-0.85725754 0.76640844 -0.50755316 -0.113912344 -0.19932097 -0.40020102 -0.40932667 -0.77064854
0.5457689 -0.4561731 0.67076105 0.10222962 -0.25813097 -0.08783756 1.4309366 -0.050984032
-0.40139246 1.7852409 -0.18282728 -0.042889774 0.27027282 -0.11695653 -0.0027801096 -0.11385116
-0.29479086 -0.42059767 1.1573992 1.3152696 -0.82487184 0.12722552 -0.20942666 0.35604376
0.12757015 0.1730117 0.75040096 -0.38977826 0.15643047 -0.46684533 -1.3922672 -0.4422267
-0.6028423 -0.36440116 2.1561675 -0.40393245 0.537575 -0.029054863 -0.14918296 -0.24583161
0.046169013 0.23578541 0.898702 -0.53195155 1.9591086 0.088620044 -0.18703781 -0.07438385
0.8383493 0.52163064 0.008772225 3.2701085 0.23350054 0.3422646 1.069912 0.9448281
-0.36510542 -0.24921672 -0.9504011 -0.09657797 0.0006021857 -0.07291564 -0.3468677 0.042942613
-0.20902552 0.11477551 -0.030818999 0.17814597 -0.29163915 -0.1704827 0.30396178 -0.3502039
-0.08782825 0.033302933 0.31179065 -0.16800432 -0.08752539 0.072303966 -0.20225435 0.2337158
0.15082107 -0.2600897 0.24665552 -0.6623052 0.9598916 -0.36717582 -0.42628017 -0.18557166
0.009883583 0.02793327 -0.24809347 0.105305046 0.053512335 -0.15665744 -2.0826104 0.065307885
0.18891193 -0.15134074 0.5057532 0.044253197 -0.7755604 -0.6576664 0.015209936 -0.15385674
0.11220043 0.49566028 -0.21525808 -0.21789874 -0.25827336 0.1479593 -0.1655927 -0.23609798
0.34769127 0.11323446 0.052940045 -0.17649053 -0.15987265 -0.24064364 -0.19671656 0.2477676
-0.27605247 0.12413284 0.22807483 -0.0049954206 -0.48444176 -0.21360327 0.8004194 -0.64839107
0.723276 0.26169994 -0.17246911 -0.2557616 -0.91681594 1.0011574 -0.3408637 -0.86253405
0.12989289 -0.05693675 -0.22994165 0.6844482 0.36204997 -0.5059158 2.2052515 -0.6949944
-0.31417465 -1.4628882 0.36296695 -0.23321827 -0.27503183 -0.20128617 0.026791258 0.087781034
0.14140148 -0.32558796 0.89485496 -0.31759214 0.5750513 0.60554624 -0.29658878 -0.75245816
-1.2888681 0.09552059 0.0905616 -1.1355137 0.060297996 0.06166079 -0.084601395 0.08901023
00000000: 5714 86bf e029 913f 4c1a 8e3f 69f2 3ebd
00000010: b8a9 04be 7aeb 55be bf96 923f 609d 713d
00000020: 4c0d ba3d b784 a53b 3b11 413e 77e5 a7bb
00000030: 498a 93be d00a 143e d318 94be 1ec5 693e
00000040: 5465 24be f8e3 05be 80e9 f2bd c80f 6dbe
00000050: 3681 88be f7d9 03bd c635 e0bb cdf9 82be
00000060: d10b 1ebe a52b 923e c920 4ebe fd7e a43e
00000070: d9e5 60bc d46c 463b 3ae7 283e 15ef 88bd
00000080: 1fa8 71bc d73b 9dbe f936 a33e afc2 fd3d
00000090: b910 da3e 9956 5d3f 85e7 c7bf 1eae a73e
000000a0: 8e3a 18be 22e1 c4bf bf6c 81bd 6390 cd3c
000000b0: da95 df3f 8cbb b03e d64e edbd 1da3 d4be
000000c0: ece1 323f 2ea8 2e3e 2a6a a0be 99b2 d0be
000000d0: 7eea 4a3e 0650 ef3e 2d5d d8be ecb5 0940
000000e0: cddf 61be 7f16 5ebe 17c2 3fbd 300a 1dbe
000000f0: 9754 01be 332f 97be 9e27 3c3d 6878 d8bc
00000100: 8145 a8bd 274d 2d3f 787e 8f3f 4f28 96bf
00000110: f120 093c 40a7 b63e 6ccf 67be 3c1d 07bc
00000120: fb87 3abe 6d05 223e d61e d8bd 1117 9bbe
00000130: 24e6 51be 8a50 aabc 1c7d fbbe dd67 2c3f
00000140: 3b75 5bbf 5833 443f 01ef 01bf e04a e9bd
00000150: cc1a 4cbe 26e7 ccbe 4493 d1be 3949 45bf
00000160: 83b7 0b3f 858f e9be ffb6 2b3f c35d d13d
00000170: be29 84be 2ee4 b3bd ee28 b73f a2d4 50bd
00000180: 5083 cdbe c682 e43f 1337 3bbe 30ad 2fbd
00000190: 3361 8a3e e886 efbd 8032 36bb cc2a e9bd
000001a0: d4ee 96be 9458 d7be a825 943f c15a a83f
000001b0: cd2a 53bf 6847 023e f173 56be 5e4b b63e
000001c0: c0a1 023e fb29 313e 471a 403f 0491 c7be
000001d0: 4f2f 203e 5a06 efbe d035 b2bf 8a6b e2be
000001e0: df53 1abf ca92 babe a6fe 0940 3cd0 cebe
000001f0: 849e 093f 7704 eebc 6bc3 18be 48bb 7bbe
00000200: b81b 3d3d bb71 713e 5611 663f fa2d 08bf
00000210: 12c4 fa3f 6d7e b53d d786 3fbe 8f56 98bd
00000220: 0f9e 563f 9689 053f 61b9 0f3c 7549 5140
00000230: c41a 6f3e 4e3d af3e e0f2 883f 41e0 713f
00000240: 19ef babe ab32 7fbe 7d4d 73bf acca c5bd
00000250: 00dc 1d3a cc54 95bd a598 b1be 98e4 2f3d
00000260: c90a 56be 6c0f eb3d 2078 fcbc e66b 363e
00000270: ba51 95be 0493 2ebe e1a0 9b3e ed4d b3be
00000280: 4cdf b3bd a868 083d 06a3 9f3e 5309 2cbe
00000290: 8340 b3bd 1a14 943d c41b 4fbe 3253 6f3e
000002a0: d770 1a3e 7a2a 85be 4493 7c3e d58c 29bf
000002b0: 75bb 753f 78fe bbbe 6541 dabe 7f06 3ebe
000002c0: c0ee 213c 50d4 e43c 370c 7ebe 2caa d73d
000002d0: c02f 5b3d cf6a 20be 7d49 05c0 24c0 853d
000002e0: 2172 413e 11f9 1abe 0b79 013f d742 353d
000002f0: 208b 46bf d35c 28bf 1833 793c 9f8c 1dbe
00000300: 57c9 e53d 2fc7 fd3e 9d6c 5cbe d920 5fbe
00000310: 683c 84be a582 173e 2291 29be abc3 71be
00000320: 9704 b23e 78e7 e73d a9d7 583d efb9 34be
00000330: a8b5 23be 496b 76be 1170 49be cab6 7d3e
00000340: c056 8dbe 5c39 fe3d 738c 693e a0b0 a3bb
00000350: c008 f8be d1ba 5abe 49e8 4c3f f5fc 25bf
00000360: 9e28 393f 89fd 853e be9b 30be 2ff3 82be
00000370: 73b4 6abf ed25 803f b085 aebe 08cf 5cbf
00000380: a402 053e 8236 69bd d375 6bbe ff37 2f3f
00000390: 9d5e b93e b383 01bf d722 0d40 27eb 31bf
000003a0: 80db a0be ec3f bbbf ced6 b93e c5d0 6ebe
000003b0: f9d0 8cbe f61d 4ebe 5779 db3c 8bc6 b33d
000003c0: 8dcb 103e 77b3 a6be 3715 653f 709b a2be
000003d0: 9036 133f 1405 1b3f 7cda 97be 19a1 40bf
000003e0: a1f9 a4bf 4da0 c33d 5c78 b93d 8358 91bf
000003f0: 08fb 763d 0690 7c3d 7f43 adbd ff4a b63d

bias f4 [256]
-0.6406789 -0.23105969 0.19759777 -0.3098107 -0.4026858 -0.5573377 0.1469455 -0.4204148
-0.21551417 0.10837664 -0.50566137 -0.13403839 0.011989048 -0.107358545 -0.09249538 -0.8110812
-0.9630062 0.70611995 -0.4435955 0.07158032 -0.1087768 -0.25286722 -0.06783944 -0.40969205
-0.5035106 0.254445 -0.19223888 -0.27224624 -0.09806332 -0.3208846 -0.26638225 -0.18552147
0.11817141 0.23670955 -0.2107154 0.3580718 -0.5331996 -0.043925747 0.12248095 -0.34877613
-0.29498792 -0.086728975 0.32155716 -0.116334476 0.111371644 -0.0030628503 -0.26796824 -0.57825184
-0.12406807 -0.0897717 0.17702207 -0.2789611 0.011787099 -0.58504254 -0.16217723 -0.57537055
0.13243695 -0.24481162 0.38558212 0.050207723 -0.04575473 0.31454554 0.20285794 -0.4289317
-0.4410647 0.043809306 -0.3931421 -0.12055502 -0.47353223 -0.01955101 -0.4499419 -0.005805435
0.18687527 -0.23965245 -0.49549326 -0.5094019 -0.38004106 -0.51200753 -0.77749497 0.018843248
-0.42473426 -0.055033315 -0.21358071 -0.28452468 -0.25116107 -0.13635534 -0.7253906 -0.58611345
-0.1316876 -0.26706868 -0.17948592 0.063891865 -0.13359936 -0.53410316 0.12442434 -0.4011933
0.18067661 -0.18757282 0.018906588 -0.34244433 -0.01999782 -0.26087683 -0.52868754 0.023536269
-0.8660884 0.20846754 -0.08405785 0.29429442 0.048198495 -0.10966042 0.49775833 0.2908284
-0.09916243 0.4825362 -0.40551898 -0.08508339 -0.044146903 -0.08532588 0.08116321 0.13527858
-0.07262656 -0.34435618 -0.29109696 -0.035532624 -0.6411246 -0.2696075 -0.05000686 -0.13401708
-0.699596 0.045073584 0.27494845 -0.39970076 -0.208896 -0.3623965 -0.28459474 -0.11941336
-0.51903737 -0.635827 0.31136563 0.3349897 -0.06439178 -0.10219507 -0.046408672 -0.23040575
-0.85633415 0.65474254 -0.44967648 -0.30992132 -0.22062008 3.9283377e-06 -0.30161202 0.37232244
-0.44943303 0.04895502 -0.18168497 -0.13696276 -0.43557718 0.192921 0.047955517 0.046365876
0.17489012 -0.33615476 0.65563464 0.00899519 0.059218038 -0.033344388 0.105694234 0.1629689
-0.4742111 -0.5237793 0.09508826 0.176052 0.03387683 -0.36749086 -0.2776187 0.065619975
-0.09710889 -0.33283374 -0.13227564 0.32697818 -0.4226888 -0.05766458 -1.0399805 0.14445089
-0.41321442 -0.15895899 -0.07559081 -0.4418867 -0.6122087 -0.27564228 -0.2670713 -0.031185351
0.18958034 -0.13810757 0.29341725 -0.813922 -0.6774612 -0.19110781 0.34340194 -0.117165886
-0.670454 0.0060451147 -0.17604645 0.021793764 -0.42293766 -0.2776842 -0.51583374 0.010809928
-0.2646549 -0.040329274 -0.1509771 -0.5999937 -0.46077836 -0.26781327 -0.16103433 -0.028906027
-0.13426353 -0.053043995 -0.035139088 -0.21993187 -0.40949333 -0.9576976 -0.30651012 -0.46545458
-0.6490047 0.051709443 -0.04002681 -0.20458089 -0.335728 -0.4455616 -0.60903716 -0.7625403
-0.36728686 -0.33824053 -0.24695338 -0.9209229 0.32734686 -0.018209737 -0.3297116 0.72223735
0.021030476 -0.11272814 -0.06869483 -0.091614984 0.23509762 -0.38497934 -0.39107764 -0.60453486
-0.0992921 -0.1347636 0.29821202 0.18474446 -0.19017869 -0.20254742 -0.37165332 -0.544112
00000000: 8803 24bf e99a 6cbe 1257 4a3e 829f 9ebe
00000010: d52c cebe afad 0ebf e278 163e 9c40 d7be
00000020: bfaf 5cbe 92f4 dd3d 0673 01bf 5c41 09be
00000030: b66d 443c ccde dbbd 386e bdbd 04a3 4fbf
00000040: 9387 76bf 47c4 343f f31e e3be b498 923d
00000050: 5fc6 debd d077 81be 68ef 8abd 28c3 d1be
00000060: 12e6 00bf 9d46 823e 45da 44be dc63 8bbe
00000070: 6cd5 c8bd fc4a a4be 4163 88be 57f9 3dbe
00000080: da03 f23d fd63 723e c7c5 57be 3055 b73e
00000090: c57f 08bf 7ceb 33bd 4bd7 fa3d c992 b2be
000000a0: a808 97be f69e b1bd 24a3 a43e c540 eebd
000000b0: d116 e43d 1aba 48bb 2233 89be 5008 14bf
000000c0: 6617 febd 3ada b7bd 4645 353e fdd3 8ebe
000000d0: ad1e 413c 59c5 15bf ca11 26be 7c4b 13bf
000000e0: 8d9d 073e e6af 7abe 056b c53e 9da6 4d3d
000000f0: 5069 3bbd 1d0c a13e feb9 4f3e f09c dbbe
00000100: 3bd3 e1be 6371 333d ec49 c9be 8de5 f6bd
00000110: d172 f2be 7129 a0bc c95e e6be 853b bebb
00000120: 3b5c 3f3e 7467 75be 4bb1 fdbe 2a68 02bf
00000130: be94 c2be ed12 03bf e909 47bf 285d 9a3c
00000140: c576 d9be 9d6a 61bd e7b4 5abe 38ad 91be
00000150: 2f98 80be bca0 0bbe 33b3 39bf 880b 16bf
00000160: 1dd9 06be 3abd 88be 28cb 37be bdd9 823d
00000170: 45ce 08be fcba 08bf 30d2 fe3d 3569 cdbe
00000180: 4a03 393e 1713 40be fde1 9a3c dd54 afbe
00000190: 78d2 a3bc a691 85be 1158 07bf 22cf c03c
000001a0: f8b7 5dbf 8478 553e 8626 acbd c2ad 963e
000001b0: c96b 453d a495 e0bd 2eda fe3e 76e7 943e
000001c0: ac15 cbbd fc0e f73e 2fa0 cfbe 3340 aebd
000001d0: 62d3 34bd 56bf aebd e638 a63d 7886 0a3e
000001e0: 3cbd 94bd 744f b0be a90a 95be a88a 11bd
000001f0: be20 24bf ff09 8abe fed3 4cbd c63b 09be
00000200: b918 33bf 149f 383d 0bc6 8c3e 94a5 ccbe
00000210: d5e8 55be 098c b9be 67b6 91be fe8e f4bd
00000220: a2df 04bf 8fc5 22bf 516b 9f3e c583 ab3e
00000230: d6df 83bd a64b d1bd 0517 3ebd 7cef 6bbe
00000240: b738 5bbf 359d 273f ff3b e6be 02ae 9ebe
00000250: 3bea 61be 2ad0 8336 e46c 9abe 0ca1 be3e
00000260: 161c e6be 0f85 483d a00b 3abe f73f 0cbe
00000270: f903 dfbe 158d 453e 016d 443d 25ea 3d3d
00000280: 6516 333e 7a1c acbe acd7 273f 9060 133c
00000290: 9d8e 723d 2094 08bd 3876 d83d 52e1 263e
000002a0: cccb f2be 6616 06bf a2bd c23d fa46 343e
000002b0: 6ec2 0a3d c327 bcbe 0a24 8ebe c463 863d
000002c0: 07e1 c6bd 2f69 aabe 4473 07be af69 a73e
000002d0: ab6a d8be b231 6cbd 151e 85bf efea 133e
000002e0: d790 d3be 25c6 22be 5bcf 9abd f93e e2be
000002f0: b6b9 1cbf fc20 8dbe 92bd 88be 6c78 ffbc
00000300: 5921 423e 126c 0dbe c93a 963e 315d 50bf
00000310: 196e 2dbf c4b1 43be 61d2 af3e abf4 efbd
00000320: e0a2 2bbf 1916 c63b 8545 34be d688 b23c
00000330: 498b d8be a02c 8ebe ae0d 04bf 201c 313c
00000340: d980 87be 4f30 25bd be99 1abe 3099 19bf
00000350: 24eb ebbe d21e 89be 2fe6 24be 55cc ecbc
00000360: 617c 09be a944 59bd 01ee 0fbd d235 61be
00000370: 1ca9 d1be ab2b 75bf e5ee 9cbe 1050 eebe
00000380: 2c25 26bf 48cd 533d 27f3 23bd a77d 51be
00000390: 8ae4 abbe a620 e4be dce9 1bbf d735 43bf
000003a0: 060d bcbe dd2d adbe 59e1 7cbe 9ac1 6bbf
000003b0: 029a a73e 962c 95bc f5cf a8be 8ce4 383f
000003c0: 1b48 ac3c 03de e6bd e0af 8cbd a3a0 bbbd
000003d0: 6ebd 703e 031c c5be 543b c8be ccc2 1abf
000003e0: a859 cbbd 78ff 09be 3faf 983e a72d 3d3e
000003f0: 34be 42be 9768 4fbe 5849 bebe ed4a 0bbf

weight f4 [256, 256]
0.02444645 -0.028694415 -0.03151635 -0.07052035 0.00925988 -0.047555633 0.009008816 -0.026526717
-0.041716814 -0.06678832 0.050983038 0.031294942 -0.07428846 0.04964058 -0.054679014 0.029687734
-0.07347389 -0.021820867 0.016456109 0.036466595 -0.074750714 0.0052409098 0.034743518 -0.01702512
0.014537795 0.030131623 -0.08882296 -0.1365271 0.040064324 0.03339608 0.018650986 -0.009754277
-0.05116679 -0.07682999 0.018661734 -0.070331715 -0.09664248 -0.0009237433 -0.06254315 0.0057608113
-0.068286195 -0.10588019 0.0059688166 0.035318077 -0.028981544 -0.014055409 -0.018882694 0.06350206
-0.11225048 -0.026217574 0.003130854 0.029517151 0.042452626 -0.06339818 0.07632283 0.014056066
-0.044408783 -0.04372547 0.069569536 0.027027499 0.045037374 0.037406303 -0.009710804 -0.0228567
-0.059323102 -0.015543433 -0.053438377 0.027712837 -0.22525734 -0.048337955 0.004908583 0.008465242
-0.031249115 -0.062156472 -0.07151152 -0.007519216 -0.05559632 -0.12951706 -0.01909154 0.05146147
-0.07053385 -0.13373747 0.035829227 0.025717385 -0.0035934187 0.046818897 -0.116085 -0.09001561
-0.010594052 0.011121714 0.0324366 -0.102821596 0.0335836 0.0043877624 -0.11897647 -0.19798905
-0.08229764 -0.038984567 -0.02629184 -0.028693022 -0.073657215 -0.112733416 0.0136061525 -0.022538008
-0.04657908 0.009136677 -0.06110405 0.030775195 0.013790277 0.066667 -0.0039443104 -0.06016014
-0.065232925 -0.024631467 0.013142943 0.011515601 -0.016685512 -0.074408166 0.0054654586 0.044196185
-0.1151036 -0.15778264 -0.035557985 -0.0013070554 -0.009951521 -0.07996588 -0.0038132276 -0.0394748
-0.04244575 -0.0041677724 0.04673759 -0.0010412037 -0.08445281 0.023240432 -0.0074447803 0.0026311693
-0.15409578 -0.07583475 0.038681563 0.056784503 -0.04865112 -0.06733039 -0.060323957 -0.033906758
0.016512822 -0.051888198 0.0015963815 0.052519433 -0.084899575 -0.101867944 -0.06803897 -0.02591409
-0.022796879 -0.07689583 0.0041595306 -0.041691445 0.020740366 -0.01672847 -0.02374216 0.03502555
-0.03938303 0.032082215 -0.008407544 -0.10705939 -0.075819716 -0.0011598617 0.041260317 -0.043231316
-0.010224419 -0.060602173 0.043470517 -0.0765753 -0.06494221 -0.029816406 0.03708248 -0.029084794
-0.059987497 0.0043582176 -0.096709825 0.017607093 -0.04788316 0.036370754 -0.031617858 -0.04675649
0.050869364 0.018845793 -0.11197693 0.03504423 -0.015922703 -0.060537707 -0.057916317 -0.014269877
-0.11692939 -0.09027806 -0.067084484 -0.11087673 -0.062053725 0.06354488 -0.0467624 0.011435196
-0.010850113 0.025451709 0.011745848 0.029988848 -0.062132478 0.11679169 -0.04247743 -0.14630899
0.05525428 -0.033446185 -0.060056347 -0.059264306 -0.0970725 -0.04845479 -0.12673482 -0.04110964
-0.0050609102 -0.14172696 -0.030686123 -0.0076333904 -0.09318514 -0.037561506 -0.035621934 -0.04792014
-0.08968404 0.0029474199 -0.06221076 0.012326296 0.07820992 -0.030464377 0.13576874 -0.06852525
-0.030494733 -0.040315058 -0.053926043 -0.033950735 -0.08965539 -0.055260494 -0.054783616 -0.018009182
0.00050534506 0.053975053 -0.09334381 -0.0029684664 -0.019934798 0.022040598 0.060172364 -0.082399756
0.045151316 -0.058064304 -0.08958842 -0.1221212 -0.0073461877 0.094237916 -0.04305436 -0.04155401
00000000: ec43 c83c 8d10 ebbc 4a17 01bd f96c 90bd
00000010: c0b6 173c b2c9 42bd b799 133c 8f4e d9bc
00000020: 40df 2abd 51c8 88bd 97d3 503d 202f 003d
00000030: 8c24 98bd ec53 4b3d 1af7 5fbd b133 f33c
00000040: 7b79 96bd adc1 b2bc f6ce 863c ff5d 153d
00000050: e716 99bd f0bb ab3b 384f 0e3d 4478 8bbc
00000060: ef2f 6e3c 98d6 f63c d0e8 b5bd c3cd 0bbe
00000070: 7d1a 243d 54ca 083d f4c9 983c 67d0 1fbc
00000080: 4594 51bd 0b59 9dbd 7ee0 983c 130a 90bd
00000090: 7eec c5bd 5d27 72ba 9f16 80bd 30c5 bc3b
000000a0: a2d9 8bbd b7d7 d8bd 1096 c33b b0a9 103d
000000b0: b46a edbc a848 66bc e1af 9abc 5e0d 823d
000000c0: 94e3 e5bd 3dc6 d6bc 042f 4d3b f4cd f13c
000000d0: cee2 2d3d e8d6 81bd 254f 9c3d 6a4b 663c
000000e0: fce5 35bd 7a19 33bd 797a 8e3d c668 dd3c
000000f0: 1c79 383d 5a37 193d 101a 1fbc f93d bbbc
00000100: c8fc 72bd e2a9 7ebc 33e2 5abd 0806 e33c
00000110: dca9 66be 05fe 45bd 2ed8 a03b ccb1 0a3c
00000120: 25fe ffbc c997 7ebd a274 92bd c163 f6bb
00000130: f8b8 63bd 1fa0 04be dc65 9cbc 43c9 523d
00000140: 0d74 90bd 7af2 08be abc1 123d 44ad d23c
00000150: 907f 6bbb 2cc5 3f3d f9bd edbd 1b5a b8bd
00000160: ad92 2dbc d937 363c 3edc 043d 2194 d2bd
00000170: f58e 093d 38c7 8f3b efa9 f3bd a4bd 4abe
00000180: aa8b a8bd 48ae 1fbd fc61 d7bc a10d ebbc
00000190: 98d9 96bd c7e0 e6bd 57ec 5e3c a1a1 b8bc
000001a0: b5c9 3ebd 00b2 153c 3e48 7abd 431c fc3c
000001b0: 9df0 613c b588 883d 463f 81bb 7b6a 76bd
000001c0: d798 85bd eec7 c9bc 8055 573c eeab 3c3c
000001d0: 0eb0 88bc 4f63 98bd 9717 b33b 0f07 353d
000001e0: 70bb ebbd c691 21be 40a5 11bd 8051 abba
000001f0: b40b 23bc 27c5 a3bd 58e7 79bb 54b0 21bd
00000200: 98db 2dbd cf91 88bb ea6f 3f3d 0079 88ba
00000210: 98f5 acbd b862 be3c 58f3 f3bb b26f 2c3b
00000220: 49cb 1dbe 404f 9bbd 8f70 1e3d de96 683d
00000230: 6646 47bd 84e4 89bd 4116 77bd d0e1 0abd
00000240: e645 873c b888 54bd ad3d d13a 9e1e 573d
00000250: d4df adbd 24a0 d0bd 0458 8bbd c949 d4bc
00000260: 85c0 babc 907b 9dbd ac4c 883b a6c4 2abd
00000270: b3e7 a93c 250a 89bc eb7e c2bc f376 0f3d
00000280: 1a50 21bd a468 033d ccbf 09bc f441 dbbd
00000290: 5e47 9bbd 8006 98ba 9400 293d 5213 31bd
000002a0: 5284 27bc fc39 78bd 240e 323d 83d3 9cbd
000002b0: 6c00 85bd 8941 f4bc cce3 173d 3c43 eebc
000002c0: 73b5 75bd 61cf 8e3b cd0f c6bd c03c 903c
000002d0: 2221 44bd 80f9 143d ba81 01bd bc83 3fbd
000002e0: 655c 503d 7e62 9a3c 2954 e5bd 8a8a 0f3d
000002f0: 5470 82bc 63f6 77bd a939 6dbd 34cc 69bc
00000300: ad78 efbd b4e3 b8bd 9763 89bd 5713 e3bd
00000310: 0c2c 7ebd d123 823d ee89 3fbd b05a 3b3c
00000320: acc4 31bc 1a80 d03c a871 403c 2cab f53c
00000330: a07e 7ebd 7b30 ef3d d0fc 2dbd 06d2 15be
00000340: 5052 623d defe 08bd a5fd 75bd 21bf 72bd
00000350: f2cd c6bd 8878 46bd c6c6 01be 9562 28bd
00000360: fed5 a5bb df20 11be 7761 fbbc 8521 fabb
00000370: dad7 bebd 18da 19bd 4ee8 11bd e947 44bd
00000380: 44ac b7bd 8029 413b b6d0 7ebd 3cf4 493c
00000390: 862c a03d 6e90 f9bc f606 0b3e f756 8cbd
000003a0: 17d0 f9bc 6721 25bd 8ee1 5cbd ed0f 0bbd
000003b0: 3f9d b7bd d458 62bd c964 60bd fe87 93bc
000003c0: 2279 043a f214 5d3d 0a2b bfbd 9a8a 42bb
000003d0: 4d4e a3bc 7c8e b43c 4c77 763d 34c1 a8bd
000003e0: 96f0 383d d6d4 6dbd 227a b7bd ae1a fabd
000003f0: 4ab8 f0bb cfff c03d c559 30bd 8a34 2abd

bias f4 [256]
-0.047793288 -0.07318835 -0.047615163 -0.014985166 0.02104391 -0.029536154 -0.070947886 -0.058379903
-0.058557387 -0.024617674 -0.04279907 0.022504328 -0.036732495 -0.046877783 -0.089634165 -0.006480795
-0.06836598 0.02685282 -0.061558045 -0.05537135 -0.09597418 0.04477691 -0.060084455 0.02229234
0.034196395 -0.09671163 -0.0016063305 -0.06391647 -0.1402141 0.030471366 -0.03807297 -0.06449842
0.0052657197 -0.11620356 -0.085577846 -0.028846305 -0.04603973 -0.07447397 -0.016035985 -0.049958773
-0.07911649 -0.019853074 -0.057140496 -0.0011417752 -0.023746712 -0.047720883 -0.13815464 -0.014283103
0.022172267 -0.04113504 -0.038450453 -0.29630345 -0.027314445 -0.12424194 -0.016726786 -0.031704064
-0.040279403 0.012074766 -0.10066603 0.006120677 -0.0535432 -0.014358527 0.019375242 -0.10934684
-0.0656594 -0.044093885 -0.06588908 -0.009244861 -0.011464887 -0.017125905 -0.13861296 -0.05006318
-0.04560787 -0.06968699 -0.058278836 -0.086522564 -0.050359413 -0.016424887 -0.06161779 0.018892696
-0.04294093 0.006355813 -0.05065312 -0.23241302 -0.026026508 -0.0040204385 -0.16693205 -0.11058815
-0.04279086 -0.05385722 -0.080396466 -0.08148732 -0.0043880944 -0.08815339 -0.040545475 0.016212758
-0.06886994 0.010727608 -0.09387953 -0.03510873 -0.0971755 -0.12028952 -0.02607793 -0.09123665
-0.018859567 -0.061535385 -0.03308192 -0.06653889 -0.07020954 -0.062300526 -0.07564707 -0.034301113
-0.0032343676 -0.06195961 -0.045241714 -0.13054018 0.0057645594 -0.07405667 -0.027223779 0.009419444
0.026141109 -0.07590411 -0.08459818 0.003573798 -0.09775874 -0.06764183 0.031011516 -0.09574385
-0.06298497 -0.08452959 0.013994524 -0.019681847 -0.08855876 -0.056759484 -0.015122344 -0.016190918
-0.042980574 -0.031088255 -0.02200553 0.011049403 -0.06902072 -0.020290438 -0.0032809097 -0.07804469
-0.032669082 -0.0777457 -0.0071587656 -0.011235907 -0.00812608 -0.00084789627 -0.30194524 -0.055343024
0.0063182516 -0.08140149 0.026255332 -0.008178048 -0.08200314 -0.019228168 -0.042724732 -0.080762796
-0.013293516 -0.06056312 -0.039535217 -0.04412459 -0.07414042 -0.055438887 -0.09726566 -0.030765785
-0.05579611 0.00964232 0.026815392 -0.048965733 -0.06436539 -0.0227867 -0.12461591 -0.03590175
-0.13524596 -0.0695311 -0.068027034 -0.116690286 -0.009443294 -0.18402486 -0.026309853 0.016429307
-0.06934256 0.04786252 -0.090884134 -0.07280594 -0.085447766 -0.06659739 -0.10941113 -0.035404466
-0.19645491 -0.012365058 -0.07356494 -0.0019301891 0.022347024 0.021707283 -0.054774694 0.02996618
-0.07004253 -0.03200395 -0.026731906 -0.04317979 -0.020551974 -0.053135324 -0.015911208 -0.0038623207
-0.03903924 -0.071722366 -0.015277205 -0.034523975 -0.1521658 -0.0385247 -0.78903604 -0.048098736
-0.030758983 -0.12042807 -0.14407513 -0.20359056 -0.016225614 -0.12678865 -0.027802644 -0.0964676
-0.045673046 -0.015305561 -0.021053528 -0.07593527 -0.046045013 -0.0298592 -0.105625466 0.021990567
-0.050424363 -0.02154517 -0.05432704 -0.12017486 -0.07011578 0.022334155 -0.02534252 -0.013956254
-0.027035812 0.018470727 -0.049745727 -0.018197756 -0.07494987 -0.055909246 0.010572438 0.0012576171
-0.0333977 -0.06807191 -0.10527268 -0.08835611 0.013675474 -0.070715636 -0.14084655 -0.09979837
00000000: e5c2 43bd c6e3 95bd 1e08 43bd 5784 75bc
00000010: 4764 ac3c cef5 f1bc 204d 91bd c41f 6fbd
00000020: dfd9 6fbd 01ab c9bc 144e 2fbd ff5a b83c
00000030: d074 16bd eb02 40bd 1e92 b7bd d95c d4bb
00000040: 7703 8cbd 72fa db3c 4a24 7cbd 12cd 62bd
00000050: 1c8e c4bd fe67 373d 1e1b 76bd 6d9e b63c
00000060: 8511 0c3d bf10 c6bd 828b d2ba a3e6 82bd
00000070: 4994 0fbe 169f f93c 67f2 1bbd bf17 84bd
00000080: 0f8c ac3b 22fc edbd 7043 afbd 164f ecbc
00000090: 2894 3cbd cf85 98bd e65d 83bc 92a1 4cbd
000000a0: d407 a2bd eaa2 a2bc 270c 6abd 9ea7 95ba
000000b0: 7788 c2bc f976 43bd 6978 0dbe ad03 6abc
000000c0: 9da2 b53c 377d 28bd 397e 1dbd 16b5 97be
000000d0: 8bc2 dfbc 8f72 febd 9d06 89bc 1fdc 01bd
000000e0: 04fc 24bd 3dd5 453c fe29 cebd f68f c83b
000000f0: 1d50 5bbd 0740 6bbc d4b8 9e3c 3cf1 dfbd
00000100: 6f78 86bd ca9b 34bd dbf0 86bd c277 17bc
00000110: 39d7 3bbc a04b 8cbc 8ef0 0dbe 0d0f 4dbd
00000120: 51cf 3abd 0db8 8ebd cab5 6ebd be32 b1bd
00000130: ac45 4ebd 7c8d 86bc f062 7cbd dbc4 9a3c
00000140: d4e2 2fbd 6c44 d03b a579 4fbd aefd 6dbe
00000150: 8b35 d5bc e2bd 83bb 3cf0 2abe 0a7c e2bd
00000160: 7845 2fbd 6399 5cbd e7a6 a4bd d3e2 a6bd
00000170: 01ca 8fbb c489 b4bd 0313 26bd 9ed0 843c
00000180: af0b 8dbd d9c2 2f3c e943 c0bd 2cce 0fbd
00000190: f303 c7bd 5a5a f6bd 62a1 d5bc 48da babd
000001a0: 617f 9abc 870c 7cbd e880 07bd 8b45 88bd
000001b0: 05ca 8fbd d62e 7fbd daec 9abd 537f 0cbd
000001c0: aff7 53bb 5cc9 7dbd 604f 39bd 53ac 05be
000001d0: a1e4 bc3b 06ab 97bd 6704 dfbc 0354 1a3c
000001e0: e125 d63c 9d73 9bbd d041 adbd 6236 6a3b
000001f0: bc35 c8bd cd87 8abd dd0b fe3c 5a15 c4bd
00000200: 44fe 80bd da1d adbd 4a49 653c d33b a1bc
00000210: 4c5e b5bd a27c 68bd b5c3 77bc d1a2 84bc
00000220: 660c 30bd ccac febc f144 b4bc 8e08 353c
00000230: bc5a 8dbd 2238 a6bc 8804 57bb e5d5 9fbd
00000240: 04d0 05bd 2339 9fbd 1494 eabb cf16 38bc
00000250: 4023 05bc 5b45 5eba 9198 9abe 5eaf 62bd
00000260: 5609 cf3b d3b5 a6bd 6c15 d73c 38fd 05bc
00000270: 43f1 a7bd 6484 9dbc 2100 2fbd f766 a5bd
00000280: 0ccd 59bc 0911 78bd aeef 21bd fcbb 34bd
00000290: efd6 97bd e313 63bd 3833 c7bd 8708 fcbc
000002a0: 768a 64bd d2fa 1d3c f4ab db3c 4b90 48bd
000002b0: 00d2 83bd 2cab babc a036 ffbd b70d 13bd
000002c0: eb7d 0abe 5266 8ebd c251 8bbd 51fb eebd
000002d0: 0cb8 1abc 0371 3cbe c387 d7bc c196 863c
000002e0: 7903 8ebd 7d0b 443d 7621 babd 481b 95bd
000002f0: 3dff aebd 3664 88bd f112 e0bd 4604 11bd
00000300: 7a2b 49be d096 4abc 37a9 96bd 66fe fcba
00000310: 1b11 b73c 79d3 b13c 6e5b 60bd a27b f53c
00000320: 7572 8fbd 9316 03bd dffc dabc 4bdd 30bd
00000330: 9d5c a8bc 6da4 59bd 3958 82bc fd1e 7dbb
00000340: 9ce7 1fbd 2de3 92bd 3e4d 7abc 0369 0dbd
00000350: 5ad1 1bbe 13cc 1dbd 44fe 49bf 2e03 45bd
00000360: 43fa fbbc fea2 f6bd 6e88 13be 0b7a 50be
00000370: 94eb 84bc e2d4 01be 5fc2 e3bc ce90 c5bd
00000380: a913 3bbd 2dc4 7abc 7378 acbc f383 9bbd
00000390: b299 3cbd 489b f4bc 2a52 d8bd 9025 b43c
000003a0: c789 4ebd 7f7f b0bc 0886 5ebd 3d1e f6bd
000003b0: dd98 8fbd 1ef6 b63c 1e9b cfbc c6a8 64bc
000003c0: 357a ddbc ec4f 973c 2dc2 4bbd 7613 95bc
000003d0: 517f 99bd 1801 65bd 0538 2d3c a1d6 a43a
000003e0: 07cc 08bd 4969 8bbd 3499 d7bd 0cf4 b4bd
000003f0: 180f 603c 5cd3 90bd 143a 10be 1663 ccbd

weight f4 [5, 256]
-0.016732046 0.016295731 0.018409126 0.019559467 -0.023978584 -0.018777855 0.067113616 -0.045253728
-0.0011035764 0.022352166 0.044198822 0.046583693 -0.047238532 0.04163679 -0.035710603 0.011075994
0.013128231 -0.009854112 -0.0050323647 -0.014313813 0.0015269299 0.0519737 0.046158455 0.030666402
0.09335529 -0.022869755 -0.02743872 0.03588456 -0.012838879 -0.04255221 -0.010243154 0.031448603
-0.0036469179 0.027432563 0.01307682 -0.048176266 0.034263454 -0.02226291 -0.011672219 0.019008689
0.028320065 0.035078708 -0.07785067 0.042969443 0.0037033495 -0.026942462 -0.0027213173 -0.08295817
0.009407805 -0.04971116 0.007260615 -0.025428653 0.04350718 0.016376069 -0.04007517 0.012989741
-0.036990028 0.02664358 -0.01102803 0.03400077 0.009861371 0.020613782 0.044899285 0.013783504
-0.0029672503 -0.002704582 -0.013216461 0.02001624 -0.060530376 -0.030886289 -0.019112937 -0.024431074
0.018083401 0.028026 -0.033470515 0.029255057 -0.023189073 -0.03936008 -0.033090405 -0.0063863853
-0.077960715 -0.0021014272 0.010477474 -0.5071446 -0.023405666 0.06827293 0.098973654 0.006994288
-0.028381955 0.02112635 -0.0023625928 -0.046766523 -0.011321031 -0.016310489 -0.013566433 -0.027765097
-0.007494853 -0.012228057 0.018337827 -0.0009402593 -0.017093576 0.06121696 0.037228443 0.027095199
-0.05709272 0.04564762 -0.046207216 0.036849275 -0.03614197 -0.036559675 0.0017270509 0.008418564
-0.023813862 0.011288182 -0.036031406 0.19975135 0.045730397 0.040298805 0.03405786 0.02508538
-0.00084399944 0.027444541 -0.47343975 0.030513685 0.004027759 0.01053031 0.001767334 -0.085524544
-0.020755831 0.050943177 -0.03168144 -0.017568022 0.0076660966 -0.042045727 0.001344826 0.0072183744
0.013013881 0.035760425 -0.06874867 0.003597558 0.02341945 -0.018552057 0.003897646 0.055040795
0.049925786 -0.02136529 0.0022163119 -0.046764567 0.0087960055 -0.005977328 0.3480781 0.02598347
0.01711212 0.02713293 0.032999136 -0.018127417 -0.009212276 -0.0102147665 0.0202019 -0.013231265
0.01275609 -0.011694207 0.0054572825 -0.04032237 0.017085737 -0.07791606 -0.019927772 0.0025758548
-0.009972833 0.0012054145 -0.00022106052 0.005499721 0.051933564 -0.009906172 0.0067126215 -0.0060727205
-0.10497993 0.08164367 0.05634221 0.031094342 -0.009621859 0.045328166 -0.0044572526 -0.030165978
-0.0274989 -0.05447982 0.04849781 0.07585309 -0.038032245 0.0015951218 0.037090022 -0.012534986
0.0012950518 0.02798095 0.029693063 0.007248198 -0.021215186 -0.024382442 0.003986858 -0.01572908
-0.072582595 -0.021707479 -0.0009967028 -0.02168244 -0.023106849 0.03431446 -0.055342026 -0.010292961
0.047309782 -0.02334434 -0.033162802 0.04959896 -0.04006766 -0.004894237 -0.5598911 0.054579724
-0.0320185 -0.0026385835 0.031202577 -0.0021284702 -0.025889438 0.015664963 0.024725892 -0.027659751
-0.0038843206 0.009282649 -0.009840127 0.00039485385 0.0040217843 0.012636881 0.025745295 0.047894686
0.015150621 0.05214357 0.00014632243 0.022785252 0.010129752 -0.03247436 -0.030902028 0.011691642
0.0053535523 0.01921009 -0.008744836 0.016807845 0.006410516 0.051753018 0.036440916 0.013474494
-0.02032355 -0.05604238 -0.06298279 -0.017758736 0.06486117 0.014987366 0.030323502 0.07763611
00000000: a511 89bc a07e 853c bcce 963c 2d3b a03c
00000010: bc6e c4bc 04d4 99bc dd72 893d f95b 39bd
00000020: e1a5 90ba e41b b73c d309 353d 8bce 3e3d
00000030: 317d 41bd 578b 2a3d 4845 12bd 1678 353c
00000040: cb17 573c 2473 21bc 89e6 a4bb 7c84 6abc
00000050: 4423 c83a 60e2 543d a610 3d3d 1b38 fb3c
00000060: 0f31 bf3d 5a59 bbbc 2bc7 e0bc b0fb 123d
00000070: 295a 52bc 3a4b 2ebd e7d2 27bc 40d0 003d
00000080: 2101 6fbb 41ba e03c 2940 563c 7a54 45bd
00000090: d657 0c3d b560 b6bc d63c 3fbc 1cb8 9b3c
000000a0: 7bff e73c b1ae 0f3d 2c70 9fbd ba00 303d
000000b0: e5b3 723b 70b6 dcbc 2158 32bb f9e5 a9bd
000000c0: 3223 1a3c ee9d 4bbd 74ea ed3b c04f d0bc
000000d0: 9634 323d 1b27 863c dd25 24bd ecd2 543c
000000e0: db82 17bd a343 da3c e9ae 34bc 6444 0b3d
000000f0: 9691 213c 3cde a83c 50e8 373d 35d4 613c
00000100: 3376 42bb 5b3f 31bb db89 58bc 19f9 a33c
00000110: b3ee 77bd 3e05 fdbc bc92 9cbc ad23 c8bc
00000120: a423 943c c896 e53c 6118 09bd 4da8 ef3c
00000130: 03f7 bdbc 0938 21bd ce89 07bd e244 d1bb
00000140: dea9 9fbd 19b8 09bb b6a9 2b3c 3ad4 01bf
00000150: 3dbd bfbc aed2 8b3d b3b2 ca3d 5730 e53b
00000160: 4681 e8bc 2b11 ad3c bbd5 1abb 418e 3fbd
00000170: d87b 39bc 939d 85bc bf45 5ebc a173 e3bc
00000180: 6297 f5bb 3058 48bc 3639 963c bc7b 76ba
00000190: d407 8cbc a3be 7a3d da7c 183d c0f6 dd3c
000001a0: 0eda 69bd 00f9 3a3d c743 3dbd 44ef 163d
000001b0: 9a09 14bd 99bf 15bd 365e e23a 04ee 093c
000001c0: 4a15 c3bc 11f2 383c ab95 13bd 9e8b 4c3e
000001d0: cc4f 3b3d 5c10 253d 4180 0b3d db7f cd3c
000001e0: d83f 5dba 60d3 e03c b266 f2be d6f7 f93c
000001f0: 4bfb 833b 5287 2c3c e3a5 e73a 7e27 afbd
00000200: 2208 aabc cba9 503d 66c4 01bd d0ea 8fbc
00000210: e133 fb3b 2438 2cbd df44 b03a 1d88 ec3b
00000220: 2c38 553c 8679 123d 1acc 8cbd 02c5 6b3b
00000230: 25da bf3c 7cfa 97bc a66f 7f3b 7572 613d
00000240: fb7e 4c3d 4306 afbc 8b3f 113b 348c 3fbd
00000250: 1f1d 103c 76dd c3bb 4b37 b23e 49db d43c
00000260: b72e 8c3c e145 de3c 1a2a 073d f37f 94bc
00000270: 16ef 16bc d65b 27bc 747e a53c f3c7 58bc
00000280: ebfe 503c 0f99 3fbc 01d3 b23b 1229 25bd
00000290: 63f7 8b3c 7592 9fbd 913f a3bc accf 283b
000002a0: 1865 23bc 00ff 9d3a 7bcc 67b9 0137 b43b
000002b0: 4ab8 543d 7f4d 22bc 8df5 db3b acfd c6bb
000002c0: b8ff d6bd cc34 a73d 17c7 663d 90b9 fe3c
000002d0: 00a5 1dbc 07aa 393d 250e 92bb a41e f7bc
000002e0: 6045 e1bc 3b26 5fbd a4a5 463d dd58 9b3d
000002f0: b3c7 1bbd 6813 d13a b5eb 173d 8b5f 4dbc
00000300: babe a93a 4e38 e53c de3e f33c 4b82 ed3b
00000310: 78cb adbc b0bd c7bc 30a4 823b 46da 80bc
00000320: 2fa6 94bd e2d3 b1bc cca3 82ba 5f9f b1bc
00000330: 934a bdbc 528d 0c3d 52ae 62bd cfa3 28bc
00000340: e7c7 413d a13c bfbc b8d5 07bd 4728 4b3d
00000350: fd1d 24bd d65f a0bb 0655 0fbf fd8e 5f3d
00000360: d525 03bd 16ec 2cbb 8c9c ff3c ce7d 0bbb
00000370: 1616 d4bc cf53 803c f48d ca3c b496 e2bc
00000380: 1690 7ebb 4016 183c 7c38 21bc 6304 cf39
00000390: 2cc9 833b ec0a 4f3c cce7 d23c 382d 443d
000003a0: 4f3a 783c 7f94 553d 216e 1939 23a8 ba3c
000003b0: 42f7 253c d603 05bd 4026 fdbc 4d8e 3f3c
000003c0: da6c af3b 7b5e 9d3c 8046 0fbc 9bb0 893c
000003d0: 4e0f d23b f9fa 533d 1243 153d 20c4 5c3c
000003e0: 937d a6bc b28c 65bd 1ffd 80bd c57a 91bc
000003f0: efd5 843d 928d 753c fe68 f83c aeff 9e3d

bias f4 [5]
0.21538745 0.23107421 0.20542252 0.23070687 0.2281621
00000000: 878e 5c3e b89e 6c3e 485a 523e 6c3e 6c3e
00000010: 53a3 693e

exp_avg f4 [256, 7]
-6e-45 -6e-45 6e-45 -6e-45 6e-45 -6e-45 6e-45 6e-45
-6e-45 6e-45 6e-45 -6e-45 6e-45 6e-45 0.0 0.0
0.0 0.0 0.0 0.0 0.0 6e-45 -6e-45 -6e-45
-6e-45 6e-45 6e-45 6e-45 6e-45 -6e-45 -6e-45 6e-45
-6e-45 6e-45 6e-45 6e-45 -6e-45 -6e-45 -6e-45 -6e-45
6e-45 -6e-45 6e-45 -6e-45 6e-45 6e-45 -6e-45 6e-45
6e-45 6e-45 -6e-45 6e-45 6e-45 6e-45 6e-45 -6e-45
6e-45 -6e-45 -6e-45 6e-45 -6e-45 6e-45 6e-45 6e-45
-6e-45 6e-45 6e-45 -6e-45 6e-45 -6e-45 -6e-45 6e-45
-6e-45 6e-45 -6e-45 6e-45 -6e-45 -6e-45 6e-45 -6e-45
-6e-45 -6e-45 -6e-45 6e-45 6e-45 -6e-45 -6e-45 6e-45
6e-45 6e-45 6e-45 -6e-45 6e-45 -6e-45 -6e-45 6e-45
-6e-45 6e-45 0.0 0.0 0.0 0.0 0.0 0.0
0.0 6e-45 6e-45 -6e-45 -6e-45 -6e-45 6e-45 -6e-45
6e-45 6e-45 6e-45 -6e-45 -6e-45 6e-45 -6e-45 -6e-45
6e-45 -6e-45 -6e-45 6e-45 -6e-45 6e-45 6e-45 -6e-45
6e-45 6e-45 6e-45 6e-45 -6e-45 6e-45 -6e-45 6e-45
6e-45 6e-45 6e-45 -6e-45 6e-45 -6e-45 6e-45 6e-45
-6e-45 6e-45 -6e-45 0.0 0.0 0.0 0.0 0.0
0.0 0.0 0.0 0.0 0.0 0.0 0.0 0.0
0.0 6e-45 6e-45 -6e-45 6e-45 -6e-45 6e-45 -6e-45
-6e-45 6e-45 -6e-45 -6e-45 -6e-45 -6e-45 6e-45 0.0
0.0 0.0 0.0 0.0 0.0 0.0 -6e-45 -6e-45
6e-45 6e-45 6e-45 6e-45 6e-45 -6e-45 -6e-45 6e-45
6e-45 6e-45 6e-45 6e-45 -6e-45 -6e-45 -6e-45 6e-45
-6e-45 6e-45 6e-45 0.0 0.0 0.0 0.0 0.0
0.0 0.0 -6e-45 6e-45 6e-45 -6e-45 6e-45 6e-45
-6e-45 6e-45 -6e-45 6e-45 6e-45 6e-45 6e-45 -6e-45
-6e-45 6e-45 -6e-45 -6e-45 6e-45 -6e-45 -6e-45 6e-45
-6e-45 6e-45 6e-45 6e-45 6e-45 -6e-45 6e-45 -6e-45
-6e-45 -6e-45 6e-45 6e-45 6e-45 -6e-45 6e-45 -6e-45
-6e-45 6e-45 -6e-45 6e-45 6e-45 -6e-45 -6e-45 -6e-45
00000000: 0400 0080 0400 0080 0400 0000 0400 0080
00000010: 0400 0000 0400 0080 0400 0000 0400 0000
00000020: 0400 0080 0400 0000 0400 0000 0400 0080
00000030: 0400 0000 0400 0000 0000 0000 0000 0000
00000040: 0000 0000 0000 0000 0000 0000 0000 0000
00000050: 0000 0000 0400 0000 0400 0080 0400 0080
00000060: 0400 0080 0400 0000 0400 0000 0400 0000
00000070: 0400 0000 0400 0080 0400 0080 0400 0000
00000080: 0400 0080 0400 0000 0400 0000 0400 0000
00000090: 0400 0080 0400 0080 0400 0080 0400 0080
000000a0: 0400 0000 0400 0080 0400 0000 0400 0080
000000b0: 0400 0000 0400 0000 0400 0080 0400 0000
000000c0: 0400 0000 0400 0000 0400 0080 0400 0000
000000d0: 0400 0000 0400 0000 0400 0000 0400 0080
000000e0: 0400 0000 0400 0080 0400 0080 0400 0000
000000f0: 0400 0080 0400 0000 0400 0000 0400 0000
00000100: 0400 0080 0400 0000 0400 0000 0400 0080
00000110: 0400 0000 0400 0080 0400 0080 0400 0000
00000120: 0400 0080 0400 0000 0400 0080 0400 0000
00000130: 0400 0080 0400 0080 0400 0000 0400 0080
00000140: 0400 0080 0400 0080 0400 0080 0400 0000
00000150: 0400 0000 0400 0080 0400 0080 0400 0000
00000160: 0400 0000 0400 0000 0400 0000 0400 0080
00000170: 0400 0000 0400 0080 0400 0080 0400 0000
00000180: 0400 0080 0400 0000 0000 0000 0000 0000
00000190: 0000 0000 0000 0000 0000 0000 0000 0000
000001a0: 0000 0000 0400 0000 0400 0000 0400 0080
000001b0: 0400 0080 0400 0080 0400 0000 0400 0080
000001c0: 0400 0000 0400 0000 0400 0000 0400 0080
000001d0: 0400 0080 0400 0000 0400 0080 0400 0080
000001e0: 0400 0000 0400 0080 0400 0080 0400 0000
000001f0: 0400 0080 0400 0000 0400 0000 0400 0080
00000200: 0400 0000 0400 0000 0400 0000 0400 0000
00000210: 0400 0080 0400 0000 0400 0080 0400 0000
00000220: 0400 0000 0400 0000 0400 0000 0400 0080
00000230: 0400 0000 0400 0080 0400 0000 0400 0000
00000240: 0400 0080 0400 0000 0400 0080 0000 0000
00000250: 0000 0000 0000 0000 0000 0000 0000 0000
00000260: 0000 0000 0000 0000 0000 0000 0000 0000
00000270: 0000 0000 0000 0000 0000 0000 0000 0000
00000280: 0000 0000 0400 0000 0400 0000 0400 0080
00000290: 0400 0000 0400 0080 0400 0000 0400 0080
000002a0: 0400 0080 0400 0000 0400 0080 0400 0080
000002b0: 0400 0080 0400 0080 0400 0000 0000 0000
000002c0: 0000 0000 0000 0000 0000 0000 0000 0000
000002d0: 0000 0000 0000 0000 0400 0080 0400 0080
000002e0: 0400 0000 0400 0000 0400 0000 0400 0000
000002f0: 0400 0000 0400 0080 0400 0080 0400 0000
00000300: 0400 0000 0400 0000 0400 0000 0400 0000
00000310: 0400 0080 0400 0080 0400 0080 0400 0000
00000320: 0400 0080 0400 0000 0400 0000 0000 0000
00000330: 0000 0000 0000 0000 0000 0000 0000 0000
00000340: 0000 0000 0000 0000 0400 0080 0400 0000
00000350: 0400 0000 0400 0080 0400 0000 0400 0000
00000360: 0400 0080 0400 0000 0400 0080 0400 0000
00000370: 0400 0000 0400 0000 0400 0000 0400 0080
00000380: 0400 0080 0400 0000 0400 0080 0400 0080
00000390: 0400 0000 0400 0080 0400 0080 0400 0000
000003a0: 0400 0080 0400 0000 0400 0000 0400 0000
000003b0: 0400 0000 0400 0080 0400 0000 0400 0080
000003c0: 0400 0080 0400 0080 0400 0000 0400 0000
000003d0: 0400 0000 0400 0080 0400 0000 0400 0080
000003e0: 0400 0080 0400 0000 0400 0080 0400 0000
000003f0: 0400 0000 0400 0080 0400 0080 0400 0080

exp_avg_sq f4 [256, 7]
7e-43 7e-43 7e-43 7e-43 7e-43 7e-43 7e-43 7e-43
7e-43 7e-43 7e-43 7e-43 7e-43 7e-43 0.0 0.0
0.0 0.0 0.0 0.0 0.0 7e-43 7e-43 7e-43
7e-43 7e-43 7e-43 7e-43 7e-43 7e-43 7e-43 7e-43
7e-43 7e-43 7e-43 7e-43 7e-43 7e-43 7e-43 7e-43
7e-43 7e-43 7e-43 7e-43 7e-43 7e-43 7e-43 7e-43
7e-43 7e-43 7e-43 7e-43 7e-43 7e-43 7e-43 7e-43
7e-43 7e-43 7e-43 7e-43 7e-43 7e-43 7e-43 7e-43
7e-43 7e-43 7e-43 7e-43 7e-43 7e-43 7e-43 7e-43
7e-43 7e-43 7e-43 7e-43 7e-43 7e-43 7e-43 7e-43
7e-43 7e-43 7e-43 7e-43 7e-43 7e-43 7e-43 7e-43
7e-43 7e-43 7e-43 7e-43 7e-43 7e-43 7e-43 7e-43
7e-43 7e-43 0.0 0.0 0.0 0.0 0.0 0.0
0.0 7e-43 7e-43 7e-43 7e-43 7e-43 7e-43 7e-43
7e-43 7e-43 7e-43 7e-43 7e-43 7e-43 7e-43 7e-43
7e-43 7e-43 7e-43 7e-43 7e-43 7e-43 7e-43 7e-43
7e-43 7e-43 7e-43 7e-43 7e-43 7e-43 7e-43 7e-43
7e-43 7e-43 7e-43 7e-43 7e-43 7e-43 7e-43 7e-43
7e-43 7e-43 7e-43 0.0 0.0 0.0 0.0 0.0
0.0 0.0 0.0 0.0 0.0 0.0 0.0 0.0
0.0 7e-43 7e-43 7e-43 7e-43 7e-43 7e-43 7e-43
7e-43 7e-43 7e-43 7e-43 7e-43 7e-43 7e-43 0.0
0.0 0.0 0.0 0.0 0.0 0.0 7e-43 7e-43
7e-43 7e-43 7e-43 7e-43 7e-43 7e-43 7e-43 7e-43
7e-43 7e-43 7e-43 7e-43 7e-43 7e-43 7e-43 7e-43
7e-43 7e-43 7e-43 0.0 0.0 0.0 0.0 0.0
0.0 0.0 7e-43 7e-43 7e-43 7e-43 7e-43 7e-43
7e-43 7e-43 7e-43 7e-43 7e-43 7e-43 7e-43 7e-43
7e-43 7e-43 7e-43 7e-43 7e-43 7e-43 7e-43 7e-43
7e-43 7e-43 7e-43 7e-43 7e-43 7e-43 7e-43 7e-43
7e-43 7e-43 7e-43 7e-43 7e-43 7e-43 7e-43 7e-43
7e-43 7e-43 7e-43 7e-43 7e-43 7e-43 7e-43 7e-43
00000000: f401 0000 f401 0000 f401 0000 f401 0000
00000010: f401 0000 f401 0000 f401 0000 f401 0000
00000020: f401 0000 f401 0000 f401 0000 f401 0000
00000030: f401 0000 f401 0000 0000 0000 0000 0000
00000040: 0000 0000 0000 0000 0000 0000 0000 0000
00000050: 0000 0000 f401 0000 f401 0000 f401 0000
00000060: f401 0000 f401 0000 f401 0000 f401 0000
00000070: f401 0000 f401 0000 f401 0000 f401 0000
00000080: f401 0000 f401 0000 f401 0000 f401 0000
00000090: f401 0000 f401 0000 f401 0000 f401 0000
000000a0: f401 0000 f401 0000 f401 0000 f401 0000
000000b0: f401 0000 f401 0000 f401 0000 f401 0000
000000c0: f401 0000 f401 0000 f401 0000 f401 0000
000000d0: f401 0000 f401 0000 f401 0000 f401 0000
000000e0: f401 0000 f401 0000 f401 0000 f401 0000
000000f0: f401 0000 f401 0000 f401 0000 f401 0000
00000100: f401 0000 f401 0000 f401 0000 f401 0000
00000110: f401 0000 f401 0000 f401 0000 f401 0000
00000120: f401 0000 f401 0000 f401 0000 f401 0000
00000130: f401 0000 f401 0000 f401 0000 f401 0000
00000140: f401 0000 f401 0000 f401 0000 f401 0000
00000150: f401 0000 f401 0000 f401 0000 f401 0000
00000160: f401 0000 f401 0000 f401 0000 f401 0000
00000170: f401 0000 f401 0000 f401 0000 f401 0000
00000180: f401 0000 f401 0000 0000 0000 0000 0000
00000190: 0000 0000 0000 0000 0000 0000 0000 0000
000001a0: 0000 0000 f401 0000 f401 0000 f401 0000
000001b0: f401 0000 f401 0000 f401 0000 f401 0000
000001c0: f401 0000 f401 0000 f401 0000 f401 0000
000001d0: f401 0000 f401 0000 f401 0000 f401 0000
000001e0: f401 0000 f401 0000 f401 0000 f401 0000
000001f0: f401 0000 f401 0000 f401 0000 f401 0000
00000200: f401 0000 f401 0000 f401 0000 f401 0000
00000210: f401 0000 f401 0000 f401 0000 f401 0000
00000220: f401 0000 f401 0000 f401 0000 f401 0000
00000230: f401 0000 f401 0000 f401 0000 f401 0000
00000240: f401 0000 f401 0000 f401 0000 0000 0000
00000250: 0000 0000 0000 0000 0000 0000 0000 0000
00000260: 0000 0000 0000 0000 0000 0000 0000 0000
00000270: 0000 0000 0000 0000 0000 0000 0000 0000
00000280: 0000 0000 f401 0000 f401 0000 f401 0000
00000290: f401 0000 f401 0000 f401 0000 f401 0000
000002a0: f401 0000 f401 0000 f401 0000 f401 0000
000002b0: f401 0000 f401 0000 f401 0000 0000 0000
000002c0: 0000 0000 0000 0000 0000 0000 0000 0000
000002d0: 0000 0000 0000 0000 f401 0000 f401 0000
000002e0: f401 0000 f401 0000 f401 0000 f401 0000
000002f0: f401 0000 f401 0000 f401 0000 f401 0000
00000300: f401 0000 f401 0000 f401 0000 f401 0000
00000310: f401 0000 f401 0000 f401 0000 f401 0000
00000320: f401 0000 f401 0000 f401 0000 0000 0000
00000330: 0000 0000 0000 0000 0000 0000 0000 0000
00000340: 0000 0000 0000 0000 f401 0000 f401 0000
00000350: f401 0000 f401 0000 f401 0000 f401 0000
00000360: f401 0000 f401 0000 f401 0000 f401 0000
00000370: f401 0000 f401 0000 f401 0000 f401 0000
00000380: f401 0000 f401 0000 f401 0000 f401 0000
00000390: f401 0000 f401 0000 f401 0000 f401 0000
000003a0: f401 0000 f401 0000 f401 0000 f401 0000
000003b0: f401 0000 f401 0000 f401 0000 f401 0000
000003c0: f401 0000 f401 0000 f401 0000 f401 0000
000003d0: f401 0000 f401 0000 f401 0000 f401 0000
000003e0: f401 0000 f401 0000 f401 0000 f401 0000
000003f0: f401 0000 f401 0000 f401 0000 f401 0000

exp_avg f4 [256]
-6e-45 6e-45 0.0 6e-45 6e-45 6e-45 6e-45 6e-45
6e-45 6e-45 6e-45 -6e-45 6e-45 -6e-45 0.0 6e-45
6e-45 -6e-45 6e-45 6e-45 6e-45 0.0 0.0 6e-45
-6e-45 0.0 6e-45 6e-45 6e-45 0.0 -6e-45 6e-45
-6e-45 6e-45 6e-45 -6e-45 6e-45 6e-45 -6e-45 0.0
-6e-45 -6e-45 6e-45 -6e-45 6e-45 -6e-45 6e-45 6e-45
-6e-45 -6e-45 -6e-45 6e-45 6e-45 -6e-45 -6e-45 6e-45
6e-45 0.0 6e-45 6e-45 0.0 0.0 0.0 -6e-45
6e-45 -6e-45 6e-45 6e-45 6e-45 6e-45 -6e-45 -6e-45
6e-45 -6e-45 -6e-45 6e-45 6e-45 6e-45 6e-45 6e-45
6e-45 6e-45 6e-45 6e-45 -6e-45 6e-45 -6e-45 6e-45
-6e-45 -6e-45 0.0 6e-45 -6e-45 6e-45 6e-45 6e-45
6e-45 6e-45 6e-45 6e-45 -6e-45 6e-45 6e-45 -6e-45
6e-45 6e-45 6e-45 -6e-45 6e-45 6e-45 -6e-45 6e-45
6e-45 6e-45 6e-45 -6e-45 6e-45 -6e-45 6e-45 6e-45
6e-45 6e-45 6e-45 0.0 6e-45 -6e-45 -6e-45 0.0
6e-45 -6e-45 -6e-45 6e-45 6e-45 0.0 6e-45 -6e-45
6e-45 -6e-45 -6e-45 0.0 -6e-45 6e-45 -6e-45 -6e-45
6e-45 -6e-45 6e-45 6e-45 6e-45 6e-45 -6e-45 -6e-45
6e-45 -6e-45 6e-45 6e-45 6e-45 6e-45 -6e-45 6e-45
6e-45 6e-45 6e-45 -6e-45 -6e-45 0.0 6e-45 6e-45
-6e-45 6e-45 6e-45 6e-45 6e-45 6e-45 0.0 0.0
-6e-45 6e-45 6e-45 0.0 6e-45 -6e-45 6e-45 6e-45
6e-45 6e-45 6e-45 6e-45 -6e-45 6e-45 6e-45 6e-45
6e-45 6e-45 6e-45 6e-45 6e-45 6e-45 0.0 6e-45
6e-45 -6e-45 0.0 -6e-45 6e-45 6e-45 6e-45 -6e-45
6e-45 6e-45 6e-45 -6e-45 6e-45 0.0 6e-45 -6e-45
-6e-45 -6e-45 6e-45 6e-45 6e-45 6e-45 -6e-45 6e-45
-6e-45 0.0 6e-45 6e-45 6e-45 6e-45 6e-45 6e-45
-6e-45 6e-45 -6e-45 -6e-45 -6e-45 -6e-45 -6e-45 6e-45
6e-45 6e-45 6e-45 6e-45 -6e-45 6e-45 6e-45 6e-45
0.0 -6e-45 -6e-45 6e-45 6e-45 6e-45 6e-45 -6e-45
00000000: 0400 0080 0400 0000 0000 0000 0400 0000
00000010: 0400 0000 0400 0000 0400 0000 0400 0000
00000020: 0400 0000 0400 0000 0400 0000 0400 0080
00000030: 0400 0000 0400 0080 0000 0000 0400 0000
00000040: 0400 0000 0400 0080 0400 0000 0400 0000
00000050: 0400 0000 0000 0000 0000 0000 0400 0000
00000060: 0400 0080 0000 0000 0400 0000 0400 0000
00000070: 0400 0000 0000 0000 0400 0080 0400 0000
00000080: 0400 0080 0400 0000 0400 0000 0400 0080
00000090: 0400 0000 0400 0000 0400 0080 0000 0000
000000a0: 0400 0080 0400 0080 0400 0000 0400 0080
000000b0: 0400 0000 0400 0080 0400 0000 0400 0000
000000c0: 0400 0080 0400 0080 0400 0080 0400 0000
000000d0: 0400 0000 0400 0080 0400 0080 0400 0000
000000e0: 0400 0000 0000 0000 0400 0000 0400 0000
000000f0: 0000 0000 0000 0000 0000 0000 0400 0080
00000100: 0400 0000 0400 0080 0400 0000 0400 0000
00000110: 0400 0000 0400 0000 0400 0080 0400 0080
00000120: 0400 0000 0400 0080 0400 0080 0400 0000
00000130: 0400 0000 0400 0000 0400 0000 0400 0000
00000140: 0400 0000 0400 0000 0400 0000 0400 0000
00000150: 0400 0080 0400 0000 0400 0080 0400 0000
00000160: 0400 0080 0400 0080 0000 0000 0400 0000
00000170: 0400 0080 0400 0000 0400 0000 0400 0000
00000180: 0400 0000 0400 0000 0400 0000 0400 0000
00000190: 0400 0080 0400 0000 0400 0000 0400 0080
000001a0: 0400 0000 0400 0000 0400 0000 0400 0080
000001b0: 0400 0000 0400 0000 0400 0080 0400 0000
000001c0: 0400 0000 0400 0000 0400 0000 0400 0080
000001d0: 0400 0000 0400 0080 0400 0000 0400 0000
000001e0: 0400 0000 0400 0000 0400 0000 0000 0000
000001f0: 0400 0000 0400 0080 0400 0080 0000 0000
00000200: 0400 0000 0400 0080 0400 0080 0400 0000
00000210: 0400 0000 0000 0000 0400 0000 0400 0080
00000220: 0400 0000 0400 0080 0400 0080 0000 0000
00000230: 0400 0080 0400 0000 0400 0080 0400 0080
00000240: 0400 0000 0400 0080 0400 0000 0400 0000
00000250: 0400 0000 0400 0000 0400 0080 0400 0080
00000260: 0400 0000 0400 0080 0400 0000 0400 0000
00000270: 0400 0000 0400 0000 0400 0080 0400 0000
00000280: 0400 0000 0400 0000 0400 0000 0400 0080
00000290: 0400 0080 0000 0000 0400 0000 0400 0000
000002a0: 0400 0080 0400 0000 0400 0000 0400 0000
000002b0: 0400 0000 0400 0000 0000 0000 0000 0000
000002c0: 0400 0080 0400 0000 0400 0000 0000 0000
000002d0: 0400 0000 0400 0080 0400 0000 0400 0000
000002e0: 0400 0000 0400 0000 0400 0000 0400 0000
000002f0: 0400 0080 0400 0000 0400 0000 0400 0000
00000300: 0400 0000 0400 0000 0400 0000 0400 0000
00000310: 0400 0000 0400 0000 0000 0000 0400 0000
00000320: 0400 0000 0400 0080 0000 0000 0400 0080
00000330: 0400 0000 0400 0000 0400 0000 0400 0080
00000340: 0400 0000 0400 0000 0400 0000 0400 0080
00000350: 0400 0000 0000 0000 0400 0000 0400 0080
00000360: 0400 0080 0400 0080 0400 0000 0400 0000
00000370: 0400 0000 0400 0000 0400 0080 0400 0000
00000380: 0400 0080 0000 0000 0400 0000 0400 0000
00000390: 0400 0000 0400 0000 0400 0000 0400 0000
000003a0: 0400 0080 0400 0000 0400 0080 0400 0080
000003b0: 0400 0080 0400 0080 0400 0080 0400 0000
000003c0: 0400 0000 0400 0000 0400 0000 0400 0000
000003d0: 0400 0080 0400 0000 0400 0000 0400 0000
000003e0: 0000 0000 0400 0080 0400 0080 0400 0000
000003f0: 0400 0000 0400 0000 0400 0000 0400 0080
