master_thesis/auto_docking/neural_network_models/trained_model.pt (torch, 829487 bytes, 18 tensors)

weight f4 [256, 5]
000000 4c 76 5a 3e a0 39 97 bc ac d7 d7 bd 1c 5e b7 bd
       0.21334189 -0.018460095 -0.10539183 -0.08953497
000010 1e 1f 69 be 10 7b ec 3d 8d cd 73 3e 4e e8 20 3e
       -0.22765777 0.1154691 0.2380888 0.15713617
000020 40 0b 8a be 3b 02 04 be 18 27 d3 3e 89 54 c2 3d
       -0.26961708 -0.12891476 0.41240764 0.0948878
000030 36 33 08 3f f9 2b 93 3e b0 d3 b8 bd 30 17 1a bd
       0.5320314 0.28744486 -0.09024751 -0.03761977
000040 50 a6 43 bd 80 72 9c 3d ec 13 a4 bd 28 d1 c5 bd
       -0.04776603 0.07639027 -0.08011612 -0.09659034
000050 52 8c d5 3e c4 ce 99 be 78 e7 a4 3d 16 1d 27 3e
       0.41708618 -0.30040562 0.08051962 0.16319689
000060 bf 3c df 3d 20 c2 79 bd 65 0d 45 3e 11 06 4f 3d
       0.10900258 -0.060976148 0.19243391 0.050542895
000070 ed 2e 08 bd 03 1e 4a bf b3 b7 85 be 50 41 44 bd
       -0.033247877 -0.78952044 -0.26116714 -0.04791385
000080 d0 6c 11 bd ea b8 15 be 50 09 a7 3e 2e 2c 6d 3f
       -0.035504162 -0.1462132 0.32624292 0.9264554
000090 7a 94 ee 3e f7 1d 94 3e 5a d6 31 be c1 e0 d1 3e
       0.46597654 0.2892911 -0.17366925 0.40991786
0000a0 f2 d3 72 bc e5 4b b4 3d a6 64 26 bd fb a8 6b be
       -0.0148210395 0.08803538 -0.04062333 -0.2301368
0000b0 37 19 8d 3e 22 dd 31 be 0d 9f bd 3e dd 1e 8e 3d
       0.275583 -0.17369512 0.3703541 0.069394805
0000c0 e0 ac 61 3d 4a 4f 28 be cd 31 82 3e f0 c7 19 be
       0.055096507 -0.16436496 0.2542862 -0.15017676
0000d0 e0 b9 63 3c be 22 14 3d f3 f9 9f 3d 96 81 a6 be
       0.0138992965 0.036165945 0.07811346 -0.3252074
0000e0 15 f4 50 be ad 23 52 3e 8d fe 2c 3e 95 e6 59 3e
       -0.2040561 0.20521422 0.16893978 0.21279366
0000f0 b4 e6 e1 3e 38 46 5c bd 58 68 b7 3e 6c e1 ae be
       0.44121325 -0.053777903 0.35821795 -0.34156358
000100 c9 49 a1 be 63 5b 9c 3c d9 60 d3 3d 1d 4e 03 be
       -0.31501606 0.019086545 0.103212066 -0.12822767
000110 11 bb 50 be d6 df b8 3d e4 41 63 3e 92 13 bb be
       -0.2038386 0.09027068 0.22193104 -0.36538368
000120 28 64 2c 3d 34 5c c5 bd 40 28 50 3d 50 e7 bc 3d
       0.042087704 -0.09636727 0.050819635 0.09223807
000130 38 19 43 be c4 a8 c2 bd ac 56 f0 bd 5e 21 23 be
       -0.19052589 -0.09504846 -0.11735281 -0.15930697
000140 68 37 c2 3d b4 1b 8b be 60 3c 09 3d 38 0e 44 3d
       0.09483224 -0.27169573 0.033504844 0.047865123
000150 24 1c b5 be ac f1 85 3e a0 e1 0d bd fc 56 e1 3e
       -0.35373032 0.26160944 -0.034639 0.44011676
000160 a5 13 bc be 9a f5 b2 3e e5 48 93 3c e8 52 3a be
       -0.36733738 0.34953004 0.017979095 -0.18195689
000170 30 d8 50 bd 78 16 05 3c 42 12 8e 3b 18 35 b1 3f
       -0.050987422 0.008123033 0.0043356726 1.3844328
000180 57 ac 0d 3e 43 db c8 3e 72 5e 2e be 31 83 29 3e
       0.13835274 0.39229783 -0.17028216 0.16553952
000190 93 ac 2a be a2 40 95 bd 02 bc 6a be 4b 55 5f be
       -0.16667394 -0.07287718 -0.22923282 -0.2180988
0001a0 2d f2 cc 3d ce ec 23 c0 bf 4a 61 3e 0e cf 2d be
       0.10007129 -2.5613284 0.2200117 -0.16973516
0001b0 83 83 bb be 1c a8 37 3f 84 a7 2a 3e 60 55 bb 3c
       -0.36623773 0.7174089 0.16665465 0.022867858
0001c0 00 8c 0c 3e ec 56 97 be e0 da 60 3c 92 79 4e 3e
       0.13725281 -0.29558504 0.013724059 0.20163563
0001d0 23 fc 90 be 7a 14 09 be 2b 0b 02 bd a2 14 0c 3e
       -0.28317365 -0.13386717 -0.03174893 0.13679746
0001e0 1c e1 bb be bc db 03 3e a6 3a 0d be 01 94 81 be
       -0.36695182 0.12876791 -0.13791904 -0.2530823
0001f0 27 c0 e1 3c 5e 1e 9e 3e 4a 28 97 be c3 6f 39 3d
       0.027557446 0.30882543 -0.29522926 0.0452726
000200 2c 89 13 3e 28 1e 9a bc ff 61 95 3e db 7e 30 3e
       0.14407796 -0.018813208 0.29176328 0.17235892
000210 3c 72 6e be 46 4b 53 be 87 75 53 bf 6c a2 ab bd
       -0.23285764 -0.20634183 -0.8260121 -0.08380589
000220 86 c8 bd be fc 10 20 3e a0 67 12 3d 4e 52 b8 3e
       -0.3706705 0.15631479 0.035743356 0.36000293
000230 b6 8c 9b be 7a 50 be be 1e 2f 5c 3e 04 8b 86 3e
       -0.3038079 -0.37170774 0.21502349 0.26277936
000240 92 1d 18 3e c8 5a f5 3d 3d ef 99 be 9c e0 71 3e
       0.1485503 0.11980206 -0.30065337 0.23620838
000250 38 d5 8e 3d e0 cd d7 be 7a 1e f3 3e 00 60 de bb
       0.06974262 -0.42149258 0.4748419 -0.0067863464
000260 dc 47 e8 3d 6b d6 45 bc 61 63 68 3e 45 26 6f be
       0.11341831 -0.012075047 0.2269416 -0.23354442
000270 f8 cc 1c 3e d4 c6 d2 3e 8b a0 61 be 68 19 3d bd
       0.15312564 0.4116732 -0.22033899 -0.046166807
000280 52 64 72 3f 67 09 ad 3e 83 20 c7 3e 12 40 60 3d
       0.94684327 0.33796236 0.38891992 0.054748602
000290 c6 ec e6 bd 24 67 00 bf 48 63 55 3c df 20 c6 3d
       -0.1127563 -0.5015738 0.013024159 0.096742384
0002a0 aa 86 c6 bc 51 f9 8a 3d ee ea 8e be 10 8b 1f 3d
       -0.024234135 0.067858346 -0.27913612 0.03895098
0002b0 b0 59 56 3e 78 02 25 be 3e 48 a4 3e dd a8 7d bf
       0.2093265 -0.16114223 0.32086366 -0.9908579
0002c0 ce 1d af bd eb df cb 3e 54 14 62 3e 74 c8 33 3e
       -0.08550607 0.39819273 0.22078067 0.17556936
0002d0 11 34 17 40 29 7c 99 be 8f 05 01 bf 6b f5 fe bd
       2.362553 -0.2997754 -0.50399107 -0.124491535
0002e0 0b 76 3d bd 84 96 c2 be 3b 10 79 bd d8 0d d1 3e
       -0.046255153 -0.3800546 -0.060806494 0.40830874
0002f0 19 62 d8 3d c8 a8 d6 be 40 54 7d bc 28 0c 46 be
       0.10565586 -0.41925645 -0.015461981 -0.19340575
000300 b0 17 f3 3c 18 66 9f 3d 38 d0 b2 3d 25 32 de 3e
       0.029674381 0.07783145 0.08731121 0.43397632
000310 00 f4 07 3e bf 03 de 3e 92 04 2e be d1 82 24 3e
       0.13276672 0.43362233 -0.16993931 0.16065527
000320 12 9b f8 3e 68 ed 6c be 3e a0 8f 3d 52 ad 22 3e
       0.4855581 -0.23137438 0.07012986 0.15886429
000330 87 bb 0d bf 68 84 c0 3d 94 9f a0 bd 0e 04 a3 3e
       -0.5536427 0.094002545 -0.07842937 0.3183903
000340 68 5c c3 bd e8 82 23 3e 61 bf bb 3e 73 87 f3 3e
       -0.095391095 0.15967906 0.36669448 0.47564277
000350 e9 30 e0 3e 96 fd 60 3d a3 3d 9a 3e 99 ca f7 3e
       0.43787315 0.05492934 0.3012515 0.48396757
000360 76 38 a2 3e 0a 31 89 bd 9c c8 b9 be 41 ba 6d 3e
       0.316837 -0.066988066 -0.36285865 0.23215581
000370 7c d5 a2 bd ee b7 b0 be b9 6d bf be ce d1 8a be
       -0.07950875 -0.34515327 -0.373884 -0.27113193
000380 da ab a9 3e 7c 69 1b 3e 9c ce 94 bd 10 79 99 bd
       0.33138925 0.15176958 -0.0726597 -0.07493794
000390 f8 f5 13 be ac 64 ba 3e 48 22 74 bf 65 d7 1d be
       -0.14449298 0.36404932 -0.9536481 -0.15414198
0003a0 63 54 fa 3d 7a 9d 81 3e 1d c5 19 bf 7b 9d ce be
       0.12223127 0.25315458 -0.60066396 -0.40354523
0003b0 bb 47 b0 be 28 6a 79 3e 8d e6 b2 be 04 3f 96 be
       -0.34429726 0.24356902 -0.3494152 -0.29344952
0003c0 ca 30 47 3e 93 7d 99 bc 13 98 dc 3e d0 e0 1c 3e
       0.19452205 -0.018736636 0.43084773 0.15320134
0003d0 f1 09 98 3e 6c d8 b9 bd b5 65 66 3d 4f 76 06 3f
       0.29695085 -0.09074482 0.05624934 0.52524275
0003e0 cf d8 33 3e 8d 2d 2e be d2 a6 74 be d0 9b ac be
       0.17563175 -0.17009564 -0.23891762 -0.33712626
0003f0 79 8a 27 bd 2b 82 98 3d ef 27 18 bd e7 78 43 bd
       -0.040903542 0.074467026 -0.03714746 -0.047722723

bias f4 [256]
000000 58 2f df be 80 75 96 bd 6d b1 46 be e8 4b 40 be
       -0.43590808 -0.0734663 -0.1940362 -0.18778956
000010 2d 09 72 3d df a8 b8 be f8 0e 41 3e a2 a0 8c 3e
       0.059090782 -0.36066338 0.18853366 0.27466303
000020 5b d0 a9 bd 54 84 c8 3e ca b5 12 be 89 49 5b be
       -0.08291694 0.39163458 -0.1432716 -0.2141477
000030 80 01 a8 3b 2a 86 82 3e 54 60 db bd 0f 7e b0 be
       0.005127132 0.25492984 -0.107117325 -0.34471175
000040 80 3f 8a 3e 70 71 a7 3d 1a 11 08 3e e3 27 07 3e
       0.27001572 0.08175933 0.13287774 0.1319881
000050 dc 96 b9 be aa b1 b1 3d b6 82 3e be 24 1b a1 be
       -0.3624791 0.08676465 -0.1860455 -0.3146602
000060 77 4d b2 3e 7b 13 ed bd 6d be a5 be 32 f3 a4 3e
       0.34824726 -0.11575981 -0.32371846 0.32216793
000070 67 22 6a 3e 74 fa 09 3e 6a 07 99 be 60 7e 63 3e
       0.22864686 0.13474447 -0.2988847 0.22216177
000080 18 86 01 3e 7d 1e fd bd f4 16 31 3e 0f f8 19 bf
       0.12648809 -0.12359331 0.17293912 -0.6014413
000090 57 e2 ef be 51 5e 1c 3e e9 30 64 be df 76 38 be
       -0.4685237 0.15270354 -0.22284283 -0.18014096
0000a0 12 0f 81 3d da a9 07 be d4 b4 13 3f 71 fd f0 bd
       0.063017026 -0.13248387 0.57697797 -0.1176709
0000b0 5c 00 3e 3e 25 75 b9 be e6 12 4d be b0 7f 0e be
       0.18554825 -0.36222187 -0.2002674 -0.13915896
0000c0 fb ce 22 bd 82 4c 19 bf 03 59 81 bd ca bc 1c bf
       -0.039748173 -0.59882367 -0.06315806 -0.6122557
0000d0 14 33 36 3e b0 69 a0 be 88 27 8e bd 7b 57 bf be
       0.17792922 -0.31330633 -0.06941134 -0.3737143
0000e0 4d 64 e3 be 9e 45 8f be 57 e6 d5 be ea 9f 83 be
       -0.4441246 -0.279828 -0.41777298 -0.25707942
0000f0 a7 c1 07 bf f1 30 5e be a4 a7 d3 be bc 2f b9 be
       -0.53029865 -0.21698357 -0.41338837 -0.3616923
000100 46 77 8d be e9 af b9 3e 84 88 18 bd 6d 8d 6d 3e
       -0.2763006 0.3626702 -0.037239566 0.23198481
000110 40 c3 bc bb 46 b6 a5 be f8 d4 8d 3e e2 98 07 3e
       -0.0057605803 -0.32365626 0.27701545 0.13241914
000120 50 26 3a 3e 4e 64 91 be a8 bd 70 3d db 04 88 3e
       0.18178678 -0.2839684 0.05877462 0.26566204
000130 28 70 83 3d 40 3e be be f0 3b 5c bd 6c 81 d6 3e
       0.064178765 -0.37156868 -0.0537681 0.41895616
000140 19 65 29 bf fa 50 41 be 18 bd 77 3e d3 c3 00 bd
       -0.6616989 -0.18878546 0.24193227 -0.031436753
000150 36 b9 a6 be cc f3 f5 be e8 1d b0 3e d4 bc b5 3e
       -0.3256318 -0.48037565 0.34397817 0.35495627
000160 41 78 bd be e0 d6 86 3e 00 0a 82 3e 52 8e 4b be
       -0.3700581 0.26335812 0.25398254 -0.1987851
000170 b3 ee 1d 3e 0f ae 90 be 50 01 a8 3e 5e cc 15 3d
       0.15423088 -0.28257796 0.328135 0.036571853
000180 e0 31 95 3e 32 05 b2 be 70 38 a0 be 32 a4 5c be
       0.29139614 -0.3476959 -0.31293058 -0.2154701
000190 0d 11 01 bf 11 95 17 be 04 bb 18 bf c4 4f c2 be
       -0.5041664 -0.14802958 -0.59660363 -0.3795148
0001a0 58 25 f5 3d 05 31 bd 3e 60 6e 1c 3f fa 92 53 3e
       0.119700134 0.3695146 0.6110592 0.20661536
0001b0 54 66 05 bf 6e e6 b2 be 98 6e b2 bd 18 a3 01 bd
       -0.52109265 -0.3494143 -0.087125 -0.03164968
0001c0 81 24 d1 be e9 31 a6 3d ed 6d be 3e 75 9f ad 3d
       -0.40848163 0.08114988 0.37193242 0.0847768
0001d0 58 dd b1 3e 34 f6 cd bd 7b 93 30 bd 3d c6 1b 3e
       0.34739184 -0.10056725 -0.0431094 0.1521234
0001e0 6a dd 53 bd 2b bb 82 bd 98 db 4d bd 1c 97 70 3e
       -0.05172483 -0.06383356 -0.05025825 0.23495144
0001f0 f4 9c bf be d8 9b 3d bd 0a 02 90 bb 03 d5 8c be
       -0.37424433 -0.046291202 -0.0043947743 -0.27506265
000200 85 b6 3e 3f c5 ab 37 bf 81 70 9c be 84 70 e8 be
       0.7449725 -0.71746475 -0.30554584 -0.45398343
000210 70 92 38 3e 26 b0 41 be 45 8b 16 3e f8 19 5f be
       0.18024611 -0.18914852 0.14701565 -0.2178725
000220 b0 8d 2f 3e 5c d9 de be a7 87 d3 3d 06 50 9f bd
       0.17143893 -0.43525207 0.10328608 -0.07778935
000230 80 b5 56 bc 8b 51 04 bf 06 1d 80 be f8 bf d4 bd
       -0.013104796 -0.51686925 -0.25022143 -0.10388178
000240 8c 81 3d bd 93 f2 15 bf 7f 02 bf be b4 7a 8d be
       -0.046266124 -0.58573264 -0.37306592 -0.27632678
000250 62 15 99 3e 26 cb 7a 3d 7a 66 94 3e 9c 14 68 3e
       0.29899126 0.061228894 0.28984433 0.22664112
000260 1b 9f 94 bc 30 f9 93 3d 18 58 8d be a0 42 ff 3c
       -0.018142274 0.07225263 -0.27606273 0.031159699
000270 91 12 08 bf 58 91 25 bd 1a f6 ae 3e 20 fa 8f 3e
       -0.5315333 -0.040421814 0.34172136 0.28120518
000280 59 73 c6 3d de 75 4e be aa 78 51 be aa 20 3a be
       0.096899696 -0.2016215 -0.20456186 -0.18176523
000290 73 a3 14 bf a2 35 36 bf 5a 89 e7 be cb ff 4c 3c
       -0.58061904 -0.7117559 -0.45221978 0.012512158
0002a0 68 b0 dc 3d 97 d1 ac be 45 49 ae be 46 fa ce be
       0.10775834 -0.33753654 -0.34040275 -0.40425318
0002b0 fe 98 0c 3d 29 20 60 be e6 df 94 be 04 79 6b 3e
       0.034325592 -0.21887268 -0.2907707 0.22995383
0002c0 02 6b eb 3e f9 5e 46 be 2d 9a 30 be b4 52 c9 bd
       0.45980078 -0.19372167 -0.17246313 -0.098302275
0002d0 34 1a 41 3e 04 04 66 be 6b de a0 3e 1e 16 ac be
       0.18857652 -0.2246247 0.3141969 -0.33610624
0002e0 7a 99 8a be 8d a6 cc be 89 fd 45 bf ca 0d cb be
       -0.27070218 -0.39970818 -0.7733999 -0.39658958
0002f0 b5 1a 1a bf 50 f5 2b 3e b6 e2 9d be b8 34 56 bd
       -0.60197 0.16792798 -0.3083703 -0.05229637
000300 93 6e 16 3e ae c1 36 be fd fd ef be 4c 4a 04 bf
       0.14690618 -0.1784732 -0.46873465 -0.5167587
000310 3c 9a b4 bd 40 a9 2c bc ef 51 ef be fc 3e b8 3e
       -0.0881848 -0.010538399 -0.46742198 0.35985553
000320 63 bd 33 3f d6 40 d5 be e6 e6 e1 3e ef b8 52 bf
       0.70210856 -0.41651028 0.44121474 -0.82313436
000330 e2 c2 25 be 14 46 d9 be 37 5f a6 3e 82 ff bd be
       -0.16187623 -0.42436278 0.32494518 -0.37109
000340 41 fc 1a bf 1e c3 c2 3e 6e 1e 4b bd 5f 71 16 be
       -0.6054116 0.38039488 -0.049589567 -0.14691685
000350 3e 10 ee be 94 5a a0 be af 17 1d bf cf a9 a4 bd
       -0.46496767 -0.31319106 -0.61364263 -0.08040201
000360 c8 a8 12 3e 1a 69 d6 be 20 b8 68 3e ca 32 04 3f
       0.14322197 -0.4187706 0.22726488 0.5164
000370 d0 1a 7d 3d f0 48 85 3d 4a d4 27 bf a9 c0 eb be
       0.06179315 0.06508052 -0.655583 -0.46045426
000380 5a fb 8e be eb 38 bc be 2a e0 4a be 3b c5 19 bf
       -0.2792614 -0.36762175 -0.19812074 -0.60066575
000390 64 59 9a 3e 97 ed 30 be b8 41 14 3d 11 86 9b be
       0.30146325 -0.17278133 0.036195487 -0.30375722
0003a0 d8 19 49 3e d5 b2 ae be 20 f9 79 bc e6 ff f9 bd
       0.19638765 -0.34120813 -0.01525715 -0.12207012
0003b0 28 10 ae be 45 fc 41 bf bc 42 17 3e fd 10 a9 bd
       -0.339967 -0.7577556 0.14771551 -0.082551934
0003c0 c8 3d 3a 3e cc 70 fe 3e 26 4f 4c be 2c 46 5a be
       0.1818763 0.49695432 -0.19952068 -0.21315831
0003d0 26 4e a7 bd ac 0a 4e 3e 40 63 e5 3b fa bb 6c 3d
       -0.081692025 0.20121258 0.007000357 0.057796456
0003e0 9d 89 a7 be 05 bf 92 be 88 be ee 3d 34 e9 cb 3e
       -0.32722178 -0.2866136 0.11657435 0.39826357
0003f0 27 88 eb bd 36 bb b7 3e 36 55 ac 3c 4e 25 ad be
       -0.115005784 0.35885018 0.021036725 -0.33817524

weight f4 [256, 256]
000000 68 a4 8e bc a4 76 76 bd 13 db f2 bc 6e 55 30 3d
       -0.01741238 -0.06017174 -0.029645478 0.043050222
000010 de d9 4e bc e7 e6 93 bd 34 b4 31 bd 56 f4 39 3d
       -0.012625186 -0.072217755 -0.043384746 0.045399033
000020 a6 57 0a bd 28 63 6c bd 82 f7 c0 3c c0 fe 11 bd
       -0.033774994 -0.05771175 0.02355552 -0.03564334
000030 48 a8 87 3c e0 cc 84 bd dc d4 6b bd 64 81 56 bd
       0.016559735 -0.06484389 -0.057576045 -0.05236949
000040 58 4f 06 bc a0 23 93 3b 1c 66 33 3c 00 26 ee ba
       -0.008197628 0.004490331 0.010949638 -0.0018169284
000050 4d f0 8a bd eb 4b 0d 3c 70 db de 3c 19 21 07 bd
       -0.06784115 0.008624057 0.027204245 -0.03299055
000060 24 c3 cd bc fc fd 61 3d b7 c6 60 bd 02 b9 3c bd
       -0.025117464 0.05517386 -0.05487701 -0.046074875
000070 ce 8b 10 3d 5c b1 84 3c 40 81 3f 3d 38 7d 27 bd
       0.03528958 0.016197853 0.04675412 -0.040890902
000080 96 6c 64 bd 5e fb 7e bd 5c 90 4a 3d 28 85 54 bc
       -0.055767618 -0.06225144 0.049454078 -0.0129712
000090 f9 84 8d bc 80 db 46 bd 1c 41 d5 3c a4 e4 cb 3c
       -0.01727532 -0.048549175 0.026032023 0.024889298
0000a0 a5 f3 87 bb 94 27 52 3d 18 bc 88 3c e0 80 d4 3c
       -0.0041489177 0.051307276 0.016691253 0.025940359
0000b0 70 41 1c bc 30 6e a6 3b 36 30 71 3d d4 58 79 3d
       -0.009537086 0.0050790533 0.05888387 0.06087573
0000c0 3d 5b bc bc 11 b8 82 bd 20 a7 28 bd ce 3a 0e 3d
       -0.022992725 -0.06382764 -0.041175008 0.03472405
0000d0 28 9f 11 3d 40 6a 3f bb 17 75 05 3d e7 53 14 bd
       0.035552174 -0.0029207617 0.03258237 -0.036212828
0000e0 7b 30 76 3d ac f2 15 3d 8a d4 69 3d 3e 2f 53 bd
       0.06010483 0.036608383 0.05708746 -0.051558726
0000f0 ca 9b 87 bd a8 7a d0 bc 65 4e a3 bd cc 37 50 bd
       -0.06621511 -0.025449112 -0.07973937 -0.050834462
000100 7b 69 c3 3c 8e 59 23 bd 8a f3 02 bd bc 27 67 bd
       0.023854008 -0.039880328 -0.03197054 -0.056434378
000110 e0 a3 14 bc b8 fd 36 bd 48 84 78 bc 32 c8 61 bd
       -0.009072274 -0.04467556 -0.015168257 -0.05512256
000120 c2 00 16 bd 00 d0 6f 3a 91 8c 41 bd 59 15 30 bd
       -0.036621816 0.0009148121 -0.047253195 -0.04298911
000130 64 40 92 bc 9e 66 6a 3d 4c b8 ba bc d0 fd 70 bd
       -0.01785297 0.05722677 -0.022792958 -0.058835804
000140 bd 20 57 bd 30 b5 12 3c 08 ae 89 bc 79 f4 09 bd
       -0.052521456 0.008954331 -0.016806617 -0.033680413
000150 6c f7 38 bd a1 4a ca 3c e0 82 31 3b d6 53 55 bd
       -0.045157835 0.024693789 0.0027086064 -0.052081905
000160 e0 ff 00 3c da 62 28 bd 52 42 66 bd 18 ea 72 bc
       0.007873505 -0.041109897 -0.05621559 -0.01482632
000170 0c ee 5e 3d 35 df 50 bc c8 97 47 3c f9 aa d1 bc
       0.054426238 -0.012748529 0.012182184 -0.025594221
000180 e2 e5 2a 3d 21 e8 f8 bc 60 21 da 3c d6 e3 28 bd
       0.04172314 -0.030384125 0.026627243 -0.041232906
000190 38 bf 51 3d b6 30 50 bd a5 df a1 bd 40 af 64 bc
       0.05120775 -0.050827704 -0.07903985 -0.0139577985
0001a0 fe 45 59 3d e3 b5 f0 bc b8 5f 1c bc 0c eb 87 3c
       0.053045265 -0.029383605 -0.0095443055 0.016591571
0001b0 11 a0 f2 bc b4 72 e7 3c 14 a9 e5 bc 5b 15 1b 3c
       -0.029617341 0.028252937 -0.028034724 0.009465541
0001c0 82 58 c9 bc 74 4f f6 bc 94 93 ed 3c ed d8 02 bc
       -0.024578337 -0.030067183 0.029001035 -0.007986289
0001d0 6c c7 ba 3c da 71 6b 3b c9 30 73 bd bc f8 f3 3c
       0.02280017 0.0035926015 -0.059372697 0.029781692
0001e0 62 d5 89 bd ba 86 15 bd 60 dd 2c bc 2b 44 aa bc
       -0.06730153 -0.03650544 -0.010550827 -0.020784458
0001f0 d6 4b 56 bd d8 55 a8 bc 96 9b d6 3c 7d e4 b7 bd
       -0.052318417 -0.020548746 0.026197236 -0.089791276
000200 91 e3 c0 bd 9d c9 0a 3d dc 18 05 bd 0d 89 09 bd
       -0.09418405 0.03388368 -0.03249441 -0.033577967
000210 24 79 23 bd ba 0e 2f 3d f9 0a eb 3c cf a5 85 3c
       -0.03991045 0.042738654 0.028691756 0.016314415
000220 60 5f be 3c 5c ea 86 3c 54 76 30 bc 8d 4e 9d bd
       0.023238838 0.016469173 -0.010770399 -0.07680998
000230 dc fa 82 3c 51 c3 16 3c 8c 57 e6 bc 30 8d 08 3c
       0.01598876 0.0092018405 -0.028117917 0.008334443
000240 64 1d 5f bd e8 82 f1 3c e4 21 71 3d c8 76 6b 3d
       -0.05447139 0.029481366 0.05887021 0.057486326
000250 0c fb 55 bd 5e 2c db bc 44 be 0d 3d a0 a1 b8 bc
       -0.05224137 -0.026754554 0.03460528 -0.022538006
000260 75 e3 84 bc 7d 88 ae bd 80 42 ca 3c 64 04 e8 3c
       -0.016221741 -0.08522127 0.024689913 0.028322406
000270 b8 30 10 3c a0 3b da 3c 54 c9 30 bd e0 57 54 bd
       0.008800678 0.02663976 -0.04316075 -0.051841617
000280 d4 ba 40 3c d3 20 15 bd 80 e0 3d bb 58 82 ec 3c
       0.011763293 -0.036408257 -0.0028972924 0.028870746
000290 db c2 13 bc 2e df 1e bd 14 91 6c bd 75 dd 87 bd
       -0.009018625 -0.03878706 -0.057755545 -0.066340365
0002a0 d0 e0 07 3d c0 fc 82 3a 1a e1 7f 3d 30 ce 45 3c
       0.033173382 0.0009993538 0.062470533 0.012073085
0002b0 de e5 9c bd 98 9c 76 bd dc 9b 81 3c 92 40 4a bd
       -0.07661031 -0.060207933 0.01582139 -0.049377985
0002c0 bc 33 b6 3c 8c ce bb 3c 9a ac ec 3b 4e 11 00 3d
       0.022241466 0.022925638 0.007222724 0.031266503
0002d0 18 54 c3 3c 01 53 8d bd 00 0b d9 39 b4 bc 44 3d
       0.02384381 -0.06900597 0.0004139766 0.048031524
0002e0 c0 64 3a bd 48 19 11 bc 1f 52 52 bc 46 ba 26 bd
       -0.04550624 -0.008856125 -0.012836962 -0.040704988
0002f0 11 8f b5 bd 80 e3 9d 3c ba d5 60 3d 76 b8 45 bd
       -0.088651784 0.01927352 0.054891326 -0.04827162
000300 2c 6c 96 bc 5c 2e c3 3c 9b 07 08 bc b8 90 6a bc
       -0.018362127 0.023825817 -0.008302595 -0.01431673
000310 d2 3e 67 bd 78 37 7a bd a2 50 a7 bd 32 61 44 3d
       -0.056456394 -0.061088055 -0.08169676 0.047944255
000320 aa 21 25 bd 00 9e 26 3b ff 64 ad bd b3 fb 93 bb
       -0.040315308 0.0025423765 -0.08466529 -0.004516089
000330 6c e0 b8 3c f4 d0 52 bd f5 63 97 bd 58 3a 63 3d
       0.02256795 -0.051468804 -0.07392112 0.055475563
000340 1d 51 ea bc 5c 72 51 3d e1 27 78 bc e8 bf 6f 3c
       -0.028603131 0.051134452 -0.015146227 0.014633156
000350 6d be 4f bd da 08 91 bd fa ae f9 3a fc d3 3b bd
       -0.050718714 -0.070817664 0.001904934 -0.04585646
000360 c0 76 17 3d ae 76 1d bd e8 8d 4d 3d 33 41 8c bd
       0.036978483 -0.03844326 0.05018416 -0.06848373
000370 14 a9 19 bd f8 49 5b bd a0 2a 9c 3a 22 f0 19 3d
       -0.03751476 -0.05353734 0.0011914559 0.037582524
000380 64 2d 84 3c c2 a9 39 3d c2 a1 6b 3c 25 d6 f9 bc
       0.016134925 0.04532791 0.014381828 -0.03049762
000390 f8 29 66 3d 6c 8d 64 bd a6 d6 37 3d e9 88 ac bc
       0.05619237 -0.055798933 0.04488244 -0.021061378
0003a0 e4 b5 51 bd ca cf 54 bd 12 e9 12 bd 01 19 79 bd
       -0.051198855 -0.051955976 -0.035866804 -0.06081486
0003b0 61 c4 94 bc 80 86 ae 3a 6c 3b ba ba 9f 60 85 bd
       -0.018160047 0.0013315231 -0.0014208383 -0.0651257
0003c0 a0 f6 45 bd ff 03 35 bd 96 34 a4 bd 49 a8 26 3b
       -0.048330903 -0.044193264 -0.080178425 0.0025429896
0003d0 3b 90 fa bc 78 99 78 3d 00 e2 02 3c d6 a4 b8 bc
       -0.030586353 0.060693234 0.007988453 -0.022539537
0003e0 12 84 07 bd cc ea a8 bd 38 07 e0 3c 8c 65 de 3c
       -0.033084936 -0.08247909 0.027347192 0.02714803
0003f0 2f be db 3c 18 db 78 bc 70 78 d3 bc cd e2 a9 3b
       0.026824085 -0.015188955 -0.025814265 0.0051845075

bias f4 [256]
000000 22 e5 91 bd 51 70 a5 3c dc ee d1 3c 3e 87 96 3c
       -0.07123782 0.020195158 0.025626592 0.018375035
000010 04 49 05 3a 4f 9c 9c bd 1a bf 01 3d d5 b0 89 bd
       0.00050844275 -0.07647001 0.03167639 -0.06723181
000020 24 75 d8 3b 40 18 61 bd 0b 74 3e bd 7d a5 f4 bc
       0.006605761 -0.054954767 -0.046497386 -0.029864067
000030 7d 05 97 bd a9 48 2c bd f0 4c e8 3c 9d 0b 8c bd
       -0.07374094 -0.04206148 0.028357 -0.068381526
000040 7e 93 34 bd 4f 5a fc bc 89 8d c9 bd f8 4c b2 3c
       -0.044085972 -0.030804781 -0.09841449 0.021765217
000050 5f ad 52 bd 07 69 88 bd d2 95 36 bc f3 20 b9 bb
       -0.05143487 -0.066606574 -0.011144118 -0.00564968
000060 fc c2 95 bd 1f f8 18 bd 29 4c 22 bd b2 43 91 3a
       -0.07312581 -0.037346 -0.039623413 0.0011082797
000070 ab 9d b4 bd 28 a7 d4 bd d1 c1 15 bd f9 33 54 bd
       -0.08819135 -0.10383445 -0.03656179 -0.051807377
000080 d1 14 4f bd b0 c1 91 bd bf db ef bc 32 17 87 3c
       -0.05055696 -0.07117021 -0.029279588 0.016490553
000090 bf 30 b7 bd ea 22 60 bd ee 97 89 bc e7 83 3f bc
       -0.089448445 -0.054720797 -0.016796079 -0.011689163
0000a0 ce 78 9e bd 71 24 8d bd ee 91 58 bc 76 67 77 bc
       -0.077378854 -0.06891716 -0.013218386 -0.015100351
0000b0 39 10 ea bb 40 3b 87 bd 19 02 54 bd 82 4f df bb
       -0.007143047 -0.06603098 -0.051759813 -0.006814898
0000c0 38 91 8b bd b7 a2 84 bd ff d1 98 3b b3 db 87 bd
       -0.06814808 -0.06476348 0.0046637054 -0.06633701
0000d0 fe ee b0 bd d6 07 9a bc 55 14 30 3c 8c c7 b0 bd
       -0.08639334 -0.018802565 0.010747035 -0.086318105
0000e0 a2 a0 a9 ba 08 6b fc bd 05 6a 67 bd 7a 35 8a 3b
       -0.0012941549 -0.12325102 -0.056497592 0.0042178007
0000f0 25 18 9b bd cf 9f b5 bd 13 e5 d2 bd 1c c8 bc bd
       -0.075729646 -0.08868372 -0.10297599 -0.09217855
000100 23 e2 25 bd 68 08 fd bc d9 46 24 bd c3 4d f2 bc
       -0.040498864 -0.030887797 -0.040106628 -0.029578095
000110 45 fd 50 bd 3f a5 d3 bc 7f bc d2 bb df 50 59 bc
       -0.051022787 -0.025835631 -0.006431162 -0.01326391
000120 02 74 a1 bb 08 55 48 bd 5e 8d b0 3e 54 ef 5e bc
       -0.0049271593 -0.048909217 0.34482855 -0.013606865
000130 4e a7 58 bc 02 0d 91 bb 60 c9 38 3c 83 ec b0 bc
       -0.013223482 -0.0044265995 0.01127848 -0.021597153
000140 99 8a 1a bd 47 12 3b bd a0 e1 78 bd f7 37 d1 bc
       -0.037729833 -0.045671728 -0.060762048 -0.025539381
000150 e7 0c 0a bd 85 66 46 bd 46 5f 3e bd d4 ff 2c 3c
       -0.03370371 -0.048437614 -0.04647758 0.010559041
000160 2c 56 af bd df b4 71 bd ad e7 0f be de de 3b bc
       -0.08561358 -0.059010383 -0.14053221 -0.01146671
000170 ff c4 2e bd db 7e 3b be 11 5a 83 bd 07 d5 bc bd
       -0.04266834 -0.1831011 -0.06413663 -0.09220319
000180 fc 4e 8b bd e6 bf 6c bd f8 95 eb bb b9 22 3b bd
       -0.068021744 -0.057800196 -0.0071895085 -0.04568741
000190 e4 6a f5 bc e4 65 90 3c 96 52 93 bc ab 65 c6 bb
       -0.029958196 0.01762671 -0.017983716 -0.0060546002
0001a0 ed 0c 55 bd 3a c1 94 bd 2f e9 1a 3c f1 69 ea bc
       -0.05201428 -0.072634175 0.009455009 -0.02861497
0001b0 09 e1 a8 bd c2 c6 51 3c e4 cf 9d bd 5d bf 19 bd
       -0.08246047 0.012803735 -0.077056676 -0.037536014
0001c0 f5 47 8e bd 3f 3e 5a be ac 12 b9 3b 05 f0 2e bd
       -0.069473185 -0.21312808 0.005647978 -0.04270937
0001d0 86 1d c1 3c 9d ed af bd 0e 47 16 bc 14 7e 2a bc
       0.023573648 -0.08590243 -0.009172214 -0.010406036
0001e0 6a 59 78 bc 36 eb 8c bd 10 0e 7d bd 8e ec 22 bd
       -0.015158037 -0.068808004 -0.06178099 -0.039776377
0001f0 12 a8 19 be c3 90 09 bd d0 21 28 3c 4d 6b 76 bd
       -0.1500552 -0.03358532 0.010261968 -0.060160924
000200 81 e4 1e bc af f2 09 be b5 19 14 3d e6 62 dc bd
       -0.009698034 -0.13471483 0.03615733 -0.10761051
000210 3e 6f 7c bd d8 f6 2e bd 26 88 8d bc fe fd 31 bc
       -0.061629526 -0.042715877 -0.017276835 -0.010863779
000220 b1 8c ba 3c 9a 86 34 bd d1 96 fb bd 14 68 82 bd
       0.022772165 -0.04407368 -0.12284625 -0.063675076
000230 f2 49 90 bc ea be a1 bc 29 a4 87 bd fe 9b 8c bd
       -0.017613385 -0.019744355 -0.06623108 -0.06865691
000240 f0 48 66 3c 5e 9b 97 bd 91 c7 9f bc 62 34 73 bd
       0.014055476 -0.07402681 -0.01950434 -0.059376128
000250 41 83 46 bc 75 35 cc bd 7e d7 23 bc de 04 99 bd
       -0.012116254 -0.099711336 -0.010000108 -0.074716315
000260 78 cf 88 bd 2a 9f c1 bd cc 5b 67 bd ef 9a de bb
       -0.066801965 -0.09454186 -0.05648403 -0.006793372
000270 2f c8 59 bb 60 ac a1 bd 7d ee 9b bd e2 56 28 be
       -0.003323089 -0.07894206 -0.076138474 -0.16439393
000280 93 f1 9f bd 7e c5 bb 3c 15 86 1e bd db 46 ab bd
       -0.078097485 0.02292132 -0.03870209 -0.08363124
000290 cb fd a8 3c 9b f7 f7 bc 53 c8 83 bb 58 f5 38 bd
       0.02062883 -0.030269435 -0.0040216832 -0.045155853
0002a0 87 84 81 3c 8f 53 ea 3c 95 6a 3b bd 86 ad f6 bc
       0.015810264 0.028604297 -0.04575594 -0.03011204
0002b0 54 87 fa bc 21 97 9c bd 37 ff 0b 3d 00 7f 64 bd
       -0.030582108 -0.07646013 0.03417894 -0.05578518
0002c0 cf 33 b9 bd ee 3b 24 3d 54 76 5b bc fc fb 9d bd
       -0.09043085 0.040096216 -0.013394911 -0.07714078
0002d0 ce e1 ef ba 62 a2 0f be 46 ab e9 bc 9c 27 b8 3c
       -0.0018301548 -0.14026788 -0.028524052 0.022479825
0002e0 d6 dc 9b 3e c7 bc a3 bd f0 f2 c6 bc 75 4b 06 bd
       0.30441922 -0.07994991 -0.024285764 -0.032786805
0002f0 56 01 14 bc 68 d0 29 bd fc 1a 7c bc c9 72 b1 bc
       -0.009033522 -0.041458517 -0.015387293 -0.02166118
000300 4f 2a 72 3b 9c d1 97 bc ed 22 aa bc e8 3b 9c bd
       0.0036951487 -0.018532567 -0.020768607 -0.07628614
000310 81 0b 13 bd f3 c9 9e bd 1e 77 60 bd 8c 7d 5a bd
       -0.035899643 -0.077533625 -0.0548011 -0.053342387
000320 10 3d 66 bd 90 21 9c bc 05 60 3a bd 3d c6 16 be
       -0.056210577 -0.019058973 -0.045501728 -0.1472406
000330 a8 2b d6 3b da ed b5 bd 6c 35 56 3c 16 0c b9 bd
       0.006535966 -0.08883257 0.01307426 -0.09035508
000340 07 db c2 bd f5 33 4a bd b5 5d ab bd 06 48 2e 3d
       -0.095144324 -0.049365956 -0.083674826 0.042549156
000350 5f cc 95 bc d9 9d ab bd 20 55 10 bd 74 80 ee bd
       -0.018285928 -0.083797164 -0.03523743 -0.11645594
000360 0a 76 ac bd 8a be 9c 3c 08 c5 48 bd 6d 70 35 bd
       -0.08420952 0.019133825 -0.04901603 -0.04429667
000370 2d 03 81 3c 55 de 77 bd e6 46 9b 3c db c2 0a 3d
       0.015748585 -0.060514767 0.018954705 0.033877235
000380 48 6d 60 bd fe 0f 99 bd 3b 67 63 bd a7 6c 90 bb
       -0.05479172 -0.074737534 -0.05551837 -0.0044074836
000390 e1 7a 93 bd 34 26 41 bd ff 22 ec bc 06 a0 ac 3b
       -0.07201172 -0.047155574 -0.028825281 0.0052680997
0003a0 f2 60 94 bc 88 8c 27 3c 2c 29 50 bd 6d 4b d8 bb
       -0.018112633 0.010226376 -0.050820515 -0.0066007883
0003b0 29 5d d7 bd c2 60 a4 bd b7 75 49 bd 1d 1a 92 bd
       -0.10515816 -0.080262676 -0.049184527 -0.07133887
0003c0 50 b4 79 bd bc 87 bf bd 10 24 6c bb 1e 9f 22 bc
       -0.060962975 -0.09352061 -0.0036032237 -0.009925632
0003d0 b8 15 9b bd 6e ae d4 bc 87 a4 d9 bd 58 71 c4 bd
       -0.07572502 -0.02596208 -0.10627084 -0.09591931
0003e0 bd 61 a9 bc 9b fa e2 bd c0 75 f7 bb 19 8c 1e 3b
       -0.020676488 -0.110829554 -0.0075518787 0.0024192391
0003f0 28 60 56 bd 05 a5 95 bc ee 03 1e bd e2 72 48 bd
       -0.052337795 -0.018267164 -0.038577966 -0.048937686

weight f4 [5, 256]
000000 ea d7 e2 bb f4 0b d6 bc 41 da 9f 3c 8b 0f 7e bd
       -0.0069227116 -0.026128747 0.019513251 -0.06202654
000010 f4 21 4c 3d b9 46 88 3d 88 e0 bd ba ae c4 13 3d
       0.049837068 0.06654114 -0.0014486471 0.03607624
000020 87 bd fe 3c 87 73 c2 3c f3 b3 f6 3c 44 de 6c 3d
       0.031096233 0.023736728 0.030115103 0.057829157
000030 a7 a2 c3 3c f0 8a d6 3b 49 93 b8 3b cc b6 5f 3d
       0.02388127 0.0065473244 0.005632792 0.054617688
000040 60 c1 f7 bc 73 93 76 bd ad bd 70 3d 2b 93 b2 bc
       -0.030243576 -0.060199212 0.05877464 -0.02179869
000050 70 d3 a3 bc db 9c 3b 3c bf 0c 9e 3d b2 2e 23 bd
       -0.019998282 0.0114509715 0.07717275 -0.039839454
000060 5e 2a fb 3c 47 24 94 bc be 62 05 3d 8a 18 39 3d
       0.03065985 -0.018083705 0.03256487 0.045189418
000070 e6 eb c4 3c 05 1e 40 3c fd e4 c9 bc c4 80 4d ba
       0.024038266 0.011725907 -0.024645323 -0.0007839317
000080 5a c4 1a 3d 0c f5 14 3e 50 f6 9d 3c ec 98 c7 bc
       0.03778491 0.14546603 0.01928249 -0.024364911
000090 b0 f7 87 3d f7 58 39 bd a5 59 fa 3c 3c 0e 8e bc
       0.066390395 -0.04525086 0.030560324 -0.017340772
0000a0 62 7e 90 bd 08 3a c2 bc d2 64 80 3c 33 6b 98 3d
       -0.070553556 -0.023709312 0.015673075 0.07442322
0000b0 c5 21 97 3c aa b1 ee bb 3c 56 46 bb 59 21 ec 3c
       0.01844872 -0.007284363 -0.0030263802 0.028824495
0000c0 d8 7e 1e bd 9f 69 df bb c8 ae 2c 3d 52 d1 3d 3d
       -0.038695186 -0.006818011 0.042158872 0.0463422
0000d0 d4 ab 97 3c 26 fc a1 3d e7 d1 67 bd b3 73 8d 3d
       0.018514551 0.079094216 -0.056596663 0.069068335
0000e0 29 5c a5 bc 50 5a 4e 3d 9d 9a 81 bb 28 22 cd bc
       -0.020185547 0.050379097 -0.003955199 -0.025040701
0000f0 16 80 ae 3c 48 2b 85 3e 62 f3 84 3c a0 7e 85 bc
       0.02130131 0.26009583 0.016229335 -0.016295731
000100 bf 19 3c 3d f5 f6 ad 3c 65 d7 d1 bc 62 92 c8 3c
       0.04592299 0.021235922 -0.025615403 0.024483863
000110 0a 42 78 bd 58 79 e0 bb 15 77 aa bc 67 c4 76 3d
       -0.060609855 -0.006850403 -0.020808736 0.060245898
000120 2a 35 12 bd 62 a2 bd 3c fa 0a 4f 3e 3c 61 1e 3d
       -0.035695232 0.02314872 0.20219031 0.03866695
000130 79 b2 35 3c 5a 63 09 3d 30 d9 dc bb 8d 80 7d 3d
       0.0110899145 0.033542015 -0.006739758 0.061890174
000140 6e 1e f0 3c 0a b5 bc 3d a0 ec 89 bb af 9a 2c 3d
       0.029311385 0.09214218 -0.004209116 0.042139705
000150 19 0b 45 3d 4a 02 22 3d 87 1e 70 bc 3e 19 d8 3c
       0.048106287 0.039552964 -0.014655716 0.026379224
000160 6d c4 01 bb 9f 7c 85 bc 1a 69 01 3f 5f 20 62 bc
       -0.0019800917 -0.016294776 0.50551 -0.013801663
000170 40 5c ac bb e0 27 56 3d ec 5d e4 3b 1c c7 86 bd
       -0.0052600205 0.05228412 0.006969204 -0.06580946
000180 3a 20 07 3d 00 15 e3 3c 3a d8 8e 3b c1 51 9f 3c
       0.032989718 0.027719975 0.0043592723 0.019448163
000190 67 23 93 3b b7 55 dd 3c 93 d4 4e bc a0 ea de bc
       0.0044903043 0.027018411 -0.012623924 -0.027211487
0001a0 9b 97 99 bc ec 5c b5 3b 73 3f 03 3d 18 44 0c 3d
       -0.018749049 0.005534759 0.03204293 0.034244627
0001b0 99 e2 ac 3d 9f 4d ef bb cb bf 97 bc 72 84 40 bd
       0.084416576 -0.0073029543 -0.018524071 -0.04700131
0001c0 e8 0f c1 bc 01 67 a9 3e 74 74 7d 3d 5b 39 20 bd
       -0.023567155 0.33086398 0.061878636 -0.0391172
0001d0 e7 94 0e 3d 88 08 73 bc 79 de 18 3d 2c 72 8b bd
       0.034809973 -0.014833577 0.03732154 -0.06808886
0001e0 c2 ef 4f 3d cc b0 e5 38 12 dc 88 3c 20 2e 4d bc
       0.05076576 0.00010952502 0.0167065 -0.012523204
0001f0 01 5c ee 3c 85 7c 15 bd b9 fb 50 3d ef 87 47 bd
       0.029096605 -0.036495704 0.05102131 -0.04871362
000200 91 fd 62 bc 47 d2 4e 3d 2c 52 99 3c cc 74 51 3d
       -0.0138544 0.050493505 0.01871594 0.051136777
000210 3c 2a cb 3c c8 e0 00 bc a0 09 5d 3c 4a 52 04 3d
       0.024800412 -0.007866092 0.013491064 0.03230504
000220 5a 5d 08 3d 67 b2 f5 bc 82 41 72 3d db cf 01 3c
       0.033292152 -0.029992295 0.059144504 0.007923092
000230 4d ec af bc 48 c3 da 3c b3 1f ac 3b a0 75 9b bc
       -0.021474982 0.026704445 0.0052528023 -0.018976986
000240 31 05 11 3c 67 26 02 3c 0f fb c3 3b 5b 75 49 bb
       0.008851335 0.007943726 0.0059808563 -0.0030740115
000250 37 f6 a1 3c ec 9c 6b bc 08 5c 0b 3d 73 94 fd bc
       0.019770725 -0.014380675 0.034023315 -0.030954575
000260 e9 a9 71 3d 7c a9 d1 3c 5f 77 9f bd e8 82 c5 3c
       0.05899993 0.025593512 -0.0778644 0.024110273
000270 0c fc d8 bc c0 ca 7f 3d cc 04 a3 bc fa 85 22 3e
       -0.026487373 0.062449217 -0.019899748 0.1587142
000280 12 0e f3 bc f0 b5 07 bd 0e 26 d7 3c 52 ad 70 3d
       -0.029669795 -0.033132493 0.026263263 0.05875904
000290 ed 4d b4 3c f1 de 3d 3b 5e 72 8d bd b3 92 9a 3a
       0.022009814 0.0028971995 -0.069065794 0.0011792987
0002a0 db bb c1 3b 5f d4 4c 3d 0f f6 a8 3b d0 88 68 3d
       0.0059122867 0.05000722 0.0051562856 0.0567711
0002b0 3d ef a0 3c ed 7a b2 3d b0 13 dd 3b a4 af 03 bd
       0.019645328 0.087148525 0.0067467317 -0.032149926
0002c0 82 54 2f 3d e8 b9 8c bd 66 89 66 3d 11 25 45 3d
       0.042805202 -0.06871396 0.056283377 0.048131052
0002d0 7b 14 4c 3d 95 de ce 3e ce d1 a4 bd 68 b8 44 3d
       0.04982422 0.40404192 -0.080478296 0.048027426
0002e0 71 72 49 3e 6e a8 ed 3a 62 b7 1a 3d 4b 7a 84 3d
       0.19672562 0.0018131861 0.037772544 0.06468638
0002f0 eb 19 05 bb 26 a1 2b bd 62 f8 31 3d 68 02 6c bc
       -0.0020309638 -0.04190173 0.043449767 -0.014404871
000300 02 8d 23 bd 34 8e 04 3d c5 36 2d bd 53 95 25 bd
       -0.039929397 0.032362178 -0.04228856 -0.04042561
000310 92 b8 11 3c 00 82 2e 3d e5 45 98 3d 57 ec 86 3c
       0.008894103 0.042604446 0.07435206 0.016470117
000320 59 34 dd 3c a2 93 a5 bc 3f ee 1d bc a3 59 06 3d
       0.0270025 -0.020211998 -0.009639322 0.032800328
000330 1c 2c e3 3c d3 1b bb bc 40 51 65 3c 68 8b ca bb
       0.027730994 -0.022840416 0.013996422 -0.0061811693
000340 7b 55 a2 3b 60 d1 01 bd 30 d3 3e 3c 74 17 ac bc
       0.0049540377 -0.031693816 0.011647031 -0.021007277
000350 ee 92 52 bc da 23 95 bd bf 11 4c 3c 24 d9 a2 3c
       -0.012852414 -0.07282229 0.012455403 0.019878931
000360 38 06 97 3d cb 1f 2f 3d 4f 5a bf bc a0 cd 61 bc
       0.07374233 0.04275493 -0.023358492 -0.013781935
000370 1c 3b d7 bc af 14 e1 3c f2 f6 71 bd e1 d7 15 3d
       -0.026273303 0.027475683 -0.059073396 0.03658283
000380 57 43 1b bb 01 dc 2f 3d df 01 b8 3c 58 54 59 bd
       -0.002369126 0.04293442 0.02246183 -0.053058952
000390 14 d1 9b 3d 6f d8 94 3c 24 09 7b bd 6c 4c 37 3d
       0.07608238 0.01816961 -0.061288014 0.044750616
0003a0 f7 15 0c 3d 51 f9 0e 3d 3a db da 3c 40 83 82 3b
       0.034200635 0.034905735 0.026715863 0.0039829314
0003b0 fc 72 b4 3d 4c 52 c7 3a 48 a6 d3 3c 24 17 38 3c
       0.08810994 0.0015207021 0.025836125 0.011235986
0003c0 32 1d c8 bc 7f 58 23 3d 3c e8 09 bd d3 3c 5c bd
       -0.024427984 0.03987932 -0.03366874 -0.053768944
0003d0 58 cd e2 3b e8 35 b5 bb c9 68 26 bd fb 05 bd bc
       0.0069214515 -0.0055301078 -0.040627275 -0.02307414
0003e0 d4 4b b5 3d 0b 93 c9 3c 68 2f 40 bc b6 29 5b bd
       0.08852354 0.024606248 -0.0117300525 -0.053506576
0003f0 78 77 0b 3c 64 29 5f 3c c5 42 08 bc ae 07 af 3c
       0.00851237 0.013620708 -0.0083167 0.021365967

bias f4 [5]
000000 4d 0b 7f 3e 43 78 3c 3e 68 09 71 3e 8d 01 80 3e
       0.24906655 0.18405251 0.23538744 0.25001183
000010 8e 90 7d 3e
       0.24762174

exp_avg f4 [256, 5]
000000 00 00 00 00 00 00 00 00 00 00 00 00 00 00 00 00
       0.0 0.0 0.0 0.0
000010 00 00 00 00 00 00 00 00 04 00 00 00 04 00 00 80
       0.0 0.0 6e-45 -6e-45
000020 04 00 00 00 04 00 00 00 19 b6 8a 36 18 f2 44 b9
       6e-45 6e-45 4.1339194e-06 -0.00018782204
000030 94 fa d6 38 9b 6c 63 b9 36 fe c7 b7 00 00 00 00
       0.00010250989 -0.00021688866 -2.3841025e-05 0.0
000040 00 00 00 00 00 00 00 00 00 00 00 00 00 00 00 00
       0.0 0.0 0.0 0.0
000050 04 00 00 00 04 00 00 00 04 00 00 80 04 00 00 00
       6e-45 6e-45 -6e-45 6e-45
000060 04 00 00 00 ea d5 24 36 c8 27 09 b8 d2 bc 02 38
       6e-45 2.4562419e-06 -3.2700395e-05 3.1170268e-05
000070 b2 5b 40 b8 db 76 8d b5 00 00 00 00 00 00 00 00
       -4.5861765e-05 -1.053991e-06 0.0 0.0
000080 00 00 00 00 00 00 00 00 00 00 00 00 d0 45 e7 b6
       0.0 0.0 0.0 -6.8924637e-06
000090 2c 94 ac ba 86 1f 8c 3a 4b 5f e0 ba 22 c4 3b b9
       -0.0013166717 0.0010690547 -0.0017118243 -0.00017906775
0000a0 04 00 00 80 04 00 00 00 04 00 00 80 04 00 00 00
       -6e-45 6e-45 -6e-45 6e-45
0000b0 04 00 00 00 8a 25 5b 37 fa 43 f9 3b c6 67 fb bb
       6e-45 1.3062157e-05 0.0076069804 -0.007672283
0000c0 30 c2 30 3c 41 e9 91 3a 04 00 00 00 04 00 00 00
       0.010788485 0.0011132137 6e-45 6e-45
0000d0 04 00 00 80 04 00 00 00 04 00 00 00 04 00 00 00
       -6e-45 6e-45 6e-45 6e-45
0000e0 04 00 00 00 04 00 00 80 04 00 00 00 04 00 00 00
       6e-45 -6e-45 6e-45 6e-45
0000f0 00 00 00 00 00 00 00 00 00 00 00 00 00 00 00 00
       0.0 0.0 0.0 0.0
000100 00 00 00 00 04 00 00 00 04 00 00 00 04 00 00 80
       0.0 6e-45 6e-45 -6e-45
000110 04 00 00 00 04 00 00 00 00 00 00 00 00 00 00 00
       6e-45 6e-45 0.0 0.0
000120 00 00 00 00 00 00 00 00 00 00 00 00 00 00 00 00
       0.0 0.0 0.0 0.0
000130 00 00 00 00 00 00 00 00 00 00 00 00 00 00 00 00
       0.0 0.0 0.0 0.0
000140 00 00 00 00 00 00 00 00 00 00 00 00 00 00 00 00
       0.0 0.0 0.0 0.0
000150 00 00 00 00 00 00 00 00 00 00 00 00 00 00 00 00
       0.0 0.0 0.0 0.0
000160 00 00 00 00 00 00 00 00 04 00 00 00 04 00 00 00
       0.0 0.0 6e-45 6e-45
000170 04 00 00 80 04 00 00 00 04 00 00 00 04 00 00 80
       -6e-45 6e-45 6e-45 -6e-45
000180 04 00 00 00 04 00 00 80 04 00 00 00 04 00 00 00
       6e-45 -6e-45 6e-45 6e-45
000190 04 00 00 00 04 00 00 00 04 00 00 80 04 00 00 00
       6e-45 6e-45 -6e-45 6e-45
0001a0 04 00 00 00 98 89 85 b7 67 9c 58 b8 a3 aa 02 39
       6e-45 -1.5918908e-05 -5.1644074e-05 0.00012461333
0001b0 1d a3 ee b8 64 bc 6d b8 00 00 00 00 00 00 00 00
       -0.000113791066 -5.6680656e-05 0.0 0.0
0001c0 00 00 00 00 00 00 00 00 00 00 00 00 04 00 00 80
       0.0 0.0 0.0 -6e-45
0001d0 04 00 00 00 04 00 00 80 04 00 00 00 04 00 00 00
       6e-45 -6e-45 6e-45 6e-45
0001e0 04 00 00 80 04 00 00 00 04 00 00 80 04 00 00 00
       -6e-45 6e-45 -6e-45 6e-45
0001f0 04 00 00 00 04 00 00 80 04 00 00 00 04 00 00 80
       6e-45 -6e-45 6e-45 -6e-45
000200 04 00 00 00 04 00 00 00 22 65 49 36 56 ae 44 37
       6e-45 6e-45 3.00102e-06 1.1723101e-05
000210 20 2a ad 36 07 df 80 36 c3 d7 ff 35 00 00 00 00
       5.1607058e-06 3.840661e-06 1.9061775e-06 0.0
000220 00 00 00 00 00 00 00 00 00 00 00 00 00 00 00 00
       0.0 0.0 0.0 0.0
000230 00 00 00 00 04 00 00 00 04 00 00 80 04 00 00 00
       0.0 6e-45 -6e-45 6e-45
000240 04 00 00 00 00 00 00 00 00 00 00 00 00 00 00 00
       6e-45 0.0 0.0 0.0
000250 00 00 00 00 00 00 00 00 04 00 00 00 04 00 00 00
       0.0 0.0 6e-45 6e-45
000260 04 00 00 80 04 00 00 00 04 00 00 00 00 00 00 00
       -6e-45 6e-45 6e-45 0.0
000270 00 00 00 00 00 00 00 00 00 00 00 00 00 00 00 00
       0.0 0.0 0.0 0.0
000280 e4 d0 51 b5 94 be a1 39 fa 56 f1 b9 1a b6 0a 3a
       -7.8162543e-07 0.00030850305 -0.00046031905 0.00052914175
000290 56 7f 52 38 04 00 00 80 04 00 00 00 04 00 00 80
       5.0186492e-05 -6e-45 6e-45 -6e-45
0002a0 04 00 00 00 04 00 00 00 00 00 00 00 00 00 00 00
       6e-45 6e-45 0.0 0.0
0002b0 00 00 00 00 00 00 00 00 00 00 00 00 78 57 15 b6
       0.0 0.0 0.0 -2.2253644e-06
0002c0 8d cb db 38 0a 5a 14 b8 df c1 e8 38 98 0b 42 37
       0.00010480648 -3.5369805e-05 0.000110987334 1.15660005e-05
0002d0 3b 9c 5b 38 b7 bc 68 bd 6a 58 6c 3d 15 d9 a5 bd
       5.235917e-05 -0.056820597 0.057701506 -0.08098046
0002e0 bc 3a 06 bc 04 00 00 00 04 00 00 00 04 00 00 80
       -0.008192714 6e-45 6e-45 -6e-45
0002f0 04 00 00 00 04 00 00 00 00 00 00 00 00 00 00 00
       6e-45 6e-45 0.0 0.0
000300 00 00 00 00 00 00 00 00 00 00 00 00 04 00 00 80
       0.0 0.0 0.0 -6e-45
000310 04 00 00 00 04 00 00 80 04 00 00 00 04 00 00 00
       6e-45 -6e-45 6e-45 6e-45
000320 04 00 00 80 04 00 00 00 04 00 00 80 04 00 00 00
       -6e-45 6e-45 -6e-45 6e-45
000330 04 00 00 00 00 00 00 00 00 00 00 00 00 00 00 00
       6e-45 0.0 0.0 0.0
000340 00 00 00 00 00 00 00 00 c0 64 be 36 24 3a 68 3b
       0.0 0.0 5.67417e-06 0.0035435045
000350 26 63 82 bb 98 0f ad 3b a5 66 14 3a 04 00 00 00
       -0.0039791046 0.0052814 0.0005661047 6e-45
000360 04 00 00 00 04 00 00 80 04 00 00 00 04 00 00 00
       6e-45 -6e-45 6e-45 6e-45
000370 00 00 00 00 04 00 00 00 04 00 00 80 04 00 00 00
       0.0 6e-45 -6e-45 6e-45
000380 04 00 00 00 00 00 00 00 00 00 00 00 00 00 00 00
       6e-45 0.0 0.0 0.0
000390 00 00 00 00 00 00 00 00 52 1f d1 36 4c 4b 14 b8
       0.0 0.0 6.2323315e-06 -3.5356075e-05
0003a0 6a dc bf b7 a8 11 fe b6 b8 60 24 37 00 00 00 00
       -2.2871613e-05 -7.5718453e-06 9.797681e-06 0.0
0003b0 00 00 00 00 00 00 00 00 00 00 00 00 00 00 00 00
       0.0 0.0 0.0 0.0
0003c0 3a 02 94 2f 29 67 1d 34 3a 95 36 b3 31 b1 24 34
       2.6922625e-10 1.4659294e-07 -4.2510898e-08 1.5338152e-07
0003d0 2a 27 af 32 2e ec d2 b5 89 05 9e 38 e3 a7 ca b7
       2.0390491e-08 -1.5714957e-06 7.535058e-05 -2.4158455e-05
0003e0 3c 68 a6 38 34 6a 0b 37 04 00 00 00 04 00 00 00
       7.934912e-05 8.309773e-06 6e-45 6e-45
0003f0 04 00 00 80 04 00 00 00 04 00 00 00 04 00 00 00
       -6e-45 6e-45 6e-45 6e-45

exp_avg_sq f4 [256, 5]
000000 00 00 00 00 00 00 00 00 00 00 00 00 00 00 00 00
       0.0 0.0 0.0 0.0
000010 00 00 00 00 00 00 00 00 09 98 c7 0a d6 83 43 08
       0.0 0.0 1.9220192e-32 5.883565e-34
000020 1e 1e cd 0a 61 3d 02 08 e8 05 51 31 b9 29 0c 38
       1.9752111e-32 3.9192603e-34 3.041686e-09 3.341746e-05
000030 5e d8 06 38 ef 71 89 38 d1 20 37 35 00 00 00 00
       3.2149597e-05 6.553891e-05 6.8220567e-07 0.0
000040 00 00 00 00 00 00 00 00 00 00 00 00 00 00 00 00
       0.0 0.0 0.0 0.0
000050 2d 90 4e 14 89 ba db 1a b4 d8 7f 1b 39 f6 b6 1b
       1.0428776e-26 9.087764e-23 2.1163126e-22 3.0268492e-22
000060 4b 1b 0c 18 44 19 55 32 dc f9 00 36 d2 2d f1 35
       1.8108355e-24 1.24039765e-08 1.9218924e-06 1.7969235e-06
000070 26 8b 79 36 73 f4 ad 32 00 00 00 00 00 00 00 00
       3.7184886e-06 2.0251013e-08 0.0 0.0
000080 00 00 00 00 00 00 00 00 00 00 00 00 33 4a 0e 33
       0.0 0.0 0.0 3.3129435e-08
000090 da c3 be 38 4f 46 ad 38 7e 9b 36 39 f3 48 f1 35
       9.096386e-05 8.262379e-05 0.00017414798 1.797713e-06
0000a0 13 fb 2b 03 48 ac fe 07 23 9d a8 06 87 66 14 08
       5.0540603e-37 3.831893e-34 6.342547e-35 4.465765e-34
0000b0 76 c0 83 05 d0 d6 73 33 3e ca 82 3a 0d 26 83 3a
       1.238988e-35 5.6773217e-08 0.0009978486 0.0010005847
0000c0 66 11 03 3b c2 d3 a9 37 eb 85 e5 17 d6 2b 0f 20
       0.0019999384 2.0244977e-05 1.4832584e-24 1.2127075e-19
0000d0 6c 4f 83 20 7a e0 ca 20 5f af 3a 1d fb 39 4c 15
       2.224482e-19 3.4368677e-19 2.470756e-21 4.124321e-26
0000e0 53 37 30 1b 71 4e 59 1a d5 67 66 1b df c8 64 18
       1.4576255e-22 4.4937913e-23 1.9058704e-22 2.9569723e-24
0000f0 00 00 00 00 00 00 00 00 00 00 00 00 00 00 00 00
       0.0 0.0 0.0 0.0
000100 00 00 00 00 55 0d fb 12 1a bb c0 17 ed ad be 17
       0.0 1.5843614e-27 1.245494e-24 1.2322367e-24
000110 dd fa 3f 18 4b d5 03 15 00 00 00 00 00 00 00 00
       2.4812825e-24 2.6623498e-26 0.0 0.0
000120 00 00 00 00 00 00 00 00 00 00 00 00 00 00 00 00
       0.0 0.0 0.0 0.0
000130 00 00 00 00 00 00 00 00 00 00 00 00 00 00 00 00
       0.0 0.0 0.0 0.0
000140 00 00 00 00 00 00 00 00 00 00 00 00 00 00 00 00
       0.0 0.0 0.0 0.0
000150 00 00 00 00 00 00 00 00 00 00 00 00 00 00 00 00
       0.0 0.0 0.0 0.0
000160 00 00 00 00 00 00 00 00 33 a7 62 15 95 6e 86 1b
       0.0 0.0 4.5772233e-26 2.2239902e-22
000170 ed 10 d4 1b c9 47 2d 1c 91 69 ae 18 30 28 13 22
       3.5083396e-22 5.733368e-22 4.508454e-24 1.994349e-18
000180 af c1 47 29 fd ad 2b 27 b9 7d 52 29 21 1a 73 26
       4.435487e-14 2.3825336e-15 4.6738414e-14 8.434297e-16
000190 ad 32 2f 18 ba 73 0a 22 80 43 24 23 b8 e0 46 23
       2.2643805e-24 1.8763753e-18 8.9047515e-18 1.07811876e-17
0001a0 b2 ac 34 1f 93 f2 9a 33 df 66 d8 38 12 18 ce 38
       3.8259333e-20 7.215308e-08 0.00010318844 9.827329e-05
0001b0 87 0a 53 39 e7 de 0a 36 00 00 00 00 00 00 00 00
       0.0002012645 2.0693349e-06 0.0 0.0
0001c0 00 00 00 00 00 00 00 00 00 00 00 00 cb 93 cb 23
       0.0 0.0 0.0 2.2071897e-17
0001d0 e1 17 1f 2a ff 39 94 2b 4a 1d a8 2b 41 6e 6d 27
       1.4130322e-13 1.053213e-12 1.1945247e-12 3.2950126e-15
0001e0 f5 59 14 10 c3 c3 12 17 70 68 14 17 72 a3 93 17
       2.9257154e-29 4.742223e-25 4.79532e-25 9.540912e-25
0001f0 55 f5 48 14 fd f5 db 15 26 fe 35 20 57 a6 af 20
       1.0145803e-26 8.8841497e-26 1.5415387e-19 2.9756228e-19
000200 fd 4f 05 21 42 36 6d 1d f1 a9 02 32 93 7e 9b 37
       4.5168016e-19 3.139474e-21 7.605636e-09 1.853638e-05
000210 ca d7 04 38 91 9b 52 38 ca 0a ca 34 00 00 00 00
       3.167222e-05 5.0212784e-05 3.7633282e-07 0.0
000220 00 00 00 00 00 00 00 00 00 00 00 00 00 00 00 00
       0.0 0.0 0.0 0.0
000230 00 00 00 00 24 c1 8b 06 fe a0 9b 07 3a 83 be 07
       0.0 5.2569783e-35 2.341643e-34 2.866515e-34
000240 2e 64 b6 03 00 00 00 00 00 00 00 00 00 00 00 00
       1.0719999e-36 0.0 0.0 0.0
000250 00 00 00 00 00 00 00 00 e4 83 82 14 83 81 48 18
       0.0 0.0 1.3178667e-26 2.591478e-24
000260 0a 4d 0e 18 5e 63 ab 18 d4 75 50 15 00 00 00 00
       1.8391965e-24 4.43028e-24 4.2098215e-26 0.0
000270 00 00 00 00 00 00 00 00 00 00 00 00 00 00 00 00
       0.0 0.0 0.0 0.0
000280 35 ee fe 31 04 06 d5 37 81 1d bc 37 cb a1 49 38
       7.419454e-09 2.539438e-05 2.2425085e-05 4.8072816e-05
000290 19 a7 07 35 70 2c 0a 20 67 0c 2b 25 6e 69 46 24
       5.053458e-07 1.1703758e-19 1.4836088e-16 4.302371e-17
0002a0 5b 74 5c 25 86 5b 46 22 00 00 00 00 00 00 00 00
       1.9121381e-16 2.6882456e-18 0.0 0.0
0002b0 00 00 00 00 00 00 00 00 00 00 00 00 1f 9a c6 30
       0.0 0.0 0.0 1.44502e-09
0002c0 77 73 1c 36 09 ce 85 34 70 31 2d 36 1c ea 35 33
       2.331302e-06 2.492309e-07 2.5807785e-06 4.2355268e-08
0002d0 8c 64 89 35 07 c8 1f 3d ff 01 21 3d c7 63 a0 3d
       1.0236558e-06 0.03900912 0.039308544 0.07831531
0002e0 2d 9c 4f 3a f8 2c 28 1e 46 7f 59 24 0d dd 25 22
       0.00079196953 8.903145e-21 4.716218e-17 2.2478693e-18
0002f0 37 d8 63 24 7c 1e 6e 21 00 00 00 00 00 00 00 00
       4.940592e-17 8.067788e-19 0.0 0.0
000300 00 00 00 00 00 00 00 00 00 00 00 00 e7 83 99 1a
       0.0 0.0 0.0 6.3492417e-23
000310 71 ac b4 21 8f 6f b6 1e d5 86 b7 21 64 07 d7 1e
       1.2242919e-18 1.9316139e-20 1.2436252e-18 2.2767067e-20
000320 eb 28 4b 1f 37 e6 4c 24 cb 21 06 25 af 22 39 25
       4.302077e-20 4.4430448e-17 1.1634097e-16 1.6057943e-16
000330 aa e9 86 21 00 00 00 00 00 00 00 00 00 00 00 00
       9.142044e-19 0.0 0.0 0.0
000340 00 00 00 00 00 00 00 00 01 28 a8 33 24 39 42 3a
       0.0 0.0 7.830386e-08 0.00074090273
000350 47 c3 3c 3a b4 d6 bf 3a cc 98 7c 37 01 c4 30 15
       0.00072007295 0.001463613 1.5055946e-05 3.5697537e-26
000360 72 1c 1e 19 61 e4 00 19 d2 91 8f 19 fd f7 29 16
       8.174153e-24 6.663566e-24 1.484475e-23 1.3729963e-25
000370 00 00 00 00 b5 aa f7 09 18 de cd 0a f9 d5 05 0b
       0.0 5.962362e-33 1.9824324e-32 2.5775843e-32
000380 1f 9d 21 07 00 00 00 00 00 00 00 00 00 00 00 00
       1.2158468e-34 0.0 0.0 0.0
000390 00 00 00 00 00 00 00 00 19 f5 40 31 dd 71 27 37
       0.0 0.0 2.8079e-09 9.9804865e-06
0003a0 3a df a6 37 68 ad fa 37 9c c4 52 34 00 00 00 00
       1.989269e-05 2.9883071e-05 1.96293e-07 0.0
0003b0 00 00 00 00 00 00 00 00 00 00 00 00 00 00 00 00
       0.0 0.0 0.0 0.0
0003c0 97 d7 00 2e 35 c8 32 34 c6 79 2b 33 34 d0 5d 34
       2.9295313e-11 1.6650377e-07 3.9924792e-08 2.0657973e-07
0003d0 b1 53 46 31 76 29 57 2f 4b 2b 89 35 65 27 98 33
       2.8860365e-09 1.9568866e-10 1.0219895e-06 7.0852174e-08
0003e0 b6 aa 92 35 b5 9f 9f 32 cc 47 61 27 dc 39 ab 2f
       1.0927531e-06 1.8582663e-08 3.1263944e-15 3.114583e-10
0003f0 0f 00 fe 30 f3 67 14 31 a8 36 d9 2c 8d c7 0e 30
       1.8480949e-09 2.1595923e-09 6.173579e-12 5.194288e-10
