master_thesis/auto_docking/neural_network_models/trained_model.pt (torch, 835631 bytes, 18 tensors)

weight f4 [256, 7]
000000 40 48 f3 3b 80 77 14 3d a8 93 28 bd 2d 7a ae be
       0.0074243844 0.036246777 -0.04115644 -0.34077588
000010 cf 19 54 be 6e 8c 76 be d4 7a 91 be e8 a0 3d be
       -0.2071297 -0.24077007 -0.28414023 -0.18518412
000020 c6 eb e7 be 13 36 de 3e 14 2f 73 3e b8 47 f7 bd
       -0.45297068 0.4340063 0.23748428 -0.12074226
000030 13 1c a0 3e b1 24 2f 3e 8b 78 88 3e b6 c9 26 3c
       0.3127142 0.1710384 0.26654467 0.010179928
000040 92 ca 35 be 2d 74 b3 bd e6 73 45 be 11 64 9a 3e
       -0.17753056 -0.08762393 -0.19282493 0.3015447
000050 a6 cb 8a 3e 23 bd 9b be 0b ae 6a be 46 57 5a be
       0.27108496 -0.30417737 -0.22917955 -0.21322355
000060 e5 ab 96 be 49 c7 ca bc 3e 33 7d 3e 88 d0 ad be
       -0.2942802 -0.02475323 0.24726579 -0.3394816
000070 f3 7a 60 3e 60 b1 a7 be 34 6f c6 3e 0a 32 ab 3e
       0.21921901 -0.32752514 0.38756716 0.33436614
000080 1d 42 a2 be 0c 36 ca be cf 5d 79 bd 85 45 a0 3e
       -0.31691065 -0.3949436 -0.06088048 0.3130304
000090 c8 f2 8c 3d 08 25 ac 3d 95 f2 b6 be 76 25 7d 3e
       0.06882244 0.08405501 -0.3573195 0.24721321
0000a0 34 ef 2f be a6 2d 45 3e d1 86 3e be 4b fd 6c 3e
       -0.17181093 0.19255695 -0.18606116 0.23143499
0000b0 53 46 3f 3e a7 5e 86 3e 1e 27 22 be 44 7c e2 3d
       0.1867917 0.2624409 -0.15835235 0.11058858
0000c0 15 3b 87 bd 76 2f 1a 3e 00 cc 82 39 3c f5 eb 3d
       -0.06603066 0.15057167 0.00024947524 0.11521384
0000d0 5c ce b4 be d0 cb 3d bd 10 bc 7a 3d 12 11 93 be
       -0.3531369 -0.04633695 0.061214507 -0.2872396
0000e0 4b 74 85 3e a7 72 86 3e 80 49 c6 bb 8b b0 bc be
       0.26065287 0.26259348 -0.0060512424 -0.36853442
0000f0 ca 4c 5b 3e d1 c7 66 be 1a 16 95 be 8d d2 aa 3e
       0.21416011 -0.22537161 -0.29118425 0.33363762
000100 e0 e5 ff bc b6 3a b5 be 8b 8b 76 be e4 61 51 be
       -0.031237543 -0.35396355 -0.24076669 -0.20447499
000110 36 c7 a0 3c 0d 95 0b 3e ef 9f 90 3e 4f 51 ae 3e
       0.019626241 0.13631077 0.2824702 0.3404641
000120 3e 66 a5 be e0 f0 7f bc ae ee 2a 3e d0 54 e3 bc
       -0.32304567 -0.015621394 0.16692612 -0.027750403
000130 60 9f 68 3c fa 25 78 be db 75 d3 bd 4f 80 c6 3e
       0.014198154 -0.24233237 -0.103252135 0.38769767
000140 e2 e5 b6 3d 0e 8b 77 3c ae cb 67 bc 32 a8 01 be
       0.089305654 0.015108837 -0.014147682 -0.12661818
000150 cd bf de bd 01 af c2 bd 05 a2 05 3e 0f 82 ce be
       -0.10876427 -0.095060356 0.13050087 -0.40333602
000160 09 5e 10 be b6 18 5a 3e df b3 b3 3e a1 a0 b6 3d
       -0.14098372 0.21298489 0.35098168 0.08917356
000170 66 14 cc be c3 30 35 3d b3 f8 21 3e 28 a6 39 3d
       -0.39859313 0.044235956 0.15817527 0.045324475
000180 5e dd 93 3e 43 72 2a be 88 35 aa be 02 48 51 3e
       0.28879827 -0.1664515 -0.33243966 0.20437625
000190 54 df a2 be 0a 8b 8f be 6c f3 89 3d 80 c7 aa 3d
       -0.3181101 -0.28035766 0.06735882 0.08338833
0001a0 bb a5 8e 3e 58 78 62 3e 5e 19 a2 bd 9c 4e 90 be
       0.27860817 0.2211622 -0.07914995 -0.28184974
0001b0 c3 6f bd be 82 5a 92 be 91 6f 8c 3e 86 2e 49 be
       -0.3699933 -0.28584677 0.27428868 -0.19646654
0001c0 4b 12 9c 3e f5 e9 b8 bc 1b 68 95 be a4 5e b1 3e
       0.30482706 -0.022572497 -0.2918099 0.34642518
0001d0 cf ac a9 3e b2 a1 92 3d 94 2d 79 3e 0a 60 08 be
       0.33139655 0.07159747 0.24333793 -0.13317886
0001e0 37 23 07 3e 80 69 a6 be 4a 5c 86 be 9a cb 82 be
       0.13197027 -0.32502365 -0.26242286 -0.2554596
0001f0 76 95 c3 bc 94 04 78 3e 74 30 61 be 29 38 b1 be
       -0.02387498 0.24220496 -0.2199114 -0.3461316
000200 eb af fa bc a5 9c a0 be 3b 7c 76 be e6 6a a0 3e
       -0.030601462 -0.3136951 -0.24070828 0.31331557
000210 ed f0 b2 bb 92 d2 54 3e 70 99 41 bd 25 28 94 be
       -0.0054608495 0.20783451 -0.04726547 -0.28936878
000220 f0 f4 94 be 04 81 fe bd 4a 05 16 be 8c cb 5f be
       -0.29093122 -0.124269515 -0.14650455 -0.2185499
000230 c0 c2 8e be 76 12 c2 be 67 16 a1 be cd a4 ba be
       -0.27882957 -0.3790471 -0.31462404 -0.36453858
000240 b8 09 65 be 59 33 c7 3d 17 c7 4e 3e 74 1b 5a be
       -0.22366989 0.09726591 0.20193134 -0.21299535
000250 03 76 95 be be 56 69 be 3c 8f bf be 31 d8 a0 be
       -0.29191598 -0.22786996 -0.37413967 -0.3141494
000260 c7 01 8d 3c cc 23 96 be 10 3c 8b 3e 56 4d 2d bd
       0.017212762 -0.29324186 0.27194262 -0.04231008
000270 e5 31 ad be 7b 4d 7e 3e c8 97 86 bd 53 ac 1d be
       -0.3382713 0.24834244 -0.06571919 -0.15397768
000280 8b 6a 68 be 12 b4 d1 be 98 d6 72 be 47 eb db bd
       -0.22696893 -0.40957695 -0.23714674 -0.10738235
000290 45 45 bf be 46 d0 87 be de 8b 9c 3e 44 5a 95 bc
       -0.37357536 -0.26526088 0.3057546 -0.018231519
0002a0 a1 45 29 3a 19 f9 3f 3d c5 f5 58 be f5 59 e6 bd
       0.0006457214 0.046868417 -0.21187504 -0.11247627
0002b0 fe 5e 70 bd 20 24 ab 3d 63 2d c8 3d ae d8 be be
       -0.05868434 0.083565 0.09774282 -0.37274688
0002c0 6a 92 b6 be ec 74 d9 3d 16 35 86 3d f9 5e a3 be
       -0.3565858 0.10618004 0.06553094 -0.31908396
0002d0 89 6a 41 3e 5d b5 2e 3e 0e a8 21 3e 1a 94 3c 3e
       0.18888296 0.17061372 0.15786764 0.18415871
0002e0 e7 0d 8b 3e 90 ea e5 bd f0 6b 41 bd 1b fd b5 be
       0.27159044 -0.1122638 -0.047222078 -0.35544667
0002f0 f0 9b 9b 3c 4c 8b c2 bd 66 0c a4 3e c1 b6 63 3e
       0.018995255 -0.09499225 0.3204071 0.22237684
000300 8e da 9a be c2 38 8b 3c b5 99 c2 3c 9e f5 95 bd
       -0.3024487 0.016994838 0.023754934 -0.073222384
000310 8e 9b a1 3c fe b5 c5 be 50 16 9a be 5d 80 24 3e
       0.019727495 -0.38615412 -0.30095148 0.16064592
000320 04 f5 a4 be 98 ce 7a bd 6a f9 d1 3d 62 ac 06 3e
       -0.32218182 -0.06123218 0.1025265 0.13151696
000330 a2 c1 55 3e f6 8c a9 3e bf 27 8d be ea aa 12 bd
       0.20874646 0.33115357 -0.27569386 -0.035807528
000340 2d d5 34 3e a8 e7 9b be 4a 84 70 be 9b b0 90 be
       0.17659445 -0.30450177 -0.23487964 -0.2825974
000350 3a e9 29 be 07 42 a8 3c 01 c2 3b bd cb 23 29 be
       -0.16592875 0.020539297 -0.045839313 -0.1651756
000360 f3 92 7e bc cf ae 57 3e b1 bb 28 bd 60 55 48 be
       -0.015537965 0.21062778 -0.04119462 -0.19563818
000370 0c 03 37 bc 18 b6 bb 3e d1 c0 68 3e 17 2e 41 be
       -0.01117016 0.36662364 0.22729804 -0.18865238
000380 a3 7f 92 be ce eb 88 be ba 0a 40 be 3d 19 9c 3d
       -0.28613004 -0.26742405 -0.18754092 0.07622001
000390 50 f5 a4 be 07 7e 4f 3e 93 a4 6c 3d 94 24 42 be
       -0.3221841 0.2026292 0.057774138 -0.18959266
0003a0 39 30 ac be 20 40 30 3e 1f 38 09 3e 49 d6 3a 3e
       -0.3363054 0.17211962 0.13400315 0.18245806
0003b0 bb 3c 3a 3e f5 69 fa 3d e7 54 7d 3e 4e ea c3 be
       0.1818723 0.12227241 0.24739419 -0.38264698
0003c0 a8 88 3e be 45 9a 8c 3c 56 8a 9b 3d 75 97 8e 3e
       -0.18606818 0.017163405 0.07594745 0.27849928
0003d0 72 33 b2 be 0e dd 48 bd 09 8d e9 3b fb 31 6d 3e
       -0.34804875 -0.04903894 0.0071274084 0.23163597
0003e0 0c c2 ff 3d b8 f7 23 bd 07 b6 e0 3d 21 fa 4c 3d
       0.124881834 -0.040031165 0.10972219 0.05004323
0003f0 48 3e 93 bd 72 47 91 be a0 5e ef 3c 5a fb 80 be
       -0.071896136 -0.2837482 0.029219925 -0.25191766

bias f4 [256]
000000 59 c0 25 be 0e 2b 93 be 51 2b 92 3d 97 5d 58 3d
       -0.16186656 -0.28743786 0.07137168 0.05282363
000010 e2 5d a2 be 2d 1b 9d 3e f2 e3 05 bd 1c a9 ac 3d
       -0.31712252 0.30684796 -0.03268809 0.084306926
000020 36 fa 00 3e d3 e4 1e 3e f5 48 34 be 49 67 6e 3e
       0.12595448 0.15516977 -0.17605956 0.23281588
000030 ec 3a 4b bd ef 83 94 3e 80 12 65 bc 7b 01 e4 3c
       -0.04961674 0.29006907 -0.0139814615 0.027832737
000040 59 5f 82 be 38 39 5f 3e 8b e6 47 be cd 63 83 3e
       -0.2546337 0.21799171 -0.19521539 0.2566208
000050 e9 80 40 3e d2 2d 25 bb 21 fa 6b bd fa bb 81 be
       0.18799175 -0.0025204313 -0.05761159 -0.25338727
000060 0a 67 c6 3d ba 0c 09 be 5f a4 b8 3e f8 a2 0c be
       0.09687622 -0.13383761 0.36062905 -0.13734043
000070 03 45 74 bd 92 d5 49 3e 6c ea 7a be 36 3b 28 bd
       -0.059636127 0.19710377 -0.24503487 -0.041072093
000080 a7 df 32 be b1 f6 be be a5 89 1e be 38 40 b0 bd
       -0.17468129 -0.37297586 -0.15482195 -0.08605999
000090 b0 d2 89 3c 3f e6 4a be c0 b3 4c 3c 9b ef 88 3e
       0.016824096 -0.19814394 0.012494028 0.26745304
0000a0 64 d7 8e 3d 81 a0 a2 3e 0c 62 fb bd 55 28 86 bc
       0.06974676 0.3176308 -0.1227456 -0.016376654
0000b0 33 0b 5a be 08 b7 74 bd 6b 13 0f be 18 49 76 3d
       -0.21293335 -0.059744865 -0.13972251 0.0601283
0000c0 f0 04 c0 be e8 6d 28 bd a1 40 2f 3e 58 30 13 3e
       -0.37503767 -0.04112044 0.17114498 0.1437391
0000d0 06 03 4d 3e e9 d1 b6 be 4c 79 b9 3d 0d 27 a1 3e
       0.20020685 -0.35707024 0.09056339 0.31475106
0000e0 b8 e3 e4 3d e2 15 83 be 84 b1 a5 be 13 a9 a1 3e
       0.111762464 -0.25602633 -0.32361996 0.31574306
0000f0 17 c6 9b 3e 36 e8 77 3e 19 d9 c8 be 40 ff 4a 3c
       0.30424568 0.24209675 -0.39228132 0.012389958
000100 c0 b1 3c 3d 5e a8 5c be ae 9d 89 3e 60 e6 c6 3d
       0.046067953 -0.21548602 0.26878113 0.09711909
000110 6a 49 ad be 26 8a 09 3e 29 f9 b8 be b0 e2 75 bd
       -0.33845073 0.13431606 -0.36127594 -0.06003064
000120 05 01 8b 3e 54 d7 62 be 0f 2c 07 be 5b 31 8c 3e
       0.27149215 -0.22152454 -0.13200401 0.27381405
000130 c4 4b 9a be 86 93 cb be b7 25 0a 3e d7 7f 0e 3e
       -0.3013593 -0.3976099 0.1349095 0.13915955
000140 9b f5 4b 3d c1 ed 55 be f5 f9 a7 3e f4 4b a1 3e
       0.049794775 -0.20891477 0.3280789 0.3150326
000150 ff 36 b2 bd 10 3f c3 bc da 98 b6 be 91 32 2d 3e
       -0.08701896 -0.023833781 -0.3566349 0.16913821
000160 14 b0 b2 bd 8a 1e 61 3e 74 bc c1 3d 48 c1 35 bd
       -0.087249905 0.21984306 0.09459773 -0.04437378
000170 40 27 7d bd d8 12 29 be f4 21 0d be b5 03 8c 3e
       -0.06180501 -0.16511095 -0.13782483 0.27346578
000180 e0 e9 42 bc 76 fa 99 3e 64 23 89 be 2a cf 01 3e
       -0.01189658 0.300739 -0.26784813 0.12676683
000190 4c 02 9b bd 6f d9 0b 3e 52 d4 80 3c e6 03 72 3e
       -0.075687975 0.13657163 0.015726242 0.236343
0001a0 f7 29 aa 3c 32 cd 05 3e 26 b7 6d 3e b2 9d 94 be
       0.020771964 0.13066557 0.23214397 -0.29026562
0001b0 bf 5a 4e be 9a f9 97 be fd 7a b3 3e db 7a be 3e
       -0.20151804 -0.29682618 0.3505477 0.37203106
0001c0 ac ba af 3d 5b 9c 07 be 31 50 c5 be 80 46 bb 3b
       0.08580527 -0.13243239 -0.38537744 0.0057151914
0001d0 e9 33 93 3e aa e4 7e 3e d4 23 ba be e2 64 c3 be
       0.28750542 0.24891916 -0.3635546 -0.38162905
0001e0 40 30 ed bc b4 be ff 3d c9 56 92 be 30 0f aa bc
       -0.028953671 0.124875456 -0.28581837 -0.020759195
0001f0 45 2d 26 be e6 16 ac bd dd dc 87 3e 72 47 3f be
       -0.16228206 -0.08402805 0.26535693 -0.18679598
000200 bf 4e a6 3e d0 d9 2c 3d 7f ab 95 be bc 0f 75 be
       0.32481954 0.04219991 -0.29232404 -0.23931783
000210 06 60 06 3e 6c 23 43 be cb f2 30 be 60 7c 34 bd
       0.13122568 -0.19056481 -0.17280118 -0.044063926
000220 da f0 a6 be e0 a4 c0 be 3e fc 48 3e e7 9c a5 3e
       -0.3260563 -0.3762579 0.19627473 0.3234627
000230 0b b7 9e 3e 0f a8 aa 3e 3f 17 47 be 44 ca d5 3d
       0.30999026 0.33331344 -0.19442461 0.1043897
000240 b1 7f b8 3e b0 45 61 3e 3b 8a 7f be 16 a9 9f 3e
       0.3603492 0.2199924 -0.24955074 0.3118369
000250 e5 c6 69 be 62 5a b2 3e 2b 36 a4 be 3b 8a 15 3e
       -0.22829778 0.34834582 -0.32072577 0.14603512
000260 0b bc d3 be 4b 34 37 be 00 68 11 ba 23 73 73 3d
       -0.41354403 -0.17891042 -0.0005546808 0.059435975
000270 00 82 1f bc a5 cc a0 bb 33 0f 80 be 00 d7 af be
       -0.009735584 -0.004907208 -0.25011596 -0.3434372
000280 20 1d 35 be 2b 79 04 be ac 98 5c be 02 ae 43 be
       -0.17686892 -0.12936847 -0.21542615 -0.19109347
000290 df 18 08 be f7 57 b0 3e 24 a3 5b be 26 8f b3 be
       -0.13290738 0.34442112 -0.21448952 -0.3507015
0002a0 c0 d9 86 3b 73 b7 b8 3e 21 48 7b 3d b2 f8 55 3e
       0.0041153133 0.3607746 0.061348084 0.20895651
0002b0 a0 dc 21 bd f1 57 b6 be 12 47 00 3e 40 2d 87 3b
       -0.039517045 -0.3561397 0.12527111 0.0041252673
0002c0 48 a7 0e be c6 dd a6 be 96 2d 12 3e 0c 65 9e be
       -0.13931 -0.32591075 0.14275202 -0.30936468
0002d0 3f 55 b3 3e 00 57 93 3b 37 ba 12 be f9 ef 1f be
       0.35025975 0.004496455 -0.14328848 -0.15618886
0002e0 83 94 01 be fa 2c a7 be e4 0a be be cd 95 4c be
       -0.12654309 -0.32651502 -0.37117684 -0.1997902
0002f0 50 4a cf bc 0b 10 8b be 1a 8e 85 be 16 53 57 3d
       -0.02530399 -0.27160677 -0.26084977 0.05256947
000300 db 53 48 bc ff 10 a9 3e 5a f9 9b be c4 42 1a be
       -0.012227024 0.3302078 -0.30463678 -0.15064532
000310 b5 f5 bd 3e 27 50 d5 3c 34 61 f7 bd 30 de 99 be
       0.37101522 0.026039196 -0.12079087 -0.30052328
000320 6a 20 b0 be dd c7 9f bd b0 1c cd bd 98 1d 66 be
       -0.3439973 -0.07801793 -0.10015237 -0.22472227
000330 da 74 86 bd e7 cd 97 3e 90 46 8d 3e ec e9 8b 3d
       -0.065652564 0.2964928 0.27592897 0.068317264
000340 d0 cc 86 3c 4e dd 57 3e 90 20 c7 bd 51 d7 bd 3e
       0.016455084 0.21080515 -0.09723008 0.37078336
000350 4f 80 68 be e0 42 c5 be d4 36 91 3d 87 24 b4 bd
       -0.22705196 -0.38527584 0.07090536 -0.087960295
000360 88 76 b4 be 55 f2 1d be 5a f1 34 be e6 9e 43 3d
       -0.35246682 -0.15424474 -0.17670193 0.04775896
000370 88 7e 60 3e 3c 7e e4 bd af b5 e2 3d 5c 0b 89 be
       0.21923268 -0.1115689 0.1106981 -0.2676648
000380 ae b7 a7 be 5f 7a b6 be d9 ee fb 3d de 14 5a be
       -0.32757324 -0.35640237 0.12301416 -0.21297023
000390 6e ef 1d 3e 65 9d 14 3c 74 db 0d be 57 18 8b be
       0.15423366 0.009070729 -0.13853246 -0.27167007
0003a0 67 4a d2 be 72 1d 09 3d 66 8f 6b be 0a e3 3f be
       -0.4107239 0.033475347 -0.23003921 -0.18738952
0003b0 33 2d b1 be c7 8e a0 3e 00 b7 24 bd 11 67 d2 3b
       -0.34604797 0.3135893 -0.040213585 0.006420978
0003c0 1d b9 e7 3d b5 09 9b 3e fc eb e4 3d 00 0f 44 bd
       0.113146044 0.30280843 0.11177823 -0.047865868
0003d0 82 61 32 3e 23 20 9e 3e 3a 6e 35 be 5a 00 58 be
       0.17420009 0.30883893 -0.1771783 -0.21093884
0003e0 0e f2 13 3e 70 00 90 bd 13 0d 4e be 9e 5e 9c 3e
       0.14447805 -0.070313334 -0.20122175 0.30540937
0003f0 60 a7 e7 bd 8a 5f c4 3c 5c 44 8b be 00 e5 77 3b
       -0.11311221 0.023971338 -0.27200592 0.0037825704

weight f4 [256, 256]
000000 50 d3 e2 3c d0 a7 1e bc 4c ac cd 3c 10 f0 76 bd
       0.027688652 -0.009683564 0.025106572 -0.060287535
000010 b2 2f 04 3d b8 b7 53 bd 00 79 ba ba c0 e1 1c 3d
       0.03227205 -0.05168888 -0.0014226735 0.03830123
000020 be 2a 16 bd a0 19 59 bc f0 e2 68 bd 44 9d 36 3d
       -0.036661856 -0.013250738 -0.05685705 0.044583574
000030 0c 2e af 3c 0a 3a 69 bd 78 fc e3 3c 68 fb 7c bc
       0.021384262 -0.056940116 0.027830347 -0.015440799
000040 00 ba 7f 3d b0 29 2c bd ee f0 3b bd 10 a6 07 3c
       0.062433243 -0.042031944 -0.045884065 0.0082793385
000050 18 d1 5d 3c 98 22 4e 3d b8 e5 08 bd 50 dd f9 3b
       0.013538621 0.05032596 -0.033422202 0.0076252595
000060 88 b5 06 bd d0 31 fa 3b 6c 3b f6 3c 00 2c 9a bb
       -0.032887965 0.0076353326 0.030057631 -0.0047049522
000070 c0 16 07 3d 80 df 83 bc cc 97 de bc 56 d9 6b 3d
       0.03298068 -0.016097784 -0.027171992 0.057580315
000080 88 92 4e bd 8a 65 32 bd 00 f4 fb 38 7c ef 56 bd
       -0.05043271 -0.043553866 0.00012014061 -0.052474484
000090 20 75 66 bc 30 a0 cb bb 46 48 5f bd 28 5d 13 bd
       -0.014066011 -0.006214164 -0.054512285 -0.035977513
0000a0 ae 28 46 bd 78 36 56 bd dc ce 1d bd 60 0d 78 3d
       -0.04837864 -0.05229804 -0.038527355 0.06055963
0000b0 bc 87 9f 3c d4 89 93 bc d4 6e 49 bd 3c f7 5c bd
       0.019473903 -0.018010058 -0.04917796 -0.05394672
0000c0 52 1f 43 bd 8c 30 6a 3d 5e 5c 2f bd 18 d0 07 bd
       -0.04763729 0.057175204 -0.042812698 -0.033157438
0000d0 7c 42 e9 3c b0 76 97 bc f6 52 7e bd 00 e9 f6 3a
       0.028474085 -0.018489212 -0.062090836 0.001883775
0000e0 68 7e d0 3c a0 c8 fc bb 24 55 99 bc 1a 19 07 bd
       0.0254509 -0.007714346 -0.018717356 -0.032982923
0000f0 a0 59 2c 3c 64 07 df bc f2 e9 2c 3d b8 ba 2c 3d
       0.010519415 -0.027225204 0.042215295 0.042170256
000100 0c 59 0a bd 58 95 07 bc ac 4b bd bc 6e da 10 bd
       -0.033776328 -0.008275352 -0.023107372 -0.03536456
000110 e8 26 2d bc f4 88 80 bc 88 17 b1 3c e8 73 8c bc
       -0.010568358 -0.015690304 0.021617666 -0.017145112
000120 f2 ad 0a bd aa 7f 0f 3d 60 96 00 bd 6c 77 a7 3c
       -0.033857293 0.03503386 -0.03139341 0.020442687
000130 a0 b7 ed bb 80 77 c5 ba 4c bf 78 bd c0 7c 2a 3b
       -0.007254556 -0.0015065521 -0.06072931 0.0026014298
000140 80 cc 76 ba 3a b8 79 3d 92 2b 5a 3d 36 15 55 3d
       -0.0009414628 0.060966708 0.05326421 0.05202218
000150 00 39 d9 39 a4 b0 39 bd d4 4b c2 3c fe 0b 6c bd
       0.00041431934 -0.045334473 0.023717798 -0.057628624
000160 e2 88 61 bd 96 ae 39 bd 40 4d 6e 3d ba a8 25 3d
       -0.055062182 -0.045332514 0.05817914 0.040444113
000170 b8 c8 2f bc 32 00 28 bd 00 76 e8 ba 9c 06 6f bd
       -0.010729007 -0.04101581 -0.0017735362 -0.058355913
000180 58 a3 4f 3d b8 7c ac 3c c0 10 b8 3a 9c 34 85 bc
       0.050692886 0.021055564 0.0014043078 -0.016260438
000190 aa 8b 0c bd a4 27 ef bc 50 0f 27 bc 7c 2b b4 3c
       -0.03431288 -0.029193707 -0.010196522 0.021993391
0001a0 54 1e d0 3c 9a 65 00 bd 26 fc 7b 3d 68 65 3d 3c
       0.025405087 -0.031346895 0.061519764 0.011559822
0001b0 90 a9 35 bd 0c b1 76 3d c0 e2 ed 3c c0 56 ee bc
       -0.04435116 0.06022744 0.029038787 -0.0290941
0001c0 2a 29 6a bd 80 45 5d bd 54 49 38 bd f0 21 95 3c
       -0.057168163 -0.05402136 -0.044991806 0.01820466
0001d0 20 82 a7 3c a0 0c 14 3b 80 0a 42 bc 4c 43 5f bd
       0.02044779 0.0022590533 -0.011843324 -0.05450754
0001e0 3c 8e 54 3d 5a 42 63 bd 38 f9 65 bc a0 13 6a 3b
       0.051893458 -0.0554832 -0.014036469 0.0035717264
0001f0 70 de 90 bc 74 30 87 3c 80 be 65 bb a4 5f de 3c
       -0.017684191 0.016502596 -0.0035056174 0.027145214
000200 fc a8 ec 3c a4 a2 aa bc c6 7a 56 bd 3a cc 15 bd
       0.028889172 -0.020829506 -0.05236318 -0.03657172
000210 f2 f0 72 bd 60 92 8d bc 00 69 24 3b d0 aa ca 3c
       -0.059311815 -0.017281711 0.0025087 0.024739653
000220 ec d1 19 bd 5c 74 b3 bc c0 a9 7c 3b fa 43 50 bd
       -0.037553713 -0.02190607 0.0038553327 -0.050846078
000230 34 07 1c 3d 30 5c 3f 3c fc ce 2b bd f0 59 da 3b
       0.038092807 0.011679694 -0.041945443 0.0066635534
000240 80 f7 ad 3a 88 5b b7 bc 98 de a0 bc 7a 54 2a bd
       0.0013272613 -0.022382513 -0.019637391 -0.04158447
000250 08 8c 76 3c d0 28 a4 3c 56 2d 44 bd a0 5e 79 bc
       0.0150480345 0.020038992 -0.0478948 -0.015220314
000260 40 27 c6 3c c6 94 54 bd b8 2c 51 bd e8 52 77 bc
       0.024188638 -0.051899694 -0.051068038 -0.01509545
000270 d8 97 02 3c 24 f0 7b 3d 78 de 4e 3d 3a bc 17 bd
       0.007970773 0.061508313 0.05050513 -0.03704474
000280 c2 b9 2f bd 78 9f 70 3d 9c 5d 0a 3d 06 1a 6d bd
       -0.04290176 0.05874583 0.03378068 -0.057886146
000290 2a 02 41 3d 32 9f 62 3d 7a 5a 6d 3d 50 53 a2 3b
       0.047121204 0.0553276 0.057947613 0.0049537793
0002a0 b8 7e 35 bd b0 4b 3b 3d 90 9d f2 bb 98 61 bf bc
       -0.0443103 0.045726478 -0.007404037 -0.023361966
0002b0 c4 b9 0e 3d 86 c9 19 bd 98 a2 a9 3c 18 d0 e7 3c
       0.03484513 -0.037545703 0.020707414 0.028297469
0002c0 fc a0 15 bd 3c 98 b4 bc 38 71 5f bc 92 da 6b bd
       -0.03653048 -0.022045247 -0.013637833 -0.05758149
0002d0 3a 51 61 3d d4 76 4c 3d f8 8a 06 3c 6a 34 66 bd
       0.055009104 0.04991801 0.008211844 -0.05620233
0002e0 38 e3 58 3c bc eb d3 bc cc a7 00 bd 06 d8 3a bd
       0.013237767 -0.025869243 -0.031410024 -0.045616172
0002f0 b2 de 5c bd d0 38 03 3c 98 f4 2c bd 00 3a c6 3a
       -0.053923316 0.008009151 -0.04222545 0.0015123487
000300 80 ec ba 3a 58 a9 f2 3c 60 cd 2d bc 90 93 49 3d
       0.0014261156 0.029621765 -0.010608047 0.049212992
000310 30 2d 1a 3c 30 3d 5e bc 70 a0 f6 bb 00 44 1f ba
       0.009410188 -0.013564393 -0.00752645 -0.00060755014
000320 f4 7d 42 3d 98 75 36 bd d2 2e 38 bd 0c 96 1c bd
       0.0474834 -0.04454574 -0.044966526 -0.038229033
000330 d6 60 44 3d 00 cc 3b 3c 8a b6 77 3d b8 79 62 3d
       0.047943912 0.011462212 0.060476817 0.05529186
000340 50 2d 95 bb 84 aa b6 3c 20 e0 3c 3c 78 ef f1 3c
       -0.004552521 0.022298105 0.011528045 0.029533133
000350 9c f6 02 bd b0 c7 d7 3b 34 ad b9 3c 70 44 1b 3d
       -0.031973466 0.006585084 0.022665597 0.037907064
000360 1c 97 a6 bc c8 54 99 3c c0 10 ad bc f0 15 38 bc
       -0.020335726 0.018717185 -0.021126151 -0.011235699
000370 74 fa 1e 3d d4 37 70 bd d0 f4 5c 3d 6e 2e 63 3d
       0.03881307 -0.05864699 0.05394441 0.0554642
000380 50 2c 72 bc 0c 60 3a 3d 26 33 76 3d 78 4b 58 3c
       -0.014781073 0.045501754 0.060107373 0.013201587
000390 40 b4 41 bb cc 6f 55 3d 74 55 9c bc 12 06 59 bd
       -0.00295569 0.05210857 -0.019083716 -0.052984305
0003a0 40 9e d0 3c 48 1c 41 3d 4c 41 a7 bc e0 4e 4f 3b
       0.025466084 0.04714611 -0.020416878 0.0031632707
0003b0 6a 0a 16 3d 28 b7 30 bd a0 21 b8 3b 8c 90 e5 bc
       0.036631025 -0.04314342 0.005619243 -0.028023027
0003c0 3a bb 3e bd 50 47 27 3d 36 fc 78 3d bc 17 21 bd
       -0.046565272 0.040839493 0.060787402 -0.039329275
0003d0 b0 18 19 3c 10 15 99 3c 90 64 e1 bb 40 10 c8 bc
       0.009344265 0.018686801 -0.006878443 -0.024421811
0003e0 60 89 09 3d d0 8a 1f 3c d4 97 b0 bc 40 06 73 3b
       0.033578277 0.009737685 -0.021556772 0.0037082583
0003f0 88 c8 3b bc 38 b4 1a bc 90 e3 5d 3d 62 47 40 bd
       -0.011461385 -0.009442382 0.0541721 -0.046943076

bias f4 [256]
000000 28 63 3e bd ac 14 36 bc 20 ce c2 3b a8 29 e5 bc
       -0.04648128 -0.011113327 0.005944982 -0.027973965
000010 44 b2 4c 3d ca 49 fe b8 f7 e0 17 3d 40 ee e9 bc
       0.049974695 -0.00012125408 0.037079778 -0.02855599
000020 dd 6e 78 bd 94 09 97 3c e6 89 38 3d 74 01 8e 3c
       -0.060652602 0.018437184 0.045053385 0.017334677
000030 c8 17 2a bc 9e a2 bb 3c 80 ca da 3a b1 4a 96 bd
       -0.010381646 0.02290469 0.001669243 -0.07338465
000040 38 db 21 3d 57 1e 24 3d 0a e2 79 bd 10 c6 b4 3c
       0.039515704 0.040067997 -0.061006583 0.0220671
000050 90 9e b6 3c 68 1b 74 3c 66 32 89 bc 1e d5 5e bd
       0.022292405 0.014899112 -0.016747665 -0.054402463
000060 80 0d f9 bc ec eb 28 bd cc 3e 08 bd dc ed c3 3c
       -0.030401945 -0.041240618 -0.033263013 0.023917131
000070 10 3e 5b 3d 28 93 85 bd b0 7a d8 bc 9d 53 32 3c
       0.053525984 -0.065222085 -0.02642569 0.010884193
000080 44 37 9e bd 68 01 19 3d dd 12 a9 bc 86 ff 17 bd
       -0.07725385 0.037354857 -0.020638878 -0.03710892
000090 41 7e b6 3b 0f 1f 34 3d bc 14 a9 bb d4 80 18 3d
       0.00556925 0.043974932 -0.0051599424 0.037232235
0000a0 e8 f1 93 3c 5c 46 ab bc c0 b8 7a 3b 06 9b c1 bc
       0.018059686 -0.020907573 0.0038257092 -0.023633491
0000b0 0d e5 de bc 80 e8 b8 ba ad 71 ce 3c 94 eb 74 bd
       -0.02720883 -0.0014107376 0.02520069 -0.059794977
0000c0 22 5b 52 bd 88 89 79 bc 70 0f c4 bc 3c c4 06 bc
       -0.051356442 -0.015230544 -0.023933142 -0.008225497
0000d0 42 dc 52 3d 52 a6 73 3c 6d bf a8 bb ef cd 80 bc
       0.051479585 0.014871197 -0.005149773 -0.015723197
0000e0 dc f7 23 bd db d0 28 39 40 33 01 3b af 81 5d 3c
       -0.0400313 0.00016099533 0.0019714385 0.0135196885
0000f0 2c e8 1e bd d4 d6 23 bd 28 04 43 3c 66 6c 3c bd
       -0.038795635 -0.039999798 0.011902846 -0.046001814
000100 03 31 4a bc 94 5a bb bd 36 1b 8d bd d5 b5 a9 3c
       -0.012340787 -0.09148136 -0.06889956 0.020716587
000110 a8 9a 69 3c b0 f1 77 bc 3e 06 8c bc cf 39 8b 3c
       0.014258064 -0.015133306 -0.01709282 0.016995339
000120 12 ea 02 bd 2c 62 07 3d 14 c3 c1 3c 46 4c 72 3d
       -0.031961508 0.03305261 0.02365259 0.05915477
000130 68 48 c2 bc fd b0 36 bd 7d cb 62 bd b4 d4 7f bd
       -0.023716167 -0.044602383 -0.055369843 -0.06245871
000140 94 7c 7f bd c0 e8 0c bc 33 5b 05 3b 42 d2 4a bc
       -0.062374666 -0.008600414 0.0020348548 -0.012379231
000150 07 fd 4c 3c eb 20 5d 3d 99 dc 84 bd fb 05 28 3c
       0.012511498 0.05398647 -0.06487388 0.010255332
000160 60 28 11 3d f8 cf 47 bc a6 f2 8f 3c 98 92 f6 bc
       0.035438895 -0.01219558 0.017571758 -0.030099198
000170 a4 ec cb bc 08 57 c6 39 a6 ed 65 3d a8 20 3e bd
       -0.024893112 0.00037830346 0.056134842 -0.046417862
000180 10 e4 13 3d 67 45 3e bd 40 20 b9 3c 14 57 53 bd
       0.03610617 -0.046452906 0.022598386 -0.051596716
000190 92 44 32 bc 0c c7 b1 bc 58 93 b9 bc d0 e4 e3 3c
       -0.010880606 -0.021701358 -0.022653267 0.027819067
0001a0 0a 0a 6c bd 0e ea 4e bd e8 c7 2d bd c0 3c 96 bc
       -0.05762676 -0.05051618 -0.042426974 -0.018339515
0001b0 cd 85 1d 3d c1 f0 94 bd 6e fc c9 ba d6 d5 48 bd
       0.03845768 -0.07272483 -0.0015410313 -0.049032055
0001c0 10 15 5a 3c 51 ac 29 3d 62 15 5f bd c8 27 8c bd
       0.013310686 0.0414241 -0.05446375 -0.06843525
0001d0 9e f0 6a bd 31 83 3c bd c0 ea 55 bd d4 00 09 bd
       -0.057358377 -0.04602355 -0.05222583 -0.033448055
0001e0 40 01 2c bd 6e d0 1b 3d 1b 9f 86 bc a2 05 0c 3d
       -0.04199338 0.03804057 -0.01643329 0.03418506
0001f0 d7 27 f2 3c 8e de 2d bd d5 df 12 3c ce ca 7e 3d
       0.029560013 -0.042448573 0.0089644985 0.06220513
000200 50 3d 5f 3c ec 43 22 3c 8c 83 8b bc 04 da 1a bd
       0.013625458 0.009903889 -0.0170305 -0.037805572
000210 09 1d 07 bd f4 39 b2 3c 40 ba e2 bb 76 86 17 3d
       -0.032986674 0.02175615 -0.0069191754 0.036993466
000220 a0 75 ff 3c bd 8a 30 3d 98 0d 1e bd 90 49 dd bc
       0.031184018 0.04310106 -0.038587183 -0.027012616
000230 d4 02 ec 3c e0 b3 09 bd 84 08 eb 3c 5c e4 33 ba
       0.028809942 -0.033618808 0.028690584 -0.00068623363
000240 58 c6 65 bd c8 17 46 bd 01 98 a4 bc 04 28 47 bd
       -0.05609736 -0.048362523 -0.020092012 -0.048622146
000250 80 dc 4a ba 0a 7c 5c bd 85 f3 65 3c 16 ef 73 3d
       -0.00077385455 -0.05382923 0.01403511 0.059554182
000260 b1 0d 2e 3d 58 c1 85 3c 42 90 40 3c 0b b0 41 bd
       0.042493526 0.016327545 0.011753144 -0.04728703
000270 f3 b7 bb bc fa 4a d8 bc f5 96 6a bd 2e 78 e3 3c
       -0.022914862 -0.02640294 -0.05727287 0.027767267
000280 d2 0a 01 bd 14 cf e5 3b b2 f9 0e 3d 1a 89 89 bd
       -0.03150446 0.007013211 0.034906097 -0.06715603
000290 90 65 9e bd 2b 73 02 bd e5 79 2e 3d 63 9e 8d bc
       -0.07734215 -0.031848114 0.042596716 -0.017287439
0002a0 23 a8 a0 3c e3 28 1c 3d 45 e0 f3 b9 21 dc 40 bd
       0.019611424 0.03812493 -0.00046515666 -0.04708493
0002b0 5c 0a 9d bc ea 52 78 bd e2 88 6f bd 19 c2 2c 3b
       -0.019169979 -0.060625948 -0.05848015 0.0026360808
0002c0 40 d5 12 3c ba ca 5e 3d e7 5b 10 bd a7 2e 1e 3d
       0.008961976 0.054392554 -0.035243895 0.03861871
0002d0 5c ce 2f 3d 6c f9 e3 3c 17 b0 f0 3a bc 80 11 3d
       0.04292141 0.027828895 0.0018363026 0.03552316
0002e0 ad 3e 16 bd a4 ee 48 bd 5f 31 5d 3d f2 7e 29 3d
       -0.036680866 -0.04905571 0.054002162 0.04138083
0002f0 bc 3f 27 bd 83 49 81 bd e4 ed 3a 3d 8a f0 68 3d
       -0.040832266 -0.063128494 0.045637026 0.05687002
000300 58 28 74 bd dc e2 d4 3c d4 b0 50 bd 46 0b 0a bd
       -0.059608787 0.025987081 -0.050949886 -0.033702157
000310 72 46 76 3d d1 b8 0d 3d 70 f0 9a 3c 3d d9 3a bc
       0.060125776 0.034600083 0.018913478 -0.011404333
000320 94 c6 70 bd 86 ac 61 3d 78 9d f0 3c 67 7f 89 bb
       -0.05878313 0.05509617 0.029371962 -0.0041960957
000330 14 8e f6 3c 92 8e 55 bd f4 90 69 3d 24 db b9 3c
       0.030097045 -0.05213792 0.057023004 0.022687502
000340 9a 6b 15 bd aa 91 36 bd 50 ac 4c bc 12 3e 6f 3d
       -0.03647957 -0.04457251 -0.012492254 0.058408804
000350 65 37 89 bb ab 0d 2f 3c 83 62 3b 3d 38 1f a7 bc
       -0.0041875117 0.010684411 0.045748245 -0.020400628
000360 52 cb 74 bd 80 6e 6c ba c0 b6 54 3c a5 1c 1f bd
       -0.059764214 -0.00090191513 0.012983024 -0.038845677
000370 04 ca 0e bb 64 7a 6f bd 2a 9e 9d bc e3 6d f1 bb
       -0.0021787891 -0.05846633 -0.019240458 -0.007367836
000380 c9 45 62 3d e8 51 68 3d 71 13 7a bd d4 3a e8 3c
       0.055242334 0.056718737 -0.061053697 0.028348364
000390 d0 cb 56 3c a6 cf b8 bc 70 4e 6d bb cc cd 31 3d
       0.013110116 -0.022559952 -0.0036210082 0.043409154
0003a0 7a d8 67 3d 56 85 e3 bc 0d a9 21 bd 8b 10 ca bc
       0.056602933 -0.02777354 -0.03946786 -0.024666091
0003b0 d0 5b ba 3c 57 3e a2 bb f3 a4 10 bd a0 7a 0a bd
       0.022748858 -0.004951279 -0.035313558 -0.03380835
0003c0 8c db 57 bd ec 2a eb 3c 50 dc ff 3b 80 f0 6b 3d
       -0.05269961 0.02870699 0.0078082457 0.057602406
0003d0 38 05 07 3c a2 db 11 bb ba 28 57 bd 1b 8f 21 3d
       0.00824099 -0.0022256155 -0.052529074 0.039443117
0003e0 08 df e0 3c 82 c1 87 3b 72 13 3c bd 58 41 06 3d
       0.0274501 0.004142941 -0.045916982 0.03277716
0003f0 6a 23 6f bd 7d 9a bb bd f0 bd a6 3c 30 59 00 bd
       -0.058383383 -0.09160326 0.020354241 -0.031335056

weight f4 [5, 256]
000000 94 3d 76 3d fc cf 32 3d e6 a4 4e bd f4 d9 d1 bc
       0.06011732 0.04365538 -0.05045023 -0.025616623
000010 b8 bb 43 bd a9 50 dd bc a0 f0 89 bc 58 65 32 3c
       -0.047786444 -0.027016 -0.016838372 0.01088842
000020 34 1c 2d 3d c4 23 bf bc 49 77 fc 3b 75 71 a8 3a
       0.042263225 -0.023332484 0.0077046496 0.0012851196
000030 fa d3 17 3d 38 e3 25 bd a0 7b 16 3d d1 0c ab bc
       0.03706739 -0.040499896 0.03673899 -0.020880135
000040 a0 1a a0 3c 54 14 f7 3c 32 8b c6 bb 70 ea ed 3b
       0.019543946 0.03016106 -0.006059074 0.007260613
000050 2a 39 7b bd 88 c7 28 3c ff 5e 81 bb 78 9f 21 3d
       -0.061333813 0.010301478 -0.003948092 0.039458722
000060 f4 8f 78 3d 09 4e 26 bd 40 66 fd 3c e6 34 aa bb
       0.06068416 -0.040601764 0.030932546 -0.0051942943
000070 ee 75 4b 3d 85 4d aa bb a7 a2 36 bd 09 bf 56 bd
       0.049673013 -0.0051972293 -0.04458871 -0.05242828
000080 70 95 7f bd 37 f4 0e 3d 44 1d 60 3c b4 77 51 3d
       -0.062398374 0.03490087 0.0136788525 0.05113955
000090 0e c0 9b bc 0f db 31 3d bd 46 d2 bc 46 1c 11 bd
       -0.019012477 0.0434218 -0.025668496 -0.035427354
0000a0 9a a2 b8 ba 94 a3 0a 3d e4 5a df 3c 59 3f 1a 3d
       -0.0014086545 0.033847407 0.02726502 0.03765807
0000b0 9d 6c 8e bc f0 2f fb bb 78 a3 eb bb 6e 78 f1 bc
       -0.017385775 -0.0076656267 -0.007191118 -0.02947637
0000c0 55 49 12 bd 14 1c 8c 3c 11 7a 5a 3d 42 25 9e 3c
       -0.035714466 0.017103232 0.053339068 0.019304875
0000d0 70 88 4c 3c f0 bd b8 3b 80 a9 a4 3b 52 43 76 3c
       0.012483701 0.0056378767 0.005025089 0.015030699
0000e0 04 8d eb 3c 8f 18 fe 3c 3c 57 f5 bc c3 00 f6 ba
       0.028753765 0.03101757 -0.029948823 -0.0018768538
0000f0 36 6d 56 3d b0 67 21 3d 72 72 67 3d 7a 3e 1d 3d
       0.052350245 0.039405525 0.056505628 0.03838966
000100 36 0e 19 3d ed b9 a4 bc 64 c6 a2 3c cf b6 28 3d
       0.03736707 -0.020108188 0.01986999 0.041189965
000110 ce a7 67 bd 74 92 af 3c 7e f6 5b bd 86 7e eb 3c
       -0.056556515 0.021432139 -0.05370187 0.028746855
000120 41 5c 8b 3c 4c 80 b9 bc b2 0a f0 bb e0 f9 24 3d
       0.017011764 -0.022644185 -0.0073254937 0.040277362
000130 54 a6 8b 3c 0d 0b a6 bc 8a 3a 37 3d 00 ec 42 bb
       0.017047085 -0.020268941 0.04473356 -0.0029742718
000140 00 7d 11 3c 50 23 2f bc d7 b5 b4 3d b7 19 45 3d
       0.0088799 -0.0106895715 0.08823746 0.048120227
000150 7a ec 82 3d 96 1f 1f bd 6e a6 4d bd d4 24 ff bc
       0.063927606 -0.038848482 -0.050207548 -0.03114549
000160 40 9c 45 bc 90 11 83 bb 1c ac 35 bd b5 56 3e 3d
       -0.012061179 -0.0039998963 -0.04435359 0.04646941
000170 90 10 25 3c 0f 4b 15 bd 70 e0 c5 3b f4 91 d2 bb
       0.01007475 -0.036448535 0.006038718 -0.0064260904
000180 80 94 d4 bb 27 8b c9 bb 26 e2 2f bd 78 fb 55 3c
       -0.006487429 -0.0061506215 -0.04294028 0.013060443
000190 98 83 25 bc c0 9c 54 bd 87 5c 4e bd ba 0e 07 bd
       -0.010102175 -0.0519073 -0.05038121 -0.03297303
0001a0 46 50 58 bd 54 e2 94 bc 90 06 7b bd 56 49 48 3d
       -0.05281093 -0.018174328 -0.061285555 0.048898064
0001b0 b3 47 03 bd 5a eb 59 3d 63 78 15 bd 32 3c 09 bb
       -0.0320508 0.053202964 -0.036491763 -0.002094042
0001c0 18 2c 76 3d c1 0c 57 3b 25 a1 7d bc f6 08 33 3d
       0.060100645 0.0032813998 -0.015480314 0.043709718
0001d0 4b 9d 89 3d 08 ee 01 3c 58 06 95 3c ce aa 6b bd
       0.067194544 0.007930286 0.018191501 -0.05753594
0001e0 00 7b ee 39 b7 f8 05 3c 1b 9a cf 3d 4c 92 64 3d
       0.0004548654 0.008176974 0.10136815 0.055803582
0001f0 d0 88 2b ba e8 cd 89 3c 7e 92 75 bc f2 9c e8 3c
       -0.0006543519 0.016821817 -0.01498854 0.02839515
000200 64 fc 27 bb 3d c9 b2 bc 62 7e 1b 3d 76 4e 56 bd
       -0.0025632614 -0.021824474 0.037962325 -0.05232092
000210 41 0e ef bc 30 af 39 bc 56 28 69 3d 10 15 95 bc
       -0.029181601 -0.011333272 0.056923233 -0.01819852
000220 60 2d 2e 3b ea 7f 88 3d 28 2b e5 3c 78 4c c4 3c
       0.0026577339 0.06665023 0.02797468 0.023962244
000230 48 7f 76 bd c0 88 68 3d 89 87 00 3d df b1 82 bc
       -0.06017998 0.05677104 0.031379256 -0.015953956
000240 d8 bb 3b 3d 5c f8 c9 3a 37 da a8 3c 74 65 d9 3c
       0.04583344 0.00154091 0.020611865 0.026537634
000250 b0 ae b0 3b d4 19 2d bd a9 9a b4 3c d4 97 c7 bc
       0.005391918 -0.04226096 0.022046404 -0.02436439
000260 f4 b8 56 bd 80 d6 4e bc 83 19 66 3d ef 8c 5e 3d
       -0.05242248 -0.012624383 0.056176674 0.054333623
000270 72 cb 0f 3d 34 bd 09 bd 28 c3 4c 3d f5 6a 19 bc
       0.03510613 -0.033627704 0.049990803 -0.009363879
000280 30 4d aa 3b 77 06 cd bc 60 88 d4 3c 08 ed 5a bd
       0.0051971897 -0.025027497 0.025943935 -0.053448707
000290 e2 ac c1 bb b5 16 34 3d 89 6d 36 3d 45 88 3c bc
       -0.005910502 0.043966968 0.044538055 -0.011507099
0002a0 e2 7d 52 3d e8 6f 64 3c b6 0d 44 3c f9 a9 42 3c
       0.051389582 0.013942696 0.01196616 0.011881345
0002b0 00 4b 4b bb 5c 71 af 3c db 25 42 3d 34 78 37 bd
       -0.0031020045 0.021416359 0.047399383 -0.04479237
0002c0 4a ac 2b 3d 68 86 14 3c 06 ba be 3b e6 86 75 3c
       0.041912355 0.009065248 0.0058205156 0.014985776
0002d0 c8 21 63 bd 58 bb 40 bd f0 18 f3 3c 00 6d 3b 3a
       -0.05545214 -0.047053665 0.029674977 0.0007149726
0002e0 19 ff 91 3a 2e 2f 82 3c 8a dc 1f 3d 20 f2 e0 3c
       0.0011138647 0.015891638 0.03902868 0.027459204
0002f0 54 50 ba bc 35 06 2f bd 68 75 d6 bc a0 d3 6c bb
       -0.022743382 -0.04273053 -0.02617903 -0.003613688
000300 28 99 2d 3c 84 0b 75 3d 40 6e e1 3c b0 2a 8b bc
       0.010595597 0.059825435 0.027518392 -0.016988128
000310 00 23 a1 ba 83 f7 34 3d 76 32 4b 3d f8 ab 10 3c
       -0.0012293756 0.044181358 0.04960867 0.008830063
000320 86 d1 53 3d 34 41 c4 bc 8c fa 60 bd b0 24 9d 3c
       0.05171349 -0.023956873 -0.05492644 0.019182533
000330 e4 8d 6b 3d b0 b5 2a bd 2a 96 72 3d d0 c1 ef bc
       0.057508364 -0.041677177 0.05922524 -0.029267222
000340 70 2b 70 bc 2b 71 83 bc 48 0d 4c 3c e0 4d 45 bd
       -0.014658794 -0.016045174 0.012454338 -0.04816997
000350 30 66 11 3d 75 36 b8 3b f2 47 bb 3c d0 1e c9 bc
       0.035497844 0.005621726 0.022861455 -0.024550825
000360 20 04 78 bd bc c9 56 bd 85 f9 12 3d 6c 8a 21 3d
       -0.06055081 -0.052438483 0.03588249 0.03943865
000370 9a 64 3f bb 00 8b bc bc f0 66 f7 3c 29 ae 3a 3d
       -0.002920425 -0.0230155 0.030200452 0.04557625
000380 fa 23 54 3d 80 d7 fd ba 01 b1 01 bd cc a6 d1 3c
       0.051792122 -0.0019366592 -0.031662945 0.02559223
000390 d9 6f e7 bc 98 24 06 bd 78 7c 98 bb 0e 73 60 3d
       -0.028251575 -0.032749742 -0.0046535097 0.054797225
0003a0 f8 82 58 bd b3 7f 3e bc d1 e7 38 3d b0 6c b8 bc
       -0.052859277 -0.011627126 0.045142952 -0.022512764
0003b0 40 ae 9d bc 1c d6 2a bd 3b 2a 38 bd 50 b3 da bc
       -0.019248128 -0.041708097 -0.04496215 -0.026696831
0003c0 00 a0 f5 bb 8c 2e 84 3c e4 3c 7d bc 0e e7 fd 3c
       -0.00749588 0.016135477 -0.015456412 0.030993965
0003d0 90 ba b6 bc 0d f4 35 3d 7c fa 98 3c 08 80 cc 3c
       -0.022305757 0.044422198 0.018674128 0.024963394
0003e0 8c 72 2c bd 07 80 75 bc a0 64 75 bd 3b d0 ab 3b
       -0.042101428 -0.014984137 -0.059910417 0.005243329
0003f0 58 7d 2f 3c 32 9f 66 bd b0 12 87 3d e2 5f 65 3d
       0.010711037 -0.056304164 0.06595361 0.055999644

bias f4 [5]
000000 df cc 6d 3d 9a fb 61 3c d1 ec 2a bd ac d8 a2 bb
       0.05805671 0.013792897 -0.041729752 -0.004969677
000010 f6 29 fb bc
       -0.030659657

exp_avg f4 [256, 7]
000000 00 00 00 00 00 00 00 00 00 00 00 00 00 00 00 00
       0.0 0.0 0.0 0.0
000010 00 00 00 00 00 00 00 00 00 00 00 00 e8 e0 10 39
       0.0 0.0 0.0 0.00013816694
000020 75 8d 7f 3a a2 35 5a b9 d8 81 ae 3b 89 fa d2 bb
       0.0009748557 -0.0002081008 0.005325537 -0.0064385575
000030 13 a1 08 3c c6 9c 24 b9 3f 02 0e b9 4d 9b a3 b9
       0.008339184 -0.00015698661 -0.00013543012 -0.0003120549
000040 94 1b 8d 38 78 c9 1d ba c9 8b 89 3a a3 68 9a ba
       6.728541e-05 -0.0006019096 0.001049393 -0.0011780452
000050 1b e0 79 38 6c 71 09 39 8b a0 84 b9 d1 bc b4 38
       5.957494e-05 0.00013107591 -0.00025296616 8.618239e-05
000060 be 72 1f 3b d3 75 17 bb 74 50 5c 3b 6f 9c 09 ba
       0.0024329866 -0.0023111 0.003361729 -0.00052494457
000070 fa 48 a6 b7 e9 c3 95 b9 7a 95 0a 39 4a c0 e8 3a
       -1.9822724e-05 -0.0002856546 0.0001321639 0.0017757502
000080 22 b6 c0 ba 4d 8d 16 3b 97 92 ea b9 00 00 00 00
       -0.0014702717 0.0022972405 -0.00044741176 0.0
000090 00 00 00 00 00 00 00 00 00 00 00 00 00 00 00 00
       0.0 0.0 0.0 0.0
0000a0 00 00 00 00 00 00 00 00 0e 12 86 b9 0c 49 5a ba
       0.0 0.0 -0.00025571923 -0.0008326925
0000b0 ad 88 7b 39 0e 73 90 bb 52 1d b4 3b 4e 37 e6 bb
       0.00023988141 -0.004408247 0.0054966593 -0.007025636
0000c0 fe 68 26 39 00 00 00 00 00 00 00 00 00 00 00 00
       0.00015870106 0.0 0.0 0.0
0000d0 00 00 00 00 00 00 00 00 00 00 00 00 00 00 00 00
       0.0 0.0 0.0 0.0
0000e0 00 00 00 00 00 00 00 00 00 00 00 00 00 00 00 00
       0.0 0.0 0.0 0.0
0000f0 00 00 00 00 00 00 00 00 00 00 00 00 e9 98 8f 39
       0.0 0.0 0.0 0.00027389012
000100 14 b7 1f 3a 9a 2a a6 b9 20 cb c9 3b 94 bb e6 bb
       0.00060926494 -0.00031693728 0.0061582476 -0.007041404
000110 c0 4c 19 3c 5d 18 49 b9 00 00 00 00 00 00 00 00
       0.0093566775 -0.0001917793 0.0 0.0
000120 00 00 00 00 00 00 00 00 00 00 00 00 00 00 00 00
       0.0 0.0 0.0 0.0
000130 00 00 00 00 4a 93 67 38 9f 50 2f 3a d7 f3 94 b8
       0.0 5.5211865e-05 0.00066877337 -7.102609e-05
000140 6a 2f 17 3b db a1 46 bb 6a 3c 78 3b ce a0 82 b7
       0.0023069032 -0.0030308876 0.0037877806 -1.5572088e-05
000150 9c 08 4a 39 f9 2c 96 39 a6 69 20 b9 35 23 9f 3b
       0.00019267428 0.00028643737 -0.00015298146 0.004856492
000160 4a d6 ae bb 7a 8e ec 3b 47 a3 90 b9 b7 d6 d6 b8
       -0.005335604 0.007219133 -0.0002758747 -0.00010244309
000170 d3 8b 6a 39 02 b6 66 b8 d5 52 22 3a d8 1a 42 ba
       0.00022368068 -5.500578e-05 0.00061921525 -0.0007404513
000180 99 96 7b 3a 06 3a 27 39 00 00 00 00 00 00 00 00
       0.0009597331 0.00015947976 0.0 0.0
000190 00 00 00 00 00 00 00 00 00 00 00 00 00 00 00 00
       0.0 0.0 0.0 0.0
0001a0 00 00 00 00 d8 26 81 b9 58 b3 f8 b9 b4 95 65 39
       0.0 -0.00024633738 -0.00047435868 0.0002189491
0001b0 3f a8 2e bb 7c e3 5d 3b 62 91 8c bb c0 69 6d b7
       -0.0026650575 0.0033857515 -0.004289792 -1.4150923e-05
0001c0 3c d2 e2 b9 76 3d a1 ba 52 52 01 3a 9f 7b 92 bb
       -0.00043262716 -0.0012301642 0.0004933226 -0.004470303
0001d0 21 f8 c8 3b 9e 89 f6 bb 57 59 60 b9 b7 72 60 39
       0.006133095 -0.0075237295 -0.00021395586 0.0002140504
0001e0 94 74 31 b9 63 58 ac b8 e2 2e 76 ba 35 6f 6a 3a
       -0.00016923464 -8.2180624e-05 -0.00093911414 0.0008942963
0001f0 64 1e a9 ba 54 ce ae b7 28 26 f8 38 50 ae 47 3a
       -0.0012902734 -2.0838495e-05 0.00011832669 0.0007617222
000200 34 35 84 b9 2b 42 4b 3b 6b 77 82 bb 1c 7b a4 3b
       -0.0002521664 0.003101478 -0.003981521 0.0050195586
000210 1e 36 18 39 00 00 00 00 00 00 00 00 00 00 00 00
       0.0001451601 0.0 0.0 0.0
000220 00 00 00 00 00 00 00 00 00 00 00 00 00 00 00 00
       0.0 0.0 0.0 0.0
000230 aa ab b7 b8 61 96 c2 b7 3c 41 3f 39 23 c0 66 bb
       -8.758095e-05 -2.3196628e-05 0.00018239481 -0.0035209737
000240 ad 02 6e 3b 7c a1 a5 bb 35 5b 1a b8 23 3b 08 39
       0.0036317513 -0.005054651 -3.6801404e-05 0.00012992001
000250 6b 8e 08 39 5a b3 b8 b8 2c a5 8b 3a 5c be ad ba
       0.00013023026 -8.8072105e-05 0.0010654083 -0.0013255584
000260 9c e6 de 3a 6c a4 70 b7 ab c1 89 b9 4c 8c 42 ba
       0.0017005983 -1.4343397e-05 -0.0002627497 -0.00074214186
000270 3d b4 9e 39 7c a8 b4 bb 14 96 d5 3b cc ac 0b bc
       0.00030270396 -0.005513249 0.006518135 -0.008525085
000280 b0 56 11 39 68 5d 66 b8 94 f5 de b9 b1 fd 38 39
       0.00013860571 -5.4923265e-05 -0.0004252611 0.00017642115
000290 26 5f a9 ba 9c 4f e8 3a c6 50 0e bb c0 1f 2a b9
       -0.0012922033 0.0017723921 -0.0021715625 -0.00016224291
0002a0 d5 a0 83 b8 c1 c9 d1 b9 a8 05 bc 38 6c 4f 12 bb
       -6.276524e-05 -0.00040013905 8.965592e-05 -0.002232517
0002b0 cf a5 30 3b ac de 64 bb fc 84 5c 38 d8 be 37 b7
       0.0026954298 -0.0034922762 5.257594e-05 -1.0952084e-05
0002c0 a5 ce 89 39 7d 9b 51 b8 06 5d 9b 3a 2f 61 bc ba
       0.00026284638 -4.9974293e-05 0.0011853285 -0.0014372225
0002d0 f6 b1 f3 3a ba 1f 72 36 00 00 00 00 00 00 00 00
       0.0018592465 3.6079277e-06 0.0 0.0
0002e0 00 00 00 00 00 00 00 00 00 00 00 00 00 00 00 00
       0.0 0.0 0.0 0.0
0002f0 00 00 00 00 c0 16 78 b4 c3 10 1f 35 ca 01 1b 33
       0.0 -2.3105076e-07 5.925651e-07 3.6090377e-08
000300 45 d1 38 36 0b 14 51 b6 29 87 8b 36 c4 6d 87 b4
       2.7539947e-06 -3.1155093e-06 4.1582575e-06 -2.5225575e-07
000310 e4 db c9 39 dc 06 6f 3a b9 3d b2 b9 6c 4b b0 3b
       0.0003850154 0.00091181486 -0.00033996793 0.0053800847
000320 08 ca da bb a8 16 0c 3c 81 97 f9 b8 96 07 f6 38
       -0.006676916 0.008550324 -0.00011901465 0.00011731607
000330 bc e5 c9 b8 38 09 d6 b8 64 35 86 ba 42 73 83 3a
       -9.627218e-05 -0.00010206032 -0.00102393 0.0010028856
000340 b6 eb bb ba a6 ce 54 39 8f 00 00 00 05 4b 00 80
       -0.0014337215 0.00020294878 2e-43 -2.6912e-41
000350 38 09 00 00 4f 64 05 00 db 19 05 80 2b 6c 07 00
       3.307e-42 4.95161e-40 -4.68453e-40 6.81652e-40
000360 88 7f 00 80 04 00 00 00 04 00 00 00 04 00 00 80
       -4.575e-41 6e-45 6e-45 -6e-45
000370 04 00 00 00 04 00 00 80 04 00 00 00 04 00 00 80
       6e-45 -6e-45 6e-45 -6e-45
000380 a8 e3 bc b9 f9 5f 4f ba d8 fe ae 39 5e 76 e5 bb
       -0.0003602777 -0.00079107244 0.0003337774 -0.007002636
000390 58 98 05 3c 47 f9 2f bc a3 9e 90 39 9a 1a 31 b9
       0.008153997 -0.010740585 0.00027584014 -0.00016889945
0003a0 0c c0 14 ba ce 9c 07 39 45 ed 88 bb 18 0e a1 3b
       -0.0005674369 0.00012933018 -0.0041786754 0.00491501
0003b0 02 47 d3 bb 32 7b 9c 39 6c 25 bc 37 98 4d 94 39
       -0.006447674 0.00029846426 2.2428772e-05 0.00028286572
0003c0 eb ad ee b8 91 c4 c1 38 79 80 d0 b9 35 c5 b5 39
       -0.00011381119 9.2395705e-05 -0.0003976857 0.0003466994
0003d0 1c 65 55 39 45 88 a0 b9 59 56 8b ba 02 95 c9 39
       0.00020350929 -0.00030619107 -0.0010630592 0.00038448727
0003e0 cf aa 98 bb ef 88 c5 3b c8 59 f8 bb 09 76 dc b8
       -0.004659034 0.0060282866 -0.007579062 -0.00010512403
0003f0 00 00 00 00 00 00 00 00 00 00 00 00 00 00 00 00
       0.0 0.0 0.0 0.0

exp_avg_sq f4 [256, 7]
000000 00 00 00 00 00 00 00 00 00 00 00 00 00 00 00 00
       0.0 0.0 0.0 0.0
000010 00 00 00 00 00 00 00 00 00 00 00 00 69 1a 02 37
       0.0 0.0 0.0 7.754753e-06
000020 8c 97 28 38 d6 a2 ea 36 b0 30 01 3d 25 a7 0b 3d
       4.019546e-05 6.9927e-06 0.031540573 0.03409495
000030 6c 7e 86 3d 0d 3e 2c 39 57 02 44 37 8e 1a 58 38
       0.06567082 0.00016426314 1.1683055e-05 5.1523144e-05
000040 2b 96 1f 37 24 92 2c 3d c0 4e 3a 3d b0 83 b3 3d
       9.512102e-06 0.042131558 0.045485258 0.08765352
000050 69 44 67 39 73 e6 ac 37 5c d4 af 38 e6 7f 6f 37
       0.00022055361 2.0611309e-05 8.384205e-05 1.4275289e-05
000060 07 a2 42 3d 12 e8 56 3d 7e eb cc 3d 33 c5 73 39
       0.047517803 0.052467413 0.10005854 0.00023247748
000070 dd 90 87 37 0f 28 96 38 8a f0 43 37 0d 65 3e 3d
       1.6160711e-05 7.160019e-05 1.1678911e-05 0.04648309
000080 71 0e 50 3d bf 58 c7 3d 07 6a 78 39 00 00 00 00
       0.050795022 0.09733724 0.00023690621 0.0
000090 00 00 00 00 00 00 00 00 00 00 00 00 00 00 00 00
       0.0 0.0 0.0 0.0
0000a0 00 00 00 00 00 00 00 00 13 ea 06 37 26 78 12 38
       0.0 0.0 8.041522e-06 3.492101e-05
0000b0 bd 27 93 36 ab d9 46 3c 78 98 63 3c 66 75 d5 3c
       4.3855675e-06 0.012136857 0.013891332 0.026056956
0000c0 c1 50 6b 38 00 00 00 00 00 00 00 00 00 00 00 00
       5.6103574e-05 0.0 0.0 0.0
0000d0 00 00 00 00 00 00 00 00 00 00 00 00 00 00 00 00
       0.0 0.0 0.0 0.0
0000e0 00 00 00 00 00 00 00 00 00 00 00 00 00 00 00 00
       0.0 0.0 0.0 0.0
0000f0 00 00 00 00 00 00 00 00 00 00 00 00 5a 10 03 38
       0.0 0.0 0.0 3.1248062e-05
000100 bb 13 0f 39 3d f3 c7 37 8a ef d3 3d c9 2c e5 3d
       0.00013644893 2.3835915e-05 0.10348423 0.11190183
000110 97 a2 5c 3e 40 62 0e 3a 00 00 00 00 00 00 00 00
       0.21546398 0.00054315105 0.0 0.0
000120 00 00 00 00 00 00 00 00 00 00 00 00 00 00 00 00
       0.0 0.0 0.0 0.0
000130 00 00 00 00 3c b1 ed 36 05 69 1b 38 6a 25 d6 36
       0.0 7.083783e-06 3.7052687e-05 6.3820526e-06
000140 eb d3 00 3d 36 a0 0a 3d 44 c9 85 3d 70 3b 2d 39
       0.0314521 0.033844195 0.06532529 0.00016520708
000150 c4 55 0f 37 73 5c 2a 38 2d 86 c3 36 ca 32 b1 3c
       8.543433e-06 4.061726e-05 5.827073e-06 0.021630663
000160 fb 54 c3 3c fc 61 3a 3d 66 58 e5 38 99 55 f7 36
       0.023844233 0.0455036 0.000109360364 7.3711385e-06
000170 13 bc 01 38 53 57 d0 36 b0 9f dd 3c 5d de ee 3c
       3.0931154e-05 6.209049e-06 0.027053684 0.029158765
000180 f3 58 66 3d a0 02 14 39 00 00 00 00 00 00 00 00
       0.056237172 0.00014115358 0.0 0.0
000190 00 00 00 00 00 00 00 00 00 00 00 00 00 00 00 00
       0.0 0.0 0.0 0.0
0001a0 00 00 00 00 bb 30 b7 37 1d e2 bd 38 57 fa 43 37
       0.0 2.1837992e-05 9.054339e-05 1.16811925e-05
0001b0 a4 7c 19 3d 43 1d 2d 3d 58 70 a3 3d 14 05 42 39
       0.037472382 0.042264234 0.07980412 0.00018503173
0001c0 dd bf 97 37 09 b8 a2 38 2f 82 70 37 35 cc 7c 3d
       1.8089946e-05 7.759041e-05 1.43354255e-05 0.061718185
0001d0 f7 c3 88 3d 48 a5 03 3e 6f 36 a8 39 87 05 ce 36
       0.06678002 0.12856019 0.00032084013 6.139922e-06
0001e0 7d 41 e9 37 c5 d3 f5 36 e9 2f 0e 3d b9 45 16 3d
       2.780626e-05 7.326222e-06 0.03471366 0.036687586
0001f0 0f 3f 92 3d f4 47 40 39 0c e9 b1 37 c6 3d b9 38
       0.07140934 0.00018337352 2.1208565e-05 8.8329936e-05
000200 eb 6c 55 37 8b fb 28 3d 1e ad 3c 3d 1c f9 b2 3d
       1.2721149e-05 0.041255515 0.046063535 0.0873892
000210 48 78 55 39 00 00 00 00 00 00 00 00 00 00 00 00
       0.00020358071 0.0 0.0 0.0
000220 00 00 00 00 00 00 00 00 00 00 00 00 00 00 00 00
       0.0 0.0 0.0 0.0
000230 36 2b 04 36 d9 f5 a7 36 af c3 34 36 7f c3 14 3c
       1.9694685e-06 5.0056083e-06 2.6935993e-06 0.009079813
000240 56 0c 1d 3c 35 ee 98 3c 0d 27 48 38 65 fe 7b 37
       0.009585461 0.018668273 4.7720085e-05 1.5019997e-05
000250 9f 10 88 38 91 d1 22 37 c3 1c 16 3d b6 cb 24 3d
       6.488081e-05 9.704746e-06 0.036648523 0.040233336
000260 68 87 9d 3d f0 d8 44 39 e6 9b fd 36 61 84 0c 38
       0.07691842 0.00018772832 7.5581365e-06 3.350189e-05
000270 af 13 04 37 3d 5f 10 3d ce 8d 1a 3d ad 84 95 3d
       7.872396e-06 0.035247076 0.03773289 0.073006965
000280 97 52 41 39 c8 c8 99 37 1f 91 a3 38 b8 71 4b 37
       0.00018436681 1.8332517e-05 7.7994766e-05 1.212622e-05
000290 2a b3 50 3d 8c ca 63 3d 71 5d da 3d ce 12 8b 39
       0.050952114 0.055613086 0.10662354 0.00026526157
0002a0 73 f7 41 36 44 86 49 37 00 df f1 35 4c 8f cd 3b
       2.8903276e-06 1.2011795e-05 1.8020801e-06 0.006273186
0002b0 ac e6 e3 3b 03 e2 58 3c be 2a 05 38 2e 32 fb 35
       0.0069549885 0.013237479 3.1749478e-05 1.8715562e-06
0002c0 c6 07 88 37 be 06 ce 36 6f 78 1e 3d ff 00 26 3d
       1.6216083e-05 6.1400633e-06 0.038689073 0.040528294
0002d0 c1 42 a2 3d 93 1a 5c 39 00 00 00 00 00 00 00 00
       0.079228885 0.00020990735 0.0 0.0
0002e0 00 00 00 00 00 00 00 00 00 00 00 00 00 00 00 00
       0.0 0.0 0.0 0.0
0002f0 00 00 00 00 29 1d fc 2e d7 6b 4d 30 39 49 3f 2c
       0.0 1.1464813e-10 7.4731815e-10 2.718338e-12
000300 7f f4 88 32 b5 67 af 32 a4 2e 1c 33 9b ad 12 2f
       1.5943668e-08 2.0419842e-08 3.6364e-08 1.33403e-10
000310 99 be 94 37 ae d2 9c 38 94 db 38 37 f3 e5 20 3d
       1.7731729e-05 7.477902e-05 1.1018379e-05 0.039281797
000320 6e 0b 32 3d ea 96 a9 3d fc 4c 4e 39 08 86 14 36
       0.04346793 0.08280738 0.0001967437 2.2131735e-06
000330 a6 40 62 37 db d3 5b 36 c3 ba 98 3c 27 b1 a1 3c
       1.3485702e-05 3.275686e-06 0.018643742 0.019737793
000340 d0 41 1d 3d ea 08 d1 38 0e 31 b5 28 04 1e f8 2f
       0.03839284 9.967557e-05 2.011631e-14 4.5132265e-10
000350 c6 9b df 2c c5 73 21 34 76 5b 10 34 25 e9 98 34
       6.3553355e-12 1.503641e-07 1.3444318e-07 2.848184e-07
000360 f0 b6 af 30 35 2a 7f 33 13 2e c7 35 0a bd 30 35
       1.278492e-09 5.94102e-08 1.4840065e-06 6.58402e-07
000370 9f d8 a1 3b 73 9e a8 3b c2 3f 25 3c 17 00 e6 37
       0.0049391533 0.0051458417 0.010086002 2.7418178e-05
000380 a3 2d 94 37 c6 f7 be 38 dd 75 b5 37 6b 8c db 3d
       1.7664226e-05 9.1060574e-05 2.1631766e-05 0.10720142
000390 43 dd e9 3d d7 c6 62 3e f3 d2 13 3a c3 af 63 36
       0.114191554 0.22146164 0.0005639039 3.3927943e-06
0003a0 3b 12 89 37 0f 03 4b 36 ea 8b 59 3c 13 51 6b 3c
       1.6340162e-05 3.0251138e-06 0.013277987 0.014362591
0003b0 d2 8c e2 3c 62 c1 90 38 70 9b a8 36 15 b4 07 38
       0.027655039 6.9024754e-05 5.0248855e-06 3.2354223e-05
0003c0 b9 f5 33 37 30 bd 6a 3d 4c 91 77 3d 57 34 f1 3d
       1.0726443e-05 0.05730933 0.0604413 0.11777561
0003d0 ae 44 9f 39 7c 7d 03 38 d3 57 10 39 a8 73 9d 37
       0.00030378014 3.13497e-05 0.00013765627 1.8769715e-05
0003e0 f0 43 8b 3d c5 bf 9a 3d 33 1e 13 3e 6e 99 b3 39
       0.068000674 0.075561084 0.14366989 0.00034255855
0003f0 00 00 00 00 00 00 00 00 00 00 00 00 00 00 00 00
       0.0 0.0 0.0 0.0
