master_thesis/auto_docking/neural_network_models/trained_model.pt (torch, 835631 bytes, 18 tensors)

weight f4 [256, 7]
000000 48 11 60 3d 6f 1b 3d 3e 2c 5e 82 3f 6d c0 b4 bd
       0.05470398 0.18467496 1.0184989 -0.08825765
000010 3f 15 4a 3f d2 aa 17 be 7c 28 c1 bf de 8d 19 3f
       0.7893867 -0.14811257 -1.509048 0.599821
000020 c5 fd bd be 1e 5a 12 be 96 32 bb bf 91 fa 30 3f
       -0.37107673 -0.1429219 -1.4624813 0.69132334
000030 d4 b8 9a bf a7 07 8b bf 39 c1 67 be c8 1d 1c bd
       -1.2087655 -1.086171 -0.22632302 -0.03811434
000040 57 e0 80 3e cb d1 3e be 87 a7 95 3e fe 8e 86 be
       0.25171158 -0.18634717 0.29229376 -0.2628097
000050 5e c8 2c be 39 10 47 be 7f ce fd 3d 71 43 21 bc
       -0.16873309 -0.19439782 0.12392902 -0.009842739
000060 71 6f 3b 3d 3a 37 36 3f 24 00 92 be 10 58 4e be
       0.045760576 0.7117802 -0.28515732 -0.2015078
000070 83 7d 9f 3e f0 b3 70 3f b2 16 33 40 67 d2 9a 3e
       0.31150445 0.9402456 2.7982602 0.3023865
000080 a1 e0 4d 3e dd ab f8 be 8a 8d 81 c0 d5 92 7b bc
       0.2010522 -0.4856862 -4.0485277 -0.015354832
000090 71 4f 15 3e 54 c6 fc 3f 0e af de be 84 a4 58 3e
       0.14581086 1.9748025 -0.4349293 0.21156508
0000a0 6a e3 44 3c 71 be 4f c0 f3 de 29 bf 91 b1 9e bf
       0.01201711 -3.2459986 -0.6635582 -1.2397939
0000b0 1f 7c eb be 1e 95 53 bc a3 55 33 be e9 71 14 bf
       -0.45993134 -0.01291397 -0.17513137 -0.57986313
0000c0 a0 82 27 c0 83 d8 93 be f8 9c 0e bd bc 90 bb be
       -2.6173477 -0.28876123 -0.034817666 -0.3663386
0000d0 98 55 2f be 00 68 d2 3a 2a 49 7b be 06 e4 4c 3e
       -0.17122495 0.0016052723 -0.24539629 0.20008859
0000e0 10 94 cb 3d 1e 85 a8 3d 68 aa 01 be ca de a7 bd
       0.0994035 0.08228515 -0.12662661 -0.081967905
0000f0 eb 3f 8e bd 1c ac c8 be ac 7a aa 3e 2a 4c 1b be
       -0.06945785 -0.3919381 0.33296716 -0.15165773
000100 ab 7a 73 be fe 59 2e 3e 64 f4 42 be 92 55 ee bd
       -0.23777263 0.17026517 -0.1903854 -0.11637415
000110 ab 29 fd be 2e 15 7c be 26 f5 1a be 80 2a a2 bf
       -0.49445853 -0.24617454 -0.15132579 -1.266922
000120 1a 24 6c 3f 36 bc ee bf b9 17 33 40 92 e1 9d bf
       0.92242587 -1.8651187 2.798323 -1.2334464
000130 e2 7a 58 3e 44 ef 1f 3f 1b 07 59 bd d5 12 91 be
       0.21140626 0.62474465 -0.052985292 -0.2833468
000140 73 4e 01 c0 7e b1 dd 3f 01 b1 e0 be 38 3f e9 3f
       -2.0204132 1.7319791 -0.43885043 1.8222418
000150 56 27 03 be 91 b5 8b bd fe f4 c9 3d 7f 3c 39 be
       -0.12807974 -0.068217404 0.09861182 -0.18089484
000160 ca fb 95 3e a0 f0 38 be 3a 34 44 be ac d2 82 bf
       0.29293662 -0.18060541 -0.19160548 -1.0220542
000170 fe 85 10 be 99 19 c9 be 4d 26 6f 3d 5b 22 53 3f
       -0.14113614 -0.39277342 0.058386136 0.824743
000180 d7 c7 1c be 31 64 bd 3f 15 63 26 3f 73 96 3a bf
       -0.15310608 1.4796201 0.6499494 -0.7288582
000190 70 d9 b2 3f b3 95 8e bf e7 1b ae 3f bb 94 07 bf
       1.3972607 -1.1139435 1.3602265 -0.5296132
0001a0 6b 8a 86 c0 8b b0 23 bf 7f 4e 95 bf 99 d0 4a 3e
       -4.2043967 -0.6394126 -1.166458 0.19806136
0001b0 39 b5 1e bf e0 f1 99 3f e5 76 91 bf bc a5 21 bd
       -0.61995274 1.2026939 -1.1364409 -0.039464697
0001c0 7c f6 61 be aa 03 91 3d 17 9d 10 3e a6 d6 55 bd
       -0.22066683 0.07080777 0.14122425 -0.052206658
0001d0 81 f1 61 3e 4f 72 b3 bd cc 1f 14 be e0 f5 02 bf
       0.22064783 -0.08762037 -0.14465255 -0.51156425
0001e0 7f e2 91 bf 2f 30 d7 bf 81 0c 08 c0 12 11 14 40
       -1.1397246 -1.681158 -2.1257632 2.313542
0001f0 bb a8 64 bf 47 3f 06 3f 5e b3 4a be 18 b4 8a 3e
       -0.8931996 0.52440304 -0.19794986 0.27090526
000200 b6 33 5d 3e e6 63 06 3e e5 21 ad 3e 3f df 2f be
       0.21601757 0.13124046 0.33814922 -0.17175005
000210 03 6b 10 3c 30 e0 2a 3e 25 fe a0 be 39 af 42 3f
       0.008814576 0.16687083 -0.31443897 0.7604862
000220 a0 60 1b bf 20 7e fb 3f f7 61 64 bf 63 14 bc be
       -0.60694313 1.9647865 -0.8921198 -0.36734304
000230 81 25 7b be 8e a2 5c 3e e7 e7 19 be 20 2b fc bd
       -0.24526025 0.21546385 -0.1502987 -0.12312913
000240 22 84 6d 3e 50 c3 32 be c6 c4 7d 3e 86 ff 0a be
       0.23194936 -0.17457318 0.24782094 -0.13574037
000250 30 9c f8 bc 64 30 f0 3d dc d4 bd be a0 df 9f 3d
       -0.030347914 0.1172798 -0.3707646 0.07806325
000260 ef 5f 97 be fa e9 2f 3e f5 ec fc 3e b8 7b 18 be
       -0.2956538 0.17179099 0.49399534 -0.14890945
000270 f9 c9 0c be 1a 76 15 c0 c4 4b c1 3f 4a e0 35 bf
       -0.13748921 -2.3353333 1.5101247 -0.7104536
000280 50 06 3b c0 79 35 89 be 54 45 f5 bd a9 2b a5 be
       -2.9222603 -0.2679861 -0.11976114 -0.32259873
000290 b8 ab 66 bd 90 bb 17 be dd 6e 75 be df 28 9c 3e
       -0.056316108 -0.14817643 -0.23968072 0.30499932
0002a0 69 5d 00 be 68 d5 30 bc bb 8d 87 be 33 7a 4b 3e
       -0.12535633 -0.0107930675 -0.2647532 0.19870834
0002b0 ce e6 05 3e c0 c9 cb be 7a 07 a9 be 1d 23 91 be
       0.13076326 -0.3980236 -0.33013517 -0.28347102
0002c0 2c 89 aa bd 0f a2 32 3e b4 eb b6 bc e7 85 09 3f
       -0.08326945 0.17444633 -0.022329189 0.53719944
0002d0 aa b4 d1 be 91 21 e1 bf 7f e8 82 ba bd f9 96 bd
       -0.40958148 -1.7588369 -0.0009987502 -0.073718525
0002e0 4e 8d 3d 3e bd 65 89 be 6a 9e 55 3e da 87 b1 be
       0.18510935 -0.26835433 0.20861211 -0.3467396
0002f0 7a 67 9d 3d 4c b0 6b be ae d5 c7 bd 73 07 8e be
       0.07685752 -0.2301647 -0.09757553 -0.27740058
000300 7e 55 9c bd 06 c3 99 3f a1 5e c1 be 20 37 17 3f
       -0.07633494 1.2012641 -0.3776751 0.5906849
000310 58 b2 ec bd e0 d4 27 bc 60 6c 7f bc 28 21 57 be
       -0.11557454 -0.010243624 -0.015589803 -0.21008742
000320 42 9e a7 be 38 44 9e be 20 ea 47 3c 2a b6 46 3e
       -0.3273793 -0.30911422 0.012201816 0.19405428
000330 d5 71 da 3f f3 91 05 3d 6a 61 94 bf da 1f 8c be
       1.7065989 0.03260989 -1.1592228 -0.2736805
000340 87 67 fe 3d 6d 0b 80 bf 88 b9 47 3d aa e6 6e 3e
       0.1242209 -1.0003487 0.04876092 0.23330179
000350 18 b7 74 bd cc 69 99 3d 88 83 5f 3d 80 e8 aa be
       -0.059744924 0.07490882 0.054568797 -0.33380508
000360 84 d4 c2 3d 1d 39 bb be cb 50 df be a9 97 42 bc
       0.095131904 -0.3656701 -0.43616328 -0.011876979
000370 79 3e d1 be f3 18 89 3e 06 8a e1 be 51 94 0f 40
       -0.40867975 0.26776847 -0.44050616 2.2434275
000380 e1 61 55 be ce c4 07 bc 26 1c 5e bd 50 3f bf 3c
       -0.20838119 -0.008286668 -0.054226063 0.02334562
000390 bd 4b 8b 3e 70 09 79 be 58 05 82 bf be 57 c5 bf
       0.2720622 -0.24320006 -1.0157881 -1.5417402
0003a0 48 c2 a2 3f f0 e7 29 40 1f d4 4e bf 59 98 d0 3d
       1.271554 2.6547813 -0.8079242 0.10185308
0003b0 dd 1b 56 bd 55 ca 36 c0 b4 2e 12 3f de b7 ac be
       -0.052272666 -2.8560994 0.57102513 -0.3373403
0003c0 c9 a9 e7 be d0 ea c1 bf da 19 87 3f 03 07 69 bf
       -0.45246723 -1.5149784 1.0554764 -0.91026324
0003d0 be da ae c0 d8 4a 3b 3e 91 42 dc be 71 78 7a bf
       -5.464202 0.1829027 -0.43019536 -0.9784003
0003e0 97 36 69 be fa 44 23 3f 27 09 a1 bf 1d b9 f8 be
       -0.2277473 0.63777125 -1.2580918 -0.4857873
0003f0 11 c4 62 bf f2 71 51 bf d4 37 d1 3f 9a 4e 20 bf
       -0.88580424 -0.8181449 1.6345162 -0.62619936

bias f4 [256]
000000 53 2a 0e bf 07 f8 25 bf 9d 96 9a 3e b0 31 20 bf
       -0.5553333 -0.64831585 0.30193034 -0.6257582
000010 35 36 04 3e e2 c1 2a bf 94 d3 16 3d 55 a0 a3 3e
       0.12911303 -0.6670209 0.03682287 0.3195826
000020 f7 d2 50 bd 8a 6c 15 bf 01 7a 29 bf fe 24 16 3d
       -0.05098244 -0.5836874 -0.6620179 0.036656372
000030 72 7c d9 3d 68 4a 0c bf e2 18 c7 be d4 20 6d bf
       0.10619439 -0.54801035 -0.38886172 -0.92628217
000040 5c 8f 0b bf 06 f4 98 be 0b fc 95 be 22 c3 d6 3c
       -0.54515624 -0.29873675 -0.29293856 0.026216093
000050 c5 18 94 3e 40 f9 5f bd c6 b4 3a 3d 06 81 7d 3e
       0.28925148 -0.054681063 0.045582555 0.2475625
000060 15 2a d5 bd bc 29 70 bf 21 6a 0e be ff eb 80 bf
       -0.10408417 -0.9381368 -0.13907672 -1.007202
000070 37 07 3c be ef 45 3a bf b8 ee 79 3d 3b 32 c4 be
       -0.18362127 -0.7276296 0.061018676 -0.38319573
000080 c6 ca 1d be f6 38 56 bf da 02 2e bf 79 d6 10 bf
       -0.15409383 -0.83680665 -0.679731 -0.5657726
000090 3a 77 13 bf 40 4a 71 bf c6 63 44 bf c0 e3 f4 be
       -0.576038 -0.9425392 -0.7671474 -0.4783001
0000a0 cf 7b 2d 3e 5c d0 62 be 30 75 0d bf bb b6 ca be
       0.1694176 -0.22149795 -0.5525694 -0.39592537
0000b0 2c 6e 37 bf a2 ee c4 be d1 38 cf 3d d8 ad f0 be
       -0.71652484 -0.38463312 0.10118259 -0.47007632
0000c0 d0 86 f4 be eb 34 7e bf 61 e9 7e bf ce 7b 72 bf
       -0.47759104 -0.99299496 -0.9957486 -0.9472016
0000d0 6e 21 61 be a3 56 a7 be c8 bc 0c bf d5 2b 4e bf
       -0.21985409 -0.32683286 -0.5497556 -0.8053563
0000e0 50 56 df 3d 46 f6 01 bf c7 8b 23 bf 69 b1 86 be
       0.10905135 -0.5076641 -0.6388516 -0.26307228
0000f0 56 13 d5 bd 52 83 f8 be f6 89 a0 be d8 43 dd be
       -0.10404079 -0.4853769 -0.31355256 -0.43215823
000100 b1 ac 4d bf 4e 7c 58 be 91 33 d9 be e0 39 c3 3c
       -0.8034163 -0.21141168 -0.42422155 0.023831308
000110 3b 9e 56 bf 82 91 59 bb e3 8f 99 be 43 7a 81 be
       -0.8383519 -0.0033198302 -0.2999259 -0.2528859
000120 1f 60 b4 be 77 29 42 be d8 1f fb be 45 42 36 bf
       -0.35229585 -0.1896113 -0.49047732 -0.7119487
000130 8e bc 12 bf f7 8f 53 3e cb 04 8a be 59 17 6e bf
       -0.5731896 0.20660387 -0.26956782 -0.93004376
000140 d3 82 b5 3e 33 04 f8 3e 8f 89 16 bf bc c0 ed be
       0.35451373 0.48440704 -0.5880365 -0.46436107
000150 b7 01 0a bf 7f a4 7e bf 41 e2 76 bd 42 b6 8f bf
       -0.53908867 -0.9946975 -0.060274366 -1.1227496
000160 de f8 89 bf 1d be 8e be c4 de 18 bc 85 94 57 be
       -1.0779073 -0.2787942 -0.009330455 -0.2105275
000170 66 6f 6f be 5c 27 41 bf 0e 33 52 bf d9 93 0b be
       -0.23382339 -0.7545068 -0.82109153 -0.13630618
000180 ae 0c 49 3e e8 b1 54 bf ad 99 6a bf 3a 39 2e be
       0.19633743 -0.83083963 -0.9164074 -0.17014018
000190 3f 67 53 bd d0 87 e2 3d 54 67 8e be 15 69 01 bf
       -0.051612135 0.110610604 -0.27813208 -0.5055097
0001a0 ae fa 28 bf 9a cd 12 3e a4 0e c0 be 84 49 c6 be
       -0.66007507 0.14336243 -0.3751117 -0.38727963
0001b0 33 69 64 bc 64 c3 8f be f9 91 5d be f1 00 d6 be
       -0.013941097 -0.2807876 -0.21637715 -0.41797593
0001c0 32 42 56 bd 13 0d 77 3d d7 8e 51 3e dd 32 91 be
       -0.052309223 0.060315203 0.20464645 -0.28359118
0001d0 55 ce ab be 3a 81 75 bf 35 05 78 be c9 98 b0 be
       -0.33555856 -0.9590031 -0.24220736 -0.34491566
0001e0 09 ca 3e ba 59 24 0b bf 7a 6b 84 be f9 47 e2 bd
       -0.00072780304 -0.5435234 -0.25863248 -0.11048884
0001f0 5a 7b 7d be 9e b3 3d be cf b5 07 bf 06 86 94 3e
       -0.24754086 -0.1852555 -0.5301179 0.29008502
000200 93 34 f2 bc b2 1d b0 be e1 23 bd 3d 09 19 18 3e
       -0.029566085 -0.34397656 0.09235359 0.148533
000210 23 6c 9d be cd 70 29 be 84 ab a8 be d7 1d 31 be
       -0.30746564 -0.16546936 -0.32943356 -0.17296539
000220 1c 0d 8c bf b8 40 e4 bd 0b c4 e4 bd b9 02 b2 3e
       -1.0941501 -0.111451566 -0.11170205 0.34767702
000230 75 a9 99 bf 3e a3 d6 be a8 7a b7 3d 77 b7 08 bf
       -1.2004839 -0.4192142 0.08958942 -0.53404945
000240 3f 8d 01 3e 25 b6 62 be 37 6c 29 bf 8a ef a3 be
       0.12651537 -0.22139795 -0.6618075 -0.3201869
000250 25 53 71 bf 73 b5 5d be bc 5f f8 be 1b 6c c9 be
       -0.94267493 -0.21651249 -0.4851054 -0.3934029
000260 32 52 05 be ec e3 00 bf c7 da db bd a0 f4 e5 3c
       -0.13019636 -0.5034778 -0.10735088 0.028070748
000270 79 23 6f bf 32 ea c0 be 03 e9 bc be 26 90 17 bf
       -0.934135 -0.37678677 -0.36896524 -0.5920433
000280 73 00 3a bf f2 e9 eb be fc 83 79 be 3a 24 67 bf
       -0.72656935 -0.46076924 -0.24366754 -0.9028965
000290 d5 8c a1 be cd 64 c7 be 80 bb 8f bd c7 6d 97 be
       -0.3155276 -0.38944092 -0.07018185 -0.2957594
0002a0 20 b1 a1 be 42 be bd be 79 24 ac be 52 e7 f1 bd
       -0.31580448 -0.37059218 -0.33621576 -0.11811699
0002b0 44 62 68 be c7 d8 88 be 85 5c e1 be bb 0a 5a 3e
       -0.22693735 -0.26727888 -0.440159 0.21293156
0002c0 c6 cd e2 bf c4 2f fb be 6d 05 34 bf 9d 7c 0b bf
       -1.7719047 -0.4905988 -0.7032078 -0.5448702
0002d0 3e 12 78 be 3c a6 12 be 59 22 d9 3c c8 a5 e7 3d
       -0.24225709 -0.14321226 0.026505636 0.11310917
0002e0 1e c2 da 3e 40 ee 3a 3d 77 2b e3 be 2a be 57 bf
       0.42726225 0.04563737 -0.443691 -0.8427454
0002f0 5d 43 e7 be f2 58 30 bf 5d 03 9e be 67 db 8c be
       -0.45168582 -0.6888572 -0.3086194 -0.2751114
000300 57 25 2d bf 4c 3d 5c bd 23 d2 a1 be 76 b8 1c bf
       -0.676351 -0.053769395 -0.31605634 -0.61218965
000310 00 f5 19 3d fa 5b f6 be 69 5c 09 be fd a9 5a bf
       0.037587166 -0.48117048 -0.13414158 -0.8541563
000320 bb b0 d0 be 88 99 15 3e b8 1e 44 bf 24 8e 2a bf
       -0.40759835 0.14609349 -0.76609373 -0.6662314
000330 6f aa d5 be d2 d4 a8 3d 44 7c 89 be c1 7d 33 bf
       -0.41731593 0.08243717 -0.2685262 -0.7011376
000340 74 f6 1b bf 2a 9e de bc 26 de 7e be 6b c8 23 bf
       -0.6092293 -0.027175028 -0.2488943 -0.6397769
000350 6e 93 42 3e b4 2a 02 bd 58 c6 96 bd 37 b7 79 bf
       0.19001552 -0.031779006 -0.0736205 -0.9754519
000360 2f f8 24 3e 90 25 07 bf f8 c5 88 bc 93 bf 3d bf
       0.161103 -0.5279169 -0.016695961 -0.74120444
000370 a2 9f 0d 3e ae bf 76 3c 38 94 1b be 70 9e b6 be
       0.13830426 0.015060348 -0.1519326 -0.35667753
000380 ce ea 05 be c5 bb c2 be 32 bf f6 be 5e 7b 3f 3e
       -0.13077852 -0.38033882 -0.48192745 0.18699405
000390 62 66 82 3d 9a fe c4 be 6f e6 92 be b8 db 28 3e
       0.06367184 -0.38475496 -0.28691432 0.16490066
0003a0 a0 24 de bd 0b f4 f8 be 3e b8 e4 3d 2b a9 6c bf
       -0.108468294 -0.4862369 0.11167954 -0.9244563
0003b0 b8 b4 4b bf 54 5b 86 bf 8c 32 b2 be 0a 31 9a be
       -0.7957263 -1.0496621 -0.3480419 -0.3011554
0003c0 2a 8e 61 bf cd e1 68 be 98 84 0f bf 21 57 e0 be
       -0.8810755 -0.22742386 -0.56061697 -0.43816474
0003d0 e8 61 34 bf e3 9f 1f bf 12 a5 89 bf 56 f2 12 bf
       -0.70461893 -0.6235334 -1.07535 -0.57401025
0003e0 64 6c 08 bc 66 85 02 bf 12 3c 07 be 6f 6e 84 be
       -0.008326624 -0.509848 -0.13206509 -0.25865504
0003f0 2a 52 b4 be 6f 56 62 bf 00 b6 57 bf f6 11 ca be
       -0.35218936 -0.8841314 -0.84262085 -0.39466828

weight f4 [256, 256]
000000 f7 0f 64 bd 7c 2c c8 bc 90 67 0d bc 88 de ba bc
       -0.055679288 -0.024435274 -0.008630648 -0.02281119
000010 35 c6 a3 bb 86 5b fe bb 05 4b 91 bd c0 ea b4 bc
       -0.0049979934 -0.0077623753 -0.07094387 -0.022084594
000020 60 cb aa 3c 94 86 f1 3c f7 64 f8 3c 6d 8b ed bc
       0.02084893 0.029483117 0.030321581 -0.028997147
000030 63 08 ef 3c 89 76 b0 bc 6f 70 75 bd d3 04 ab 3c
       0.029178804 -0.021540897 -0.05992168 0.020876324
000040 a0 4c 90 3c a6 dc da bc 92 76 09 bc 45 a8 1e bd
       0.017614663 -0.026716541 -0.008390086 -0.038734693
000050 40 d7 34 3b c0 ce ef 3b c8 50 66 bd 2a 1d 64 3d
       0.002759412 0.0073183477 -0.056229383 0.055691876
000060 88 9d 03 bc dc db da 3c 4c 74 99 3c f4 37 70 bc
       -0.008033164 0.026716165 0.018732212 -0.014661778
000070 90 c7 25 3d 9e 2a 1b bd 86 35 11 3d f2 eb f2 bc
       0.04047352 -0.03788244 0.035451435 -0.029653523
000080 e4 51 5b bd 83 8e bc 3c 0e 0e 2f bc 0c eb 95 bc
       -0.053544894 0.023017174 -0.010684503 -0.018300556
000090 a6 1a 4e bd e3 65 80 bd 60 56 8e 3a 30 36 2c bc
       -0.050318383 -0.06269433 0.0010859482 -0.010510966
0000a0 90 5b d9 bd a0 06 aa bc 67 61 a1 bc 70 f8 97 3c
       -0.10613167 -0.020755112 -0.019699765 0.018551081
0000b0 ff 8c 0f 3d 9d 2e 72 bd 8d f1 72 bd 34 50 b9 3c
       0.035046574 -0.059126485 -0.059312392 0.022621252
0000c0 78 46 96 bd 1e 00 51 bc be ea 43 3c a2 cb d2 bb
       -0.073376596 -0.012756376 0.011957822 -0.0064329663
0000d0 34 f0 2a bc 55 33 65 bc 79 26 06 bd 77 04 50 bd
       -0.010433245 -0.013989289 -0.032751534 -0.050785508
0000e0 be df 86 bd 86 bc 4e 3c 45 ec 59 bd 15 c4 41 3c
       -0.06585644 0.01261819 -0.05320384 0.011826535
0000f0 a3 bb 06 bd 81 67 80 bd d8 bf 06 bd e7 e7 da bb
       -0.032893788 -0.06269742 -0.0328978 -0.006680477
000100 3f f0 ac 3b a0 55 5d 3c 00 72 b6 bc 06 da 6a 3d
       0.005277663 0.013509184 -0.022271156 0.05733683
000110 a8 cb ab bd 5a 23 30 3d b6 db 54 3d fd 41 8a 3c
       -0.08388454 0.043002464 0.051967345 0.016877169
000120 92 6d 73 3d 94 66 b7 bc 9e 60 17 bd 4c f7 8d bd
       0.059430666 -0.02238778 -0.036957376 -0.06931934
000130 3f 57 c7 bd 06 f1 a5 bd fb e0 51 3c 00 11 91 3c
       -0.09733438 -0.08102612 0.012809987 0.017708302
000140 90 87 6b 3c 90 43 e3 bc 01 53 89 bc 5e c8 70 3c
       0.014375582 -0.027742177 -0.016763212 0.014696209
000150 e8 78 d5 bc 5b a2 b6 bd 85 b8 a9 3d e1 83 a8 3b
       -0.02605863 -0.089176856 0.082871474 0.0051426743
000160 13 ad b3 bd 10 d4 8b bb 04 36 35 3c 82 d8 ca bd
       -0.08773246 -0.004267223 0.011060242 -0.09904577
000170 80 15 34 ba 99 bb 14 bc be 0d e9 bd cf 42 55 bd
       -0.0006869659 -0.00907793 -0.11379574 -0.052065667
000180 00 68 9f 39 dc 07 66 3c 6a 61 e0 3c 7e 1a 74 bd
       0.0003040433 0.01403996 0.0273902 -0.059595577
000190 b1 8e ad bd a6 50 54 bd 90 de 9d 3b 54 a2 68 bd
       -0.08474482 -0.051834725 0.0048177913 -0.056795433
0001a0 90 04 b5 bc a3 a9 63 3d 6b 44 dc 3b 2d d3 39 bd
       -0.022096902 0.0555817 0.0067220232 -0.04536741
0001b0 f4 53 56 bd c6 62 00 be 98 bf d4 bc de 43 81 3d
       -0.052326158 -0.12537679 -0.025970265 0.06311773
0001c0 de ee a5 3c fb ba 05 bd 38 e9 0e bd 62 82 0e 3d
       0.020255502 -0.03264902 -0.034890383 0.03479231
0001d0 54 b5 f2 3c 0c b7 28 bd b8 05 c2 bc 25 f7 c8 bc
       0.02962748 -0.041190192 -0.023684368 -0.02453191
0001e0 c0 db 82 ba 1a be b7 bd e8 fc 58 bd 98 36 be bd
       -0.0009983703 -0.08971806 -0.052975565 -0.09287757
0001f0 66 0f 4e bd 1f c2 38 ba ff 80 af 3c fb 24 09 3c
       -0.050307654 -0.0007047969 0.021423815 0.008370633
000200 94 1d 9a 3c fd 23 91 bd c2 fb 08 bd 85 12 93 bc
       0.018812932 -0.07086942 -0.03344322 -0.017953167
000210 23 9f 8b 3c 84 0c fb 3c a4 8f 7c 3c f0 42 2c bc
       0.017043656 0.030645616 0.015415106 -0.010514006
000220 88 9e 51 bd 90 f7 24 bc 0f e5 a0 bd da ac b8 bc
       -0.051176578 -0.010068789 -0.078561895 -0.02254336
000230 29 03 d4 ba 5e b9 d6 bc 40 e6 3a 3b b8 d2 74 bc
       -0.0016175258 -0.026211437 0.0028518587 -0.014942817
000240 09 09 81 bc 44 5e 8c 3c 0e 9b 45 bc f1 e3 93 bd
       -0.015751379 0.017134793 -0.012060894 -0.07221211
000250 04 9b 9e bd d6 9a 70 bd 74 ee a4 bd 38 9c 4d bc
       -0.07744411 -0.058741413 -0.08053294 -0.0125494525
000260 b8 d3 b7 bc e0 b0 9c 3c 1c c5 53 bd 00 32 e4 bb
       -0.022439823 0.01912731 -0.05170165 -0.0069639683
000270 b4 ea 90 bd bc bb 71 3d bc 8d ac bd fb e1 79 bd
       -0.07076016 0.059016928 -0.08425471 -0.061006527
000280 95 08 88 bc 95 8e 97 bd 18 14 45 bc fd fc 6e 3d
       -0.016605655 -0.07400242 -0.0120287165 0.058346737
000290 8c 7f 9d 3c 05 34 ac bd 90 0e 0e bc fc 41 96 3c
       0.019225858 -0.084083594 -0.008670464 0.01834201
0002a0 16 d7 3b bd 3e 19 1f 3d aa 90 11 3d 55 6b 97 bd
       -0.04585942 0.038842432 0.035538353 -0.07393519
0002b0 fc ca 43 3b 24 1a 91 3c 77 ab 49 bd 02 d4 11 3d
       0.0029875627 0.01771266 -0.049235787 0.035602577
0002c0 2a 0f 4b bd 86 0e 33 3d bf c5 5b bd 00 71 18 3d
       -0.04957501 0.043715023 -0.053655382 0.03721714
0002d0 30 de 79 3d 23 2c e8 bd 9b 17 67 3c 69 0e 11 bd
       0.06100291 -0.113365434 0.014104749 -0.035414133
0002e0 ec b7 d7 bc 22 05 43 3d e0 f3 53 bd a8 fd a5 3c
       -0.026332818 0.047612317 -0.05174625 0.020262554
0002f0 0c 66 aa bd d2 15 6c 3d a1 b2 17 3d 65 56 9a bc
       -0.08320245 0.057637997 0.03703559 -0.018840024
000300 c2 e8 87 bc a0 21 b6 3b d4 cd 8b bd 24 c8 19 bc
       -0.01659048 0.0055582076 -0.06826368 -0.009386096
000310 ae b6 af 3c 68 ee 3d bc 0a 00 7b 3d 7b 4e ad 3c
       0.021449413 -0.011592485 0.061279334 0.021155586
000320 c0 90 8c ba e2 2a a1 bc 55 20 9b 3b aa cb b3 bd
       -0.0010724291 -0.019673768 0.004734079 -0.0877908
000330 a2 73 26 3d 42 82 cf bd 2c 6e b9 ba dd 06 87 3b
       0.04063762 -0.101322666 -0.0014147214 0.004120691
000340 4d 87 a8 bd 98 04 ef ba 58 c8 54 bc 8e 64 42 bd
       -0.082289316 -0.0018235622 -0.012987219 -0.047459178
000350 0e 81 0b bd a2 a7 1e bc de da 78 3d 6e fb 91 3c
       -0.034058623 -0.009683521 0.060755603 0.017820086
000360 88 e7 46 bd cf c7 d9 bb 26 42 30 3d 27 cb 79 3c
       -0.04856065 -0.0066461335 0.043031834 0.015246189
000370 7a 88 71 bd 51 8d cf bc 4a 3d 47 3d 18 a8 4e bd
       -0.058968045 -0.02533594 0.048642434 -0.050453275
000380 96 9c 45 bd 2f 59 6d bc 6d f2 82 bd 1c 03 30 bd
       -0.048245035 -0.014486595 -0.06393895 -0.042971715
000390 88 a5 39 bd c3 c9 5e 3c bb 7a e2 3c f4 44 0e 3d
       -0.04532388 0.013597908 0.027646413 0.034733728
0003a0 d6 14 60 bd 96 d7 56 3d fe 9b cf bd da d2 f5 3c
       -0.05470737 0.052451693 -0.10137175 0.030007768
0003b0 1c bd 7f 3d 62 1b b5 bd a4 2a 8d bc 2f bf 62 bd
       0.062436208 -0.088431135 -0.017232247 -0.055358108
0003c0 ff 89 9f bd 3a 58 0f 3d 00 12 b5 bd 0c 5c 83 3c
       -0.077899925 0.03499625 -0.08841324 0.016035102
0003d0 33 24 69 bc b8 16 51 bd b9 80 fa 3c 19 6c 8d bd
       -0.014229822 -0.051047057 0.030578958 -0.069053836
0003e0 cc 81 99 bb 22 d0 f1 3c 38 e5 5a 3d bf 9e 0e 3c
       -0.0046846624 0.02951819 0.053441256 0.00870484
0003f0 d0 07 cc 3c ab fb d4 3b 95 65 f3 bc 7a 44 73 bc
       0.024906069 0.0064997277 -0.029711524 -0.014847869

bias f4 [256]
000000 73 bc d9 bd e8 2b d4 bd 75 43 54 bd 5a 53 ef bd
       -0.10631647 -0.10359937 -0.051822145 -0.1168582
000010 4b 7b 80 3c a0 c2 d1 bd e5 55 a4 bd 04 53 94 bd
       0.01568379 -0.102422 -0.080241956 -0.072423965
000020 27 68 76 bd c6 18 8d bd 3c 93 14 be 62 c9 bb bd
       -0.06015792 -0.06889491 -0.1450929 -0.0916927
000030 3f 3c 58 bd 8b 93 13 bd b2 da 7c bd cf d6 eb bd
       -0.05279183 -0.03602938 -0.061732 -0.11515581
000040 85 ab c2 bd 08 5b 16 bd 13 fb 35 3f 41 97 aa bd
       -0.09505371 -0.036707908 0.71086234 -0.08329631
000050 90 f8 1e bd 96 dc 10 be f5 ba 97 bd 23 09 86 bd
       -0.038811266 -0.14146647 -0.07408706 -0.065447114
000060 5c 5d a8 3c 70 e1 5e bd 71 00 56 bd 1e d4 7e bd
       0.02055233 -0.054414213 -0.052246515 -0.06221401
000070 b9 08 0b be 28 b3 9f be ba c4 a2 bd 1e 9b b2 bd
       -0.13577546 -0.31191373 -0.07947679 -0.087209925
000080 11 11 3b bd 03 09 5d bd ff 34 b5 bd 6e 6c 8a bd
       -0.045670573 -0.053963672 -0.08847999 -0.067589626
000090 61 5a 80 bd a9 66 88 bd ff fa 70 bd 58 95 93 bd
       -0.062672384 -0.06660206 -0.05883312 -0.072062194
0000a0 d3 87 ba be 92 b8 81 bc ab e2 e9 bc fa 80 b8 bd
       -0.3643175 -0.01583508 -0.028550467 -0.09008975
0000b0 1b a1 4e bd 65 95 49 bc 4f 9b 97 bd e4 5d a5 bd
       -0.05044661 -0.012303685 -0.0740267 -0.08074549
0000c0 97 76 50 bb 7a 9d 83 bd ac b8 9b bc a7 bd b3 bd
       -0.0031808966 -0.06426521 -0.019008957 -0.08776408
0000d0 8b 04 b0 bd 30 fe c0 bc 14 91 b1 be fa 0e b8 bd
       -0.085946165 -0.023558706 -0.34680998 -0.089872316
0000e0 98 41 17 be 8a 27 21 bd 87 75 9d bc 82 b3 a4 be
       -0.14771116 -0.039344348 -0.01922108 -0.32168204
0000f0 14 c3 6d bd 39 80 88 bd 28 2e ff bd c0 ba e6 bd
       -0.05804737 -0.066650815 -0.124599755 -0.112660885
000100 86 78 8b bc 22 b3 a0 ba 67 4b a3 bd df ab e1 3c
       -0.017025243 -0.0012260417 -0.07973366 0.027547775
000110 2e a0 51 bd fb c8 7f bd 44 37 61 bd a3 5c 83 bd
       -0.05117815 -0.06244753 -0.054984346 -0.064141534
000120 85 5d d9 bb 37 8c 19 bd bd be 8c bd 1c 17 9c bd
       -0.006633463 -0.037487235 -0.06872318 -0.07621595
000130 5d f0 0a be 3a 3d e5 bc 4e 6f 7f bd fb 1f da bd
       -0.13568254 -0.027983297 -0.062362008 -0.10650631
000140 22 d2 88 bd 54 d9 c5 bd f8 a6 90 bd 1d 92 85 bc
       -0.06680705 -0.09660593 -0.07063097 -0.016305024
000150 01 b0 c3 bd 98 12 a3 bd 54 10 16 be 33 bf c0 bd
       -0.095550545 -0.07962531 -0.14654666 -0.09411468
000160 72 52 e2 bc ab 64 63 3b 88 ea 12 be fd 99 41 bd
       -0.027627204 0.0034697454 -0.14347279 -0.047265995
000170 58 1f 91 bd b5 f7 15 bd d1 37 25 be 3a 13 f6 bd
       -0.070860565 -0.036613185 -0.16134574 -0.12015386
000180 6c 7e aa bd d7 d7 33 bf 65 04 a5 bd 10 e3 be bd
       -0.08324894 -0.7025122 -0.08057479 -0.093206525
000190 1b 8c bf bd 37 36 6c bd 60 dd a4 3c ef 90 b9 bc
       -0.09352895 -0.05766889 0.020125091 -0.022652118
0001a0 8f e7 51 bd bb 92 ea bd 64 e0 40 bd 80 9e ec bc
       -0.051246222 -0.11453768 -0.047088996 -0.028884172
0001b0 9d 07 6d bd a8 6a 01 be 1a be 0a be e3 1e ec bb
       -0.05786859 -0.12638342 -0.1354908 -0.0072058304
0001c0 b4 33 b1 bd 5a 65 c3 bd 12 eb da bb 50 c1 32 bc
       -0.0865244 -0.09540816 -0.0066808546 -0.010910347
0001d0 c3 f7 a4 bd 28 06 1d bd c9 21 13 bc a8 3e ac 3c
       -0.08055069 -0.03833595 -0.008980223 0.02102597
0001e0 4d 42 fd bd 27 88 e9 3c a5 d4 21 3f 96 eb 04 bd
       -0.123661615 0.028507305 0.63215095 -0.032451235
0001f0 a1 61 cb bd ca a0 b7 bd 25 81 ae bc fe 11 58 bd
       -0.099307306 -0.08966215 -0.021301815 -0.052751534
000200 6a ad 03 be f5 91 80 bd 3c ce 9d bd 48 8b 45 b7
       -0.12859121 -0.06277839 -0.07705352 -1.1774544e-05
000210 be e5 81 bd 50 fe 42 bd 3f ac 36 bd d0 3e 41 bd
       -0.06342648 -0.047605813 -0.04459786 -0.047179043
000220 3a 32 85 bd 23 ed 24 bd cf 63 3a bd 70 a0 5b bc
       -0.065037206 -0.040265214 -0.04550534 -0.0134049505
000230 e4 62 95 3c 4e 34 20 bd a9 00 94 bd 35 9b bc bd
       0.018235631 -0.03911238 -0.072266884 -0.09209291
000240 d9 6b 02 bd e7 3d 44 3b 24 49 91 bd 7c 01 68 bd
       -0.031841133 0.0029944123 -0.070940286 -0.05664204
000250 03 70 ad bd 2c b7 44 bd 97 53 ea bd f4 88 1e bf
       -0.0846863 -0.04802625 -0.11441725 -0.61927724
000260 ef 4b 03 3d 4a c4 f6 3d f6 40 e0 bd a1 1e 08 be
       0.032054838 0.12049158 -0.1094989 -0.13292934
000270 63 53 c0 bd 97 45 98 bc cb a4 ad bd a7 7d 23 bd
       -0.09390905 -0.01858787 -0.084786974 -0.039914753
000280 f1 3b 85 bd 16 31 e3 ba 97 7c c8 bd 6c 31 00 be
       -0.065055735 -0.0017333354 -0.097893886 -0.12518853
000290 b0 1b 76 bd 72 da fd bc d0 dc b0 bd ff 15 00 bd
       -0.060085 -0.030987952 -0.08635867 -0.031270977
0002a0 1f 72 f7 bc 29 13 94 3a 28 e7 51 bd a3 20 1c bd
       -0.030205784 0.0011297214 -0.05124584 -0.038117062
0002b0 a6 35 91 bd 9b 91 f9 bd 29 ca cd bd 71 f7 02 bd
       -0.07090311 -0.12185975 -0.100483246 -0.03197426
0002c0 fd 4b 9b bd 4b dd 90 bd 9e d0 36 bd 68 1e 35 bd
       -0.07582853 -0.07073458 -0.044632547 -0.04421845
0002d0 95 05 9e 3b c3 b4 2c 3c c0 2f f5 bc 10 db 0c bc
       0.004822443 0.010541144 -0.029929996 -0.00859715
0002e0 2c b4 d8 bd 15 f8 97 bd d8 12 00 3c ba ba 25 be
       -0.1058124 -0.07420365 0.007816993 -0.16184512
0002f0 63 1e 9d bd 1c e3 d1 be b1 95 a6 bd a7 09 86 bd
       -0.076718114 -0.40993583 -0.0813402 -0.0654481
000300 08 55 04 bf 6c 17 78 bd 4d a6 1b bd 47 09 b8 bd
       -0.5169225 -0.06056921 -0.038000394 -0.089861445
000310 b6 3d 95 bd c8 1f 0f be 3e 0f 7a bd d5 77 b0 bd
       -0.07287161 -0.13976967 -0.061049692 -0.08616606
000320 4e 33 e5 bd 7c e6 d8 bd 78 cc 87 bd 06 a9 1c bd
       -0.11191426 -0.105908364 -0.06630796 -0.03824713
000330 22 ea 0f bd cc 9e a2 bd 1e a5 30 bd 7b 3a ab 3e
       -0.035135396 -0.07940444 -0.043126218 0.33443055
000340 c3 1c 07 be 4b 27 05 bd 2c 53 84 bd ea 89 41 bd
       -0.13194565 -0.032508176 -0.06461176 -0.047250666
000350 54 30 ec bc e9 8d ba bd 13 97 42 bd 50 9d d0 bc
       -0.028831638 -0.091090985 -0.047507357 -0.025465637
000360 4b ab 00 be b3 00 09 bb 92 7a a4 bd 4e b3 f9 bb
       -0.12565343 -0.0020904958 -0.08031191 -0.0076202517
000370 f7 e4 6e bd 39 74 b0 bd 6f 7a 61 bd 0f 51 a3 bb
       -0.058323827 -0.08615918 -0.055048402 -0.004984028
000380 2d 4e e9 bd 97 6a 02 be eb f7 8f bd 2a 6a 53 bd
       -0.11391864 -0.12735973 -0.070297085 -0.051614918
000390 37 be 01 be bf a5 7b bd 65 c5 a3 bd f7 34 6e 39
       -0.12670217 -0.061437365 -0.079966344 0.0002271718
0003a0 60 2f 03 be 3b 66 06 be 60 40 c3 bd a5 5b b3 bd
       -0.12811041 -0.13124935 -0.09533763 -0.08757714
0003b0 3c 4a 2a bd 84 fb de bc c1 e9 7c bd 6c a7 8c bd
       -0.0415747 -0.027219541 -0.061746363 -0.06867871
0003c0 f1 a8 e5 bc 94 0e 1f bd 9b e3 0c bd 9b 4d 67 bd
       -0.02803466 -0.038832262 -0.03439675 -0.056470495
0003d0 0a 4d 0f bb 1e 1c c3 bd d8 0e ff bd 45 77 1b bd
       -0.0021865987 -0.09526847 -0.12454003 -0.03795554
0003e0 1a fa 63 bd 7e b9 3f bd 7e 94 b2 bd 32 a9 94 bd
       -0.055658437 -0.04680776 -0.08719729 -0.07258834
0003f0 fc 7b 03 bd d4 b9 05 bd 54 82 5d bd 3a a5 4b 3b
       -0.032100663 -0.032647923 -0.05407937 0.0031073825

weight f4 [5, 256]
000000 22 04 b0 3c 4f 07 37 bc 33 07 12 3c 33 c9 ae bb
       0.021486346 -0.011171176 0.008912849 -0.0053340434
000010 8c 57 8b 3d 40 9b 9c bd 9c d2 3e 3d 49 ad 1c 3b
       0.068038076 -0.07646799 0.04658757 0.0023906997
000020 8a 69 40 bd 5a 2f 9f 3d e5 19 1d 3d 3c f3 34 3d
       -0.04697565 0.077727035 0.038354773 0.04417728
000030 8d 7e 18 3d 46 d1 38 bd 0f 8b 85 3c cb a8 8e bd
       0.037230063 -0.045121454 0.01630166 -0.069657885
000040 99 4d f9 bc 08 42 78 3b 63 c8 f8 3e 98 71 1a bd
       -0.03043251 0.0037881155 0.48590383 -0.037705988
000050 8e 1c f2 3c dd ae 43 3d 1d b2 b8 3c 8e 7d 4d bb
       0.029554632 0.047774184 0.022545869 -0.0031355354
000060 3d 56 ad 3c 4e 82 eb 3a 9e f4 a0 bc 81 22 07 bb
       0.021159286 0.0017967911 -0.019647893 -0.0020619931
000070 70 85 ec 3a 9b ac 50 be 7f 81 05 3c a2 ec 30 bd
       0.0018045139 -0.20378344 0.00814855 -0.04319442
000080 af bc 0a bd 02 28 09 bb 71 b3 59 bc 55 42 87 3d
       -0.03387135 -0.0020928388 -0.013287411 0.06604449
000090 b5 1e 1e 3c fd df 29 3c 56 97 65 3c be c4 06 bd
       0.009650876 0.010368344 0.014013132 -0.03290247
0000a0 7d 61 85 be 26 69 31 3d cf 30 ba 3c 3b b4 61 3d
       -0.2605094 0.043313168 0.022728352 0.05510352
0000b0 d4 ab 22 bd 0d 0f 87 bc 53 41 42 3c 3f 2d 2b 3d
       -0.03971465 -0.016486669 0.011856395 0.041791197
0000c0 79 d7 42 3d 00 5d 68 3c 08 e1 45 bc 20 9e 28 3c
       0.047568772 0.014182329 -0.012077577 0.010291606
0000d0 98 20 1e 3d c8 79 db 3a 20 82 91 be 5a dd 31 3d
       0.038605303 0.0016744668 -0.2841959 0.043423988
0000e0 83 74 4e 3d 4e bc 2a bc c9 8f 4a 3c 32 13 58 3f
       0.050404083 -0.010420872 0.012363383 0.8440429
0000f0 35 75 98 bd 4f ea be bc 7e e0 33 3c 56 8d 42 3b
       -0.074442305 -0.023305086 0.010978816 0.0029686294
000100 5c a2 e6 bb 9c f0 45 bc 15 d0 29 bd 02 7b 1f 3d
       -0.0070383977 -0.0120812915 -0.041458208 0.03893567
000110 00 a1 9f bc 87 8b 09 bd 28 ae 63 3d cf f1 54 3c
       -0.01948595 -0.03358033 0.05558601 0.012997105
000120 9a f6 b0 3c f0 e8 da bc 86 b0 dc 3d e7 f2 d0 3d
       0.021601964 -0.026722401 0.10775857 0.1020258
000130 e2 90 9f bc 20 ee e2 bc 09 f5 28 bd 41 5f c3 3c
       -0.019478265 -0.027701437 -0.04124931 0.023849132
000140 27 fe 39 3d d0 1d d1 3c 75 26 50 bc de 40 1b bd
       0.045408394 0.025526911 -0.012704481 -0.03790366
000150 c1 51 fb bc 55 66 87 bc 5d d8 b4 bc 36 fa 98 3c
       -0.030678632 -0.016528288 -0.022075826 0.018673997
000160 bb e1 9e ba 8e de 9f 3c 6b 76 31 bf 72 59 46 3d
       -0.0012121716 0.019515302 -0.69321316 0.048425145
000170 ce e1 9c 3d 0c c5 86 3c bc 9a 3a 3d b0 ac 79 3c
       0.07660256 0.016451381 0.045557722 0.015238926
000180 ab 1e 4f 3d 3c 82 41 bf 4f 6c f8 3c 7f df 8f bc
       0.050566357 -0.75589347 0.030325083 -0.017562626
000190 6d 38 c3 3b d2 fa c5 3c 70 55 ae bd 0e c6 a1 bc
       0.005957654 0.024167452 -0.0851239 -0.01974776
0001a0 a2 78 8c bc 69 63 47 3c 61 8a 88 ba 49 ac b6 3d
       -0.017147366 0.012169697 -0.0010417217 0.089195795
0001b0 d8 24 ae 3c 61 5c 9c bd e7 e3 22 bc c1 64 ed 3c
       0.021257803 -0.076348074 -0.009942031 0.028978707
0001c0 e8 ab e7 bc 60 c9 ab bb ca 2d a7 3a e8 38 3e 3d
       -0.028280213 -0.0052425116 0.0012754735 0.04644099
0001d0 08 c5 f6 3c c6 f1 29 bd 29 50 4d bc eb 35 2f 3a
       0.030123249 -0.04149034 -0.012531319 0.00066837546
0001e0 1e 50 fb ba d8 49 31 3d ea 70 07 3f 6c 75 61 b9
       -0.0019173657 0.043283314 0.5290667 -0.00021501415
0001f0 80 41 63 3b aa a6 05 bd 90 b8 99 bb a2 44 1d bc
       0.0034676492 -0.032629646 -0.004691191 -0.009598883
000200 0f ed f2 3c fe 34 9c 3c 89 7d 62 3d ef df 67 3c
       0.029654054 0.019068237 0.0552955 0.014152511
000210 a4 85 a9 3c 36 9d 73 3d 4a 6d 26 3d 47 fc c7 3b
       0.020693608 0.0594761 0.04063157 0.006103072
000220 8f bf 0b bd 1b fa 98 bd c0 9f 3d 3d 86 bb 06 bd
       -0.03411823 -0.07469579 0.046294928 -0.03289368
000230 11 70 7a 3d 45 50 68 bb 9d 83 98 3b 87 4a 6e 3c
       0.06114203 -0.0035448235 0.0046543614 0.014544136
000240 1a 05 56 3c a5 e5 b9 3c 62 7b 8e 3c 73 ea 44 3d
       0.01306274 0.02269251 0.017392818 0.04807515
000250 50 44 f1 bc 3a 7d ca b9 94 e7 6b 3d cb c6 66 3e
       -0.02945152 -0.00038621743 0.057593897 0.22536771
000260 88 06 e7 3c b2 a9 51 3d 36 99 8a bc b9 3a ab 3c
       0.028201357 0.051187225 -0.01691876 0.020902025
000270 8a 1f c6 3c 82 45 a7 3c b7 9f 26 3c ab 91 38 3b
       0.02418496 0.020418886 0.010169915 0.0028162997
000280 51 1d 40 bb fc 37 08 3d 84 3e e0 bc 25 a8 b2 3c
       -0.002931435 0.033256516 -0.02737356 0.021808693
000290 5e ba 69 3d 24 8a f2 bc 6d 7f 4f 3d a3 0d bb bc
       0.0570625 -0.029606886 0.050658632 -0.022833651
0002a0 ad 85 a0 3c 6f fc 5e bc 6f 4e de 3c 8b 6f 1a 3d
       0.019594992 -0.01360999 0.02713701 0.037704032
0002b0 85 61 ac 3c 5c 95 bc 3b b5 2b 2f 3c f9 01 97 3a
       0.021042595 0.0057551097 0.010691573 0.0011520974
0002c0 62 91 a8 3c 0b 2d 02 3c 9b e0 54 3d a2 0b c2 39
       0.020577136 0.007945309 0.051972013 0.0003701123
0002d0 a0 a0 bf 3c 78 b3 a1 3d bf cb 13 bd bb 0e 54 3d
       0.023392022 0.07895559 -0.03608298 0.05177186
0002e0 12 21 01 3b 5d 16 7a bb 93 52 4a bc f1 18 31 3f
       0.001970355 -0.0038160302 -0.012348789 0.6917868
0002f0 7a db 4a 3d 59 d3 d2 bd f9 3d 9a 3b f4 22 17 bb
       0.049525715 -0.102942176 0.0047070947 -0.0023061605
000300 16 ee 48 3f 80 d8 d1 3c 4b e8 4f bb 8e f3 b6 bc
       0.7848829 0.02561593 -0.003172415 -0.022332933
000310 fb ae 04 3d 98 71 62 bb a6 09 a2 3d 33 c7 24 3d
       0.032393437 -0.003455257 0.079119965 0.040229034
000320 79 4a c7 3b 4f 86 8d bc ec 72 72 3d 6b 5a 89 bc
       0.006081876 -0.017275957 0.05919163 -0.016766747
000330 cd 86 5f bc 81 72 a2 3c 80 4d 78 3b f7 a0 35 3e
       -0.013642979 0.01982999 0.003788799 0.17737184
000340 20 c6 40 bc a2 b9 a2 3c 30 ea a1 3e 81 94 e7 bc
       -0.011765987 0.019863907 0.31623983 -0.028269054
000350 5f e5 aa 3b 9c 35 fa bc bf d2 3e 3c 08 56 9f bc
       0.0052153314 -0.030543141 0.0116469255 -0.019450203
000360 41 c9 0a bd 20 17 9c 3c 2b 3c 2b 3c d3 11 80 bc
       -0.033883337 0.019053996 0.010451357 -0.0156335
000370 9e d2 74 bc bc 1d 9c 3d f2 1e 68 3c 92 9f 26 3d
       -0.014942793 0.07622859 0.014167534 0.04067952
000380 b3 66 41 3d c0 af ba bb f4 90 06 bd 60 a9 1d 3f
       0.047217082 -0.0056972206 -0.03285308 0.6158657
000390 fc 59 9c 3d 23 91 3b 3c e0 ba 42 bd a8 b3 1a 3d
       0.07634351 0.0114481775 -0.0475415 0.03776899
0003a0 d9 5c d5 bc 0d cd 97 3d dd 2e 27 3c 65 e3 83 bd
       -0.02604525 0.07412157 0.010204044 -0.064398564
0003b0 df 21 32 bc cf 7e 7a 3b 79 91 47 3d 82 95 2a 3c
       -0.010872333 0.0038222556 0.048722718 0.010411622
0003c0 93 15 12 3d ab c4 bf bc 3f 19 57 bc 5a f9 c4 bc
       0.035665106 -0.023409208 -0.013128578 -0.024044681
0003d0 cd 0d f6 3a ca a0 7e bb 8a 51 61 bb e6 b2 48 3d
       0.0018772424 -0.0038853162 -0.0034380876 0.048998736
0003e0 b4 2e ff bc 43 d0 ae 3d 4c 8d 8d bc 35 4c 41 bd
       -0.0311502 0.085358165 -0.01727929 -0.047191817
0003f0 46 ea 73 bc 46 f6 b6 bc 5d 8a 67 bd 84 e7 c2 bc
       -0.014887398 -0.02233423 -0.056528438 -0.023792036

bias f4 [5]
000000 c1 7a 0e c0 c9 d2 0d c0 00 5d 0f c0 23 4c 0e c0
       -2.2262423 -2.2159903 -2.2400513 -2.223397
000010 02 0f 0f c0
       -2.235291

exp_avg f4 [256, 7]
000000 04 00 00 00 04 00 00 80 04 00 00 00 04 00 00 00
       6e-45 -6e-45 6e-45 6e-45
000010 04 00 00 00 04 00 00 00 04 00 00 80 09 37 f5 3b
       6e-45 6e-45 -6e-45 0.0074833673
000020 b4 f5 96 bb 69 3f 72 3a f6 12 05 ba ea 3d 1b bb
       -0.004606927 0.0009241016 -0.0005076373 -0.0023688027
000030 69 1a 32 3b 39 58 8a b8 00 00 00 00 00 00 00 00
       0.0027176386 -6.5967855e-05 0.0 0.0
000040 00 00 00 00 00 00 00 00 00 00 00 00 00 00 00 00
       0.0 0.0 0.0 0.0
000050 00 00 00 00 04 00 00 80 04 00 00 80 04 00 00 00
       0.0 -6e-45 -6e-45 6e-45
000060 04 00 00 00 04 00 00 00 04 00 00 00 04 00 00 00
       6e-45 6e-45 6e-45 6e-45
000070 ed 80 1c 3c 18 3d 59 3b 21 c8 20 bb ef be a1 bc
       0.009552223 0.0033147987 -0.0024533349 -0.019744365
000080 48 5b e1 3b 72 99 95 bc 2e 1c 81 3a 87 1e 74 3b
       0.0068773367 -0.018261645 0.0009850317 0.003724964
000090 6a 4b 53 bb 46 d9 20 3a 9e d3 5e 39 57 01 3b ba
       -0.0032240995 0.0006135892 0.00021250403 -0.00071336835
0000a0 82 a1 6c 3a 6d 71 da b7 35 30 02 bc bb a5 e4 3b
       0.0009026752 -2.6040443e-05 -0.007946064 0.0069777644
0000b0 19 62 b6 ba 82 71 18 b9 b0 f8 91 3a 7b fe 5d ba
       -0.0013914733 -0.00014538135 0.0011136737 -0.00084684015
0000c0 10 72 74 b8 00 00 00 00 00 00 00 00 00 00 00 00
       -5.8280362e-05 0.0 0.0 0.0
0000d0 00 00 00 00 00 00 00 00 00 00 00 00 00 00 00 00
       0.0 0.0 0.0 0.0
0000e0 04 00 00 00 04 00 00 80 04 00 00 80 04 00 00 00
       6e-45 -6e-45 -6e-45 6e-45
0000f0 04 00 00 80 04 00 00 00 04 00 00 80 79 24 64 12
       -6e-45 6e-45 -6e-45 7.198907e-28
000100 c8 ac 40 92 8d 81 15 11 eb f3 e2 10 b3 58 7f 91
       -6.0797487e-28 1.1793948e-28 8.95171e-29 -2.0143286e-28
000110 e5 b1 8a 11 cc 29 3f 8e c9 b0 2f 39 72 14 27 b9
       2.1882197e-28 -2.3562692e-30 0.00016755158 -0.00015933978
000120 d6 66 d6 b6 2f 17 83 37 05 fa c7 b7 ca 04 b7 37
       -6.3896687e-06 1.5627213e-05 -2.3839073e-05 2.181753e-05
000130 be 26 3c b6 d2 4f 85 3c 88 99 fb bb 9c db 05 3b
       -2.8036734e-06 0.016273413 -0.0076782145 0.0020425087
000140 58 90 31 bb 94 dd c0 bb fe 96 d4 3b b2 ad ff b8
       -0.0027094092 -0.005885789 0.0064877262 -0.00012191701
000150 04 00 00 80 04 00 00 80 04 00 00 00 04 00 00 00
       -6e-45 -6e-45 6e-45 6e-45
000160 04 00 00 00 04 00 00 00 04 00 00 00 04 00 00 80
       6e-45 6e-45 6e-45 -6e-45
000170 04 00 00 80 04 00 00 00 04 00 00 00 04 00 00 80
       -6e-45 6e-45 6e-45 -6e-45
000180 04 00 00 00 04 00 00 00 f3 0d e5 3b a3 13 ad bb
       6e-45 6e-45 0.0069901883 -0.005281882
000190 b9 ae 74 3a 19 f8 9b 38 cc a8 e9 ba 8f 92 0a 3b
       0.0009333897 7.437188e-05 -0.0017826795 0.0021144485
0001a0 cb 34 28 b8 f5 8a 35 b9 c4 2a 91 39 eb 51 19 38
       -4.010349e-05 -0.0001731327 0.00027688418 3.6554335e-05
0001b0 3c ff e6 b8 da a2 d6 36 59 b2 e7 b8 9c ff 07 b6
       -0.00011014796 6.3966554e-06 -0.00011048158 -2.0265352e-06
0001c0 04 00 00 80 04 00 00 80 04 00 00 00 04 00 00 00
       -6e-45 -6e-45 6e-45 6e-45
0001d0 04 00 00 00 04 00 00 00 04 00 00 00 40 a7 b3 39
       6e-45 6e-45 6e-45 0.00034266151
0001e0 65 f9 cb b9 a1 f5 0c b8 20 4d 9f 38 33 12 f8 b7
       -0.0003890499 -3.360736e-05 7.5960765e-05 -2.9572378e-05
0001f0 19 70 ab 38 76 ac 17 b6 04 00 00 80 04 00 00 00
       8.174795e-05 -2.260114e-06 -6e-45 6e-45
000200 04 00 00 00 04 00 00 00 04 00 00 80 04 00 00 00
       6e-45 6e-45 -6e-45 6e-45
000210 04 00 00 00 a4 fe 61 37 28 16 ca b7 50 5c 8a 36
       6e-45 1.3470333e-05 -2.4090594e-05 4.123467e-06
000220 f2 0f 1a 37 92 ed c0 35 71 29 1b 37 45 18 43 b5
       9.182828e-06 1.4374257e-06 9.248369e-06 -7.267848e-07
000230 00 00 00 00 00 00 00 00 00 00 00 00 00 00 00 00
       0.0 0.0 0.0 0.0
000240 00 00 00 00 00 00 00 00 00 00 00 00 00 00 00 00
       0.0 0.0 0.0 0.0
000250 00 00 00 00 00 00 00 00 00 00 00 00 00 00 00 00
       0.0 0.0 0.0 0.0
000260 00 00 00 00 00 00 00 00 29 f9 3e 3c 57 55 b3 bb
       0.0 0.0 0.011656084 -0.00547282
000270 42 ca c0 3a 96 59 00 bb 2b 70 8a bb e2 9a 98 3b
       0.0014708715 -0.0019584647 -0.0042247972 0.0046571353
000280 34 48 b7 b8 00 00 00 00 00 00 00 00 00 00 00 00
       -8.739569e-05 0.0 0.0 0.0
000290 00 00 00 00 00 00 00 00 00 00 00 00 00 00 00 00
       0.0 0.0 0.0 0.0
0002a0 04 00 00 80 04 00 00 80 04 00 00 00 04 00 00 00
       -6e-45 -6e-45 6e-45 6e-45
0002b0 04 00 00 00 04 00 00 00 04 00 00 00 04 00 00 80
       6e-45 6e-45 6e-45 -6e-45
0002c0 04 00 00 80 04 00 00 00 04 00 00 00 04 00 00 00
       -6e-45 6e-45 6e-45 6e-45
0002d0 04 00 00 00 04 00 00 00 04 00 00 00 04 00 00 80
       6e-45 6e-45 6e-45 -6e-45
0002e0 04 00 00 00 04 00 00 00 04 00 00 80 04 00 00 00
       6e-45 6e-45 -6e-45 6e-45
0002f0 04 00 00 00 04 00 00 00 04 00 00 80 04 00 00 80
       6e-45 6e-45 -6e-45 -6e-45
000300 04 00 00 00 04 00 00 00 04 00 00 00 04 00 00 00
       6e-45 6e-45 6e-45 6e-45
000310 00 00 00 00 00 00 00 00 00 00 00 00 00 00 00 00
       0.0 0.0 0.0 0.0
000320 00 00 00 00 00 00 00 00 00 00 00 00 9f b0 31 3b
       0.0 0.0 0.0 0.002711333
000330 d2 40 c0 3a d2 4f 6d b9 4a f4 40 3b af 62 e9 bb
       0.0014667755 -0.00022631817 0.0029442483 -0.0071223597
000340 85 86 ff 3b 99 5d 04 b9 00 00 00 00 00 00 00 00
       0.0077980184 -0.00012623369 0.0 0.0
000350 00 00 00 00 00 00 00 00 00 00 00 00 00 00 00 00
       0.0 0.0 0.0 0.0
000360 00 00 00 00 04 00 00 00 04 00 00 80 04 00 00 00
       0.0 6e-45 -6e-45 6e-45
000370 04 00 00 00 04 00 00 00 04 00 00 00 04 00 00 00
       6e-45 6e-45 6e-45 6e-45
000380 04 00 00 80 04 00 00 80 04 00 00 00 04 00 00 00
       -6e-45 -6e-45 6e-45 6e-45
000390 04 00 00 00 04 00 00 00 04 00 00 00 1a 96 f6 ba
       6e-45 6e-45 6e-45 -0.0018813044
0003a0 b1 03 2e 3b 0d c5 7d 38 34 19 e3 3b 8b 75 fc bb
       0.0026552493 6.050342e-05 0.0069304947 -0.007704442
0003b0 a1 56 2a 3c a5 c3 f7 b9 6c 2d c1 3b 5f 70 37 bb
       0.0103966305 -0.00047257278 0.0058953073 -0.0027990562
0003c0 3a 7b d9 39 24 45 78 ba 2a d9 0c bb 68 a2 20 3b
       0.00041481276 -0.0009470752 -0.0021491745 0.0024510864
0003d0 6b 9a 27 b8 77 14 1d 3a 62 95 f3 b9 96 1d 51 b8
       -3.9959716e-05 0.0005992124 -0.0004645987 -4.9857037e-05
0003e0 35 42 a6 38 00 48 60 b9 a4 c4 30 39 df 78 00 b7
       7.927829e-05 -0.00021389127 0.00016857922 -7.657537e-06
0003f0 fc a8 a8 37 11 df f2 b7 21 79 8b 36 5a 16 f0 36
       2.010585e-05 -2.8952521e-05 4.156624e-06 7.1551594e-06

exp_avg_sq f4 [256, 7]
000000 78 49 00 00 01 a1 00 00 4d 03 00 00 02 0d 00 00
       2.6356e-41 5.7757e-41 1.184e-42 4.666e-42
000010 f4 01 00 00 40 0d 00 00 f4 01 00 00 ae 3c eb 3d
       7e-43 4.753e-42 7e-43 0.11486183
000020 59 d1 4d 3e 4f 45 84 3b 15 c1 7c 3c 9a 41 53 3b
       0.20099391 0.0040365825 0.015426894 0.0032235147
000030 89 da 97 3c 5d 25 07 37 00 00 00 00 00 00 00 00
       0.018536823 8.055326e-06 0.0 0.0
000040 00 00 00 00 00 00 00 00 00 00 00 00 00 00 00 00
       0.0 0.0 0.0 0.0
000050 00 00 00 00 b2 93 11 29 d1 4a 3f 2a 64 19 a3 26
       0.0 3.2324573e-14 1.6990165e-13 1.1317279e-15
000060 d1 82 78 2a 12 70 86 28 6b a8 84 2a a5 57 8b 24
       2.2072211e-13 1.4925591e-14 2.3564774e-13 6.0430116e-17
000070 28 89 ab 3b 4c 92 01 3c 0a b5 94 38 b9 96 c1 3a
       0.005234856 0.007908415 7.090911e-05 0.001476965
000080 be 57 ac 3c fd 5f b8 3c 40 43 af 37 03 1e 87 3c
       0.021037932 0.022506708 2.0892941e-05 0.016493803
000090 aa fc d8 3c f1 a2 1a 3a 4c f3 06 3b f7 e2 49 3a
       0.026487667 0.0005898914 0.0020591794 0.0007701362
0000a0 5b ee 39 3b 72 a9 0c 36 54 ac f2 3b dc 59 fc 3b
       0.002837083 2.0960256e-06 0.007405797 0.0077011418
0000b0 57 34 37 39 fd bb d6 39 9c b0 ad 39 8f 9c 42 3a
       0.00017471738 0.00040957323 0.00033128716 0.0007423842
0000c0 90 3b 96 36 00 00 00 00 00 00 00 00 00 00 00 00
       4.4772823e-06 0.0 0.0 0.0
0000d0 00 00 00 00 00 00 00 00 00 00 00 00 00 00 00 00
       0.0 0.0 0.0 0.0
0000e0 f4 01 00 00 f4 01 00 00 f4 01 00 00 f4 01 00 00
       7e-43 7e-43 7e-43 7e-43
0000f0 f4 01 00 00 f4 01 00 00 f4 01 00 00 0e 34 cb 32
       7e-43 7e-43 7e-43 2.3655982e-08
000100 60 c7 91 32 1b 8a 2e 30 b6 93 c8 2f b6 d2 f9 30
       1.6970887e-08 6.349709e-10 3.6484743e-10 1.8177022e-09
000110 a6 f7 13 31 9f 22 91 2a b8 f2 3f 3d d2 97 83 3d
       2.1532087e-09 2.5781197e-13 0.046862334 0.06425442
000120 76 30 bc 3a f3 1c 54 3b 04 4e 5f 3a 7f ee 85 3b
       0.0014357704 0.0032365888 0.00085184 0.004087269
000130 78 9a 39 36 3b 43 f7 3e fc c3 93 3e 75 f7 04 3c
       2.765706e-06 0.4829348 0.28860462 0.008115639
000140 47 b4 a2 3c 4f 02 3e 3d 4c ae 87 3d 07 9a 39 38
       0.019861354 0.04638892 0.06625041 4.4250886e-05
000150 f4 01 00 00 f4 01 00 00 f4 01 00 00 f4 01 00 00
       7e-43 7e-43 7e-43 7e-43
000160 f4 01 00 00 f4 01 00 00 f4 01 00 00 2b 58 81 32
       7e-43 7e-43 7e-43 1.505767e-08
000170 1b 46 1c 31 cf 35 06 30 72 98 b8 33 49 22 97 32
       2.2740838e-09 4.882538e-10 8.595897e-08 1.7594305e-08
000180 a2 61 de 33 0e f9 10 2e 5c 90 fc 3c 43 b6 27 3d
       1.035544e-07 3.2963014e-11 0.030830555 0.040945303
000190 6c 86 64 3a 9b a5 7e 3b 89 0c 1f 3b f8 bf c6 3b
       0.000871754 0.0038856033 0.0024268946 0.006065365
0001a0 be e2 8a 36 7a 12 55 3d dc c9 d0 3d 39 81 04 3b
       4.1391168e-06 0.052019574 0.101947516 0.0020218624
0001b0 57 22 e8 3b 19 60 df 38 b9 a7 eb 3b 07 ac 69 36
       0.0070841718 0.00010651368 0.007191625 3.4819839e-06
0001c0 f4 01 00 00 f4 01 00 00 f4 01 00 00 f4 01 00 00
       7e-43 7e-43 7e-43 7e-43
0001d0 f4 01 00 00 f4 01 00 00 f4 01 00 00 6d bf 73 3d
       7e-43 7e-43 7e-43 0.05950873
0001e0 80 3c ab 3d da d7 15 3a 58 85 6b 3b 3a 24 80 39
       0.08361149 0.00057160633 0.0035937633 0.00024441053
0001f0 de 89 7b 3b 4d e7 a0 36 f4 01 00 00 f4 01 00 00
       0.0038381736 4.7952985e-06 7e-43 7e-43
000200 f4 01 00 00 f4 01 00 00 f4 01 00 00 f4 01 00 00
       7e-43 7e-43 7e-43 7e-43
000210 f4 01 00 00 6b 06 bf 3c 98 fa 2b 3d 44 b8 51 3a
       7e-43 0.02331849 0.04198703 0.0008000175
000220 03 78 2c 3b cc 0e a4 38 3a 98 31 3b 79 b0 06 36
       0.002631665 7.8228855e-05 0.002709879 2.0070277e-06
000230 00 00 00 00 00 00 00 00 00 00 00 00 00 00 00 00
       0.0 0.0 0.0 0.0
000240 00 00 00 00 00 00 00 00 00 00 00 00 00 00 00 00
       0.0 0.0 0.0 0.0
000250 00 00 00 00 00 00 00 00 00 00 00 00 00 00 00 00
       0.0 0.0 0.0 0.0
000260 00 00 00 00 00 00 00 00 52 50 56 3e 3e 05 96 3d
       0.0 0.0 0.20929077 0.073252186
000270 f0 b0 6b 3b 04 3c 27 3c 29 f4 f9 3c 16 c9 26 3d
       0.0035963617 0.01020718 0.030511932 0.040719114
000280 45 94 af 37 00 00 00 00 00 00 00 00 00 00 00 00
       2.0930669e-05 0.0 0.0 0.0
000290 00 00 00 00 00 00 00 00 00 00 00 00 00 00 00 00
       0.0 0.0 0.0 0.0
0002a0 f4 01 00 00 f4 01 00 00 f4 01 00 00 f4 01 00 00
       7e-43 7e-43 7e-43 7e-43
0002b0 f4 01 00 00 f4 01 00 00 f4 01 00 00 f4 01 00 00
       7e-43 7e-43 7e-43 7e-43
0002c0 f4 01 00 00 f4 01 00 00 f4 01 00 00 f4 01 00 00
       7e-43 7e-43 7e-43 7e-43
0002d0 f4 01 00 00 f4 01 00 00 f4 01 00 00 f4 01 00 00
       7e-43 7e-43 7e-43 7e-43
0002e0 f4 01 00 00 f4 01 00 00 f4 01 00 00 f4 01 00 00
       7e-43 7e-43 7e-43 7e-43
0002f0 f4 01 00 00 16 c2 d0 33 a8 a6 42 35 35 c1 f8 31
       7e-43 9.721059e-08 7.251315e-07 7.239715e-09
000300 e0 a9 2c 34 bc 01 a6 32 f6 69 41 34 f2 e7 1e 30
       1.6080548e-07 1.9325732e-08 1.8013074e-07 5.780968e-10
000310 00 00 00 00 00 00 00 00 00 00 00 00 00 00 00 00
       0.0 0.0 0.0 0.0
000320 00 00 00 00 00 00 00 00 00 00 00 00 2e 1d 8c 3c
       0.0 0.0 0.0 0.017103758
000330 23 ea 96 3c 7c bb 19 39 fc 1d 74 3b 76 71 50 3d
       0.018422192 0.0001466106 0.0037249317 0.050889455
000340 f5 a1 5f 3d 89 b0 3d 38 00 00 00 00 00 00 00 00
       0.054597814 4.5225523e-05 0.0 0.0
000350 00 00 00 00 00 00 00 00 00 00 00 00 00 00 00 00
       0.0 0.0 0.0 0.0
000360 00 00 00 00 f4 01 00 00 f4 01 00 00 f4 01 00 00
       0.0 7e-43 7e-43 7e-43
000370 f4 01 00 00 f4 01 00 00 f4 01 00 00 f4 01 00 00
       7e-43 7e-43 7e-43 7e-43
000380 f4 01 00 00 f4 01 00 00 f4 01 00 00 f4 01 00 00
       7e-43 7e-43 7e-43 7e-43
000390 f4 01 00 00 f4 01 00 00 f4 01 00 00 de 7c b9 3c
       7e-43 7e-43 7e-43 0.02264255
0003a0 78 90 13 3e 78 e9 18 37 63 81 00 3c e8 8d bc 3e
       0.14410579 9.114265e-06 0.007843348 0.36827016
0003b0 85 92 c0 3e de ee ad 39 ae 3d 6b 3e ee 74 c7 3e
       0.37611786 0.000331751 0.22972748 0.38956398
0003c0 3b dd 02 3c ad 36 f6 3c 10 d6 f0 3b e9 d9 17 3d
       0.007987316 0.030055368 0.007349737 0.03707305
0003d0 23 a4 92 37 d7 21 1a 3d c2 27 8d 3d 2e c7 ad 3a
       1.7480988e-05 0.03762993 0.06892349 0.0013258213
0003e0 49 92 9d 3b f3 81 a9 39 d9 15 a8 3b e1 09 e4 35
       0.0048086983 0.00032331012 0.0051295576 1.6990199e-06
0003f0 51 99 a8 3b 0f a4 36 3c 83 fa 66 39 e5 7a 6d 3a
       0.00514523 0.011147513 0.00022027832 0.0009059145
