master_thesis/auto_docking/neural_network_models/trained_model.pt (torch, 829487 bytes, 18 tensors)

weight f4 [256, 5]
0.14369428 0.19067666 0.048608124 -0.19597076 -0.009491622 0.10351786 -0.20983762 0.15888439
0.18138921 -0.0868869 -0.16694641 -0.23085728 -0.037701517 -0.44282505 0.43815893 0.021133455
0.1645064 -0.017957931 -0.16702385 0.4536741 0.065579176 -0.19266936 0.39594942 -0.058548003
-0.051656038 -0.3723601 -0.28649732 0.24301188 0.17706363 -0.3385212 0.100948066 -0.12403187
-0.111605085 -0.10475803 0.20999248 -0.06403709 0.3798872 -0.071520075 -0.42590088 0.7738825
-0.15540922 -0.024087846 0.036733538 -0.4045876 -0.43990424 -0.24890801 -0.17700566 -0.10320298
-0.09296271 0.37120205 -0.9958234 0.124079764 0.09106246 -0.23643193 0.6610107 0.16906488
-0.31228217 0.06229602 0.1643747 0.39503738 0.03623135 0.059103914 -0.18584311 -0.19549744
-0.09559932 0.33850572 0.118972376 0.07607698 -0.15929641 -0.2590217 0.30223942 0.16569354
0.032431126 -0.22025636 -0.06722543 -0.52785814 0.045317203 0.17499799 -0.11272152 0.042767677
1.0630732 -0.23982297 0.576568 0.23094425 -0.25715068 0.15060215 0.36375806 0.5368822
0.15083447 0.91166246 0.7457986 0.18178052 0.3548983 0.11575118 -0.17115392 0.17373694
0.13930218 -0.09452434 -0.28856876 -0.34118643 -0.39679486 0.2511813 0.1183303 -0.40074107
-0.03425899 -0.08412109 0.11404737 0.5298779 0.20074669 -0.3799459 0.041638073 -0.043847203
0.4427854 0.064961426 0.20865126 -0.4318437 -0.09070265 -0.0055612326 -0.33358094 0.26321703
0.268898 0.20539157 -0.3165457 -0.46725604 -0.043860167 -0.45875403 -0.06059613 0.37748057
0.08267591 0.8409444 0.07203799 -0.5670876 -0.25660008 0.14971367 -0.25484943 -0.3620091
-0.3034717 0.28195137 -0.026682675 -0.093854904 0.06923742 -0.026698675 0.61050344 0.056241885
0.2146556 -0.014156848 -0.2436938 0.15470076 -0.20783146 0.1973989 -0.030037586 0.041571144
0.22828884 -0.035004664 -0.038715366 -0.40350744 -0.19183813 -0.0457695 -0.07328749 0.12830238
-0.029526308 -0.2031696 0.48653072 0.25054434 0.38092995 0.23878212 -0.434893 -0.10330578
0.008016238 0.3259565 0.04516822 -0.07766408 0.09470171 -0.25236297 0.25056285 -0.06909621
-0.31872925 0.26601556 0.30372354 0.31729907 0.076708496 -0.39508957 0.15823066 0.034952372
0.25143868 0.20681459 -0.47283927 0.061581522 0.14546293 0.11255031 0.16210727 0.19052738
0.12890139 -0.17913523 -0.00857391 0.24740413 -0.5805876 0.086650975 0.19691375 0.18889886
0.025525143 -0.044885613 0.09035303 0.047808852 0.30512953 -0.035863936 0.40788177 0.18911491
-0.36028713 1.1266767 0.35385945 -0.31721175 -0.14776702 0.015889144 0.057560522 0.055009365
-0.14340395 -0.32275033 -0.29822904 0.25581712 -0.17915258 -0.0029458806 0.6987243 0.07238786
0.46597835 0.23696226 -0.44538552 0.3786949 0.39802742 -0.28903395 0.54176944 -0.5960895
-0.14886524 0.13952985 0.37525302 0.3928383 -0.03553818 0.16964568 -0.003842434 -0.14868084
0.14288259 0.18454188 0.5036982 0.21615972 -0.23262048 0.27247432 -0.40761378 -0.023515811
0.10682123 0.24645758 0.27416787 0.15445347 0.32713613 -0.08561004 -0.07124659 -0.403081
00000000: 9824 133e be40 433e 5019 473d 8fac 48be
00000010: c082 1bbc 2c01 d43d acdf 56be 97b2 223e
00000020: 18be 393e c2f1 b1bd 00f4 2abe da65 6cbe
00000030: e86c 1abd f7b9 e2be 5e56 e03e 1120 ad3c
00000040: 5e74 283e 831c 93bc 4d08 2bbe f947 e83e
00000050: 604e 863d 1e4b 45be e2b9 ca3e 08d0 6fbd
00000060: 4895 53bd fca5 bebe c7af 92be 1bd8 783e
00000070: 2b50 353e a752 adbe dcbd ce3d 6c04 febd
00000080: 3591 e4bd 618b d6bd 4508 573e e125 83bd
00000090: 9380 c23e 1e79 92bd ae0f dabe 2a1d 463f
000000a0: 9823 1fbe e053 c5bc e875 163d 1b26 cfbe
000000b0: 213b e1be bee1 7ebe f940 35be 155c d3bd
000000c0: 3c63 bebd 320e be3e 48ee 7ebf 881d fe3d
000000d0: f47e ba3d 361b 72be ff37 293f 581f 2d3e
000000e0: 73e3 9fbe 1d2a 7f3d d751 283e 5742 ca3e
000000f0: 5367 143d f216 723d a84d 3ebe 7b30 48be
00000100: 94c9 c3bd 9f50 ad3e caa7 f33d 3fce 9b3d
00000110: 991e 23be 7e9e 84be 20bf 9a3e 91ab 293e
00000120: 80d6 043d e28a 61be 7cad 89bd b621 07bf
00000130: 889e 393d ac32 333e 8ada e6bd 292d 2f3d
00000140: c812 883f 2794 75be f699 133f a67c 6c3e
00000150: 41a9 83be 7337 1a3e 7f3e ba3e 1d71 093f
00000160: 5a74 1a3e b662 693f a8ec 3e3f ac24 3a3e
00000170: 3bb5 b53e f40e ed3d f942 2fbe 19e8 313e
00000180: 3ba5 0e3e fa95 c1bd 49bf 93be fdaf aebe
00000190: b228 cbbe d69a 803e 2857 f23d ef2d cdbe
000001a0: 2853 0cbd ae47 acbd ab91 e93d 14a6 073f
000001b0: 8a90 4d3e 4588 c2be af8c 2a3d 2099 33bd
000001c0: c5b4 e23e 7f0a 853d ada8 553e 9e1a ddbe
000001d0: 50c2 b9bd 003b b6bb 1fcb aabe 62c4 863e
000001e0: 00ad 893e 2b52 523e 4712 a2be 2f3c efbe
000001f0: b8a6 33bd cfe1 eabe a633 78bd 2245 c13e
00000200: fd51 a93d 2248 573f a788 933d a72c 11bf
00000210: 1661 83be 8a4e 193e a07b 82be 4259 b9be
00000220: a560 9bbe ee5b 903e a095 dabc 0037 c0bd
00000230: 59cc 8d3d 2eb7 dabc f449 1c3f e45d 663d
00000240: adce 5b3e 20f2 67bc de8a 79be e069 1e3e
00000250: c5d1 54be f022 4a3e 6211 f6bc 8146 2a3d
00000260: 8dc4 693e 0d61 0fbd 0194 1ebd 8798 cebe
00000270: 3771 44be cd78 3bbd c017 96bd b361 033e
00000280: 28e1 f1bc b10b 50be 8e1a f93e 5947 803e
00000290: 4009 c33e 4d83 743e 4caa debe fb91 d3bd
000002a0: 8a56 033c c5e3 a63e 5002 393d 580e 9fbd
000002b0: f8f2 c13d b835 81be c649 803e 5082 8dbd
000002c0: 7b30 a3be 3133 883e a781 9b3e 0675 a23e
000002d0: 5819 9d3d 2e49 cabe 3807 223e 382a 0f3d
000002e0: 92bc 803e 34c7 533e fd17 f2be e83c 7c3d
000002f0: 3cf4 143e c780 e63d 73ff 253e 9c19 433e
00000300: bafe 033e 3a6f 37be 9679 0cbc 8257 7d3e
00000310: 64a1 14bf 1176 b13d c2a3 493e b46e 413e
00000320: 1b1a d13c fad9 37bd 020b b93d 37d3 433d
00000330: f039 9c3e 10e6 12bd e1d5 d03e 57a7 413e
00000340: 8e77 b8be f136 903f 112d b53e 9469 a2be
00000350: 3d50 17be f329 823c 95c4 6b3d 8051 613d
00000360: 7cd8 12be 883f a5be 7ab1 98be 76fa 823e
00000370: c673 37be ad0f 41bb 99df 323f 1640 943d
00000380: b794 ee3e 3ca6 723e 9209 e4be 4ce4 c13e
00000390: 40ca cb3e 42fc 93be 67b1 0a3f 5299 18bf
000003a0: 2170 18be eae0 0e3e 2a21 c03e 1a22 c93e
000003b0: 7c90 11bd 99b7 2d3e 58d1 7bbb ca3f 18be
000003c0: d04f 123e 8cf8 3c3e 5ef2 003f f958 5d3e
000003d0: 1034 6ebe c181 8b3e c1b2 d0be 3ba4 c0bc
000003e0: 17c5 da3d 605f 7c3e bb5f 8c3e 0d29 1e3e
000003f0: 637e a73e 5154 afbd bbe9 91bd a260 cebe

bias f4 [256]
0.13183653 0.16511552 -0.09976426 -0.27828178 -0.24266861 -0.47426644 -0.22219309 -0.07518621
0.43908983 -0.30350557 -0.27852884 -0.30494556 -0.3818833 -0.28474346 -0.0949764 -0.24594222
0.2279766 -0.095161505 0.50308836 0.27058163 -0.3659448 0.24030083 -0.08515514 0.32620758
0.06152222 -0.5269338 -0.11616661 0.041186094 0.001630077 0.07146853 -0.5798055 -0.120278485
-0.3992801 -0.44586605 0.13945627 -0.5802306 0.42786723 -0.20848213 -0.2882816 -0.30721995
0.27065384 0.16115306 0.16457245 -0.09645003 -0.4202752 0.1844129 -0.97395563 0.117180884
-0.2075523 -0.32849374 0.30762228 0.013228685 -0.15464199 -0.1578474 0.23732594 0.3033345
0.04653302 0.31477237 -0.44553298 -0.22092722 0.42644793 -0.020716041 0.10612738 0.1922094
0.005391121 0.19718087 -0.37116265 0.24029769 -0.1658003 0.18667871 0.014333876 -0.2570123
-0.15208596 -0.22051467 -0.07027105 0.4768778 -0.3929862 0.17696273 -0.021770284 -0.2631956
-0.28447136 -0.45258492 -0.4884733 0.4044497 0.053442743 0.14082542 -0.15402572 -0.1233025
-0.33660394 -0.0010277744 -0.41132554 -0.0075407224 0.115733065 -0.18688124 -0.42090073 -0.13506545
0.1141966 0.18614106 -0.06398082 0.12575495 -0.6595601 -0.08644814 0.36070177 -0.1444159
-0.017664462 -0.1843428 -0.0649078 0.059951365 -0.24829227 -0.25577804 -0.18946682 0.08418995
-0.19596213 0.36625355 -0.010894134 -0.09957102 -0.28827435 -0.2537213 0.16399646 0.33754414
-0.050912708 0.07618177 -0.28809407 -0.17966121 0.33388197 -0.258108 0.42983472 -0.2691199
-0.41975006 0.18035537 -0.019365013 0.32630476 0.06386042 -0.023664147 0.24419975 0.22028619
-0.36557147 0.12320489 0.086763196 -0.15745687 0.26453334 -0.094951004 0.24193864 -0.16971666
-0.3738983 -0.39881086 -0.44881344 -0.20211194 -0.3837766 -0.2854117 0.04454567 0.023767292
-0.10695048 0.43690097 -0.28745845 -0.34697953 -0.43366322 -0.30589017 -0.17842796 0.325027
-0.4125623 -0.5023235 -0.31728965 -0.11987575 0.05491505 0.31990498 -0.31766894 -0.3700407
-0.071592905 0.25325674 0.28852835 0.16984248 0.18919313 -0.37853438 -0.22529219 -0.49910054
0.38334003 0.25783134 -0.08722524 0.22160545 -0.31218028 0.3044986 0.027584642 0.11500496
-0.84834707 -0.39536208 0.010586739 0.4010114 -0.4979657 -0.4024632 -0.18565333 0.38129842
0.39607966 -0.062401168 -0.47108454 -0.24835108 0.34707445 0.22120772 -0.44511127 -0.24542926
-0.44389048 -0.4383916 -0.003986848 -0.26001185 -0.484935 0.05609164 0.14476836 -0.2184017
-0.52369153 -0.17906114 0.21227095 -0.25421354 -0.13305 -0.21284704 0.23928073 -0.060123563
-0.008784056 0.29985183 0.22701633 0.2930472 0.029626703 -0.36353523 -0.14775057 -0.3757943
-0.118355125 -0.23358756 0.6223583 0.038768355 -0.39402148 0.29461992 -0.35206652 -0.5748087
-0.10112419 0.6565582 -0.0026201096 -0.17245363 0.078983694 -0.06148156 0.04381902 0.2450342
0.08693043 -0.40989944 0.23300818 0.051810358 0.40424943 -0.018047065 -0.2082734 0.1595117
0.31470975 -0.270072 -0.18819176 0.036386278 0.39538354 -0.44663855 0.3068696 0.22328417
00000000: 2800 073e 0b14 293e 3451 ccbd f37a 8ebe
00000010: 1f7e 78be 0dd3 f2be 9686 63be 3afb 99bd
00000020: 62d0 e03e 1565 9bbe 559b 8ebe d321 9cbe
00000030: 3586 c3be e5c9 91be fd82 c2bd 47d8 7bbe
00000040: b372 693e 09e4 c2bd 66ca 003f ad89 8a3e
00000050: 1e5d bbbe 6c11 763e d165 aebd ae04 a73e
00000060: b9fe 7b3d 22e5 06bf c2e8 edbd c0b2 283d
00000070: 4fa8 d53a 185e 923d 226e 14bf 9154 f6bd
00000080: 716e ccbe 8e48 e4be a0cd 0e3e fe89 14bf
00000090: 6a11 db3e 577c 55be a599 93be ef4b 9dbe
000000a0: 2493 8a3e 4f05 253e ae85 283e 9887 c5bd
000000b0: 502e d7be bcd6 3c3e 2855 79bf 88fc ef3d
000000c0: 9788 54be 5530 a8be ab80 9d3e 20bd 583c
000000d0: 785a 1ebe c0a2 21be 9205 733e a94e 9b3e
000000e0: 6899 3e3d d829 a13e e61c e4be bf3a 62be
000000f0: 6257 da3e b0b4 a9bc 5059 d93d 8ad2 443e
00000100: 00a8 b03b c8e9 493e 0809 bebe 9910 763e
00000110: 8ec7 29be b428 3f3e a2d8 6a3c 1e97 83be
00000120: 6cbc 1bbe 99ce 61be 45ea 8fbd 5429 f43e
00000130: 7d35 c9be b835 353e 9857 b2bc 93c1 86be
00000140: 3ba6 91be 36b9 e7be 2c19 fabe 0814 cf3e
00000150: c7e6 5a3d 8a34 103e ebb8 1dbe 0586 fcbd
00000160: 5a57 acbe 63b6 86ba 4399 d2be 2a18 f7bb
00000170: 7505 ed3d cc5d 3fbe 4d80 d7be 994e 0abe
00000180: e8df e93d c39b 3e3e 6008 83bd e8c5 003e
00000190: eed8 28bf b90b b1bd e7ad b83e c3e1 13be
000001a0: 10b5 90bc 5cc4 3cbe 61ee 84bd 908f 753d
000001b0: 5440 7ebe 57f5 82be 9703 42be c86b ac3d
000001c0: 4caa 48be 9685 bb3e 4f7d 32bc e4eb cbbd
000001d0: b298 93be c2e7 81be b0ee 273e 96d2 ac3e
000001e0: d889 50bd 3005 9c3d 1181 93be 1cf9 37be
000001f0: 94f2 aa3e bb26 84be 4c13 dc3e 15ca 89be
00000200: 7be9 d6be 14af 383e 60a3 9ebc 6b11 a73e
00000210: 40c9 823d 50db c1bc 800f 7a3e b492 613e
00000220: 2f2c bbbe d852 fc3d e7b0 b13d 603c 21be
00000230: ea70 873e ac75 c2bd c3be 773e 34ca 2dbe
00000240: 996f bfbe f030 ccbe e0ca e5be 6ff6 4ebe
00000250: 5e7e c4be 7b21 92be 8575 363d a0b3 c23c
00000260: da08 dbbd 7cb1 df3e c12d 93be 4da7 b1be
00000270: 1b09 debe a39d 9cbe d2b5 36be f069 a63e
00000280: 5e3b d3be 4698 00bf ca73 a2be 6b81 f5bd
00000290: 9aee 603d 96ca a33e 81a5 a2be fa75 bdbe
000002a0: 4d9f 92bd deaa 813e fdb9 933e 30eb 2d3e
000002b0: d8bb 413e 42cf c1be ffb2 66be 1b8a ffbe
000002c0: 2545 c43e 7802 843e 26a3 b2bd 8aec 623e
000002d0: 18d6 9fbe 3ee7 9b3e 30f9 e13c b887 eb3d
000002e0: 462d 59bf e66c cabe 0074 2d3c 5e51 cd3e
000002f0: 5cf5 febe a80f cebe e81b 3ebe 8c39 c33e
00000300: f4ca ca3e 5e98 7fbd fe31 f1be bf4f 7ebe
00000310: beb3 b13e 4784 623e a0e5 e3be cf51 7bbe
00000320: 9d45 e3be dd74 e0be 1ba4 82bb 4620 85be
00000330: 6649 f8be 59c0 653d 283e 143e b2a4 5fbe
00000340: a610 06bf ce5b 37be 8e5d 593e 4728 82be
00000350: 423e 08be 93f4 59be 0206 753e 2044 76bd
00000360: 00eb 0fbc 2e86 993e f876 683e 480a 963e
00000370: b3b3 f23c 4a21 babe ed4b 17be 1c68 c0be
00000380: 2c64 f2bd 9431 6fbe e052 1f3f 91cb 1e3d
00000390: 2fbd c9be 6cd8 963e 1042 b4be aa26 13bf
000003a0: 331a cfbd 3314 283f 25b6 2bbb af97 30be
000003b0: 34c2 a13d 17d4 7bbd 937b 333d 3fea 7a3e
000003c0: 9508 b23d 57de d1be b299 6e3e 1937 543d
000003d0: c8f9 ce3e 70d7 93bc 9f45 55be 0957 233e
000003e0: a321 a13e e146 8abe 57b5 40be c709 153d
000003f0: b66f ca3e cfad e4be 031e 9d3e 9ba4 643e

weight f4 [256, 256]
0.0042271614 0.0062014386 -0.03236206 -0.039565466 0.03543713 -0.031298526 -0.0030777156 -0.008193202
-0.010317549 -0.039041452 0.0036984086 -0.008587271 0.052524924 -0.047513768 -0.0048788935 0.0029942393
0.013988078 -0.015034929 -0.0071213543 0.0029396042 0.03559439 0.047587417 -0.024184518 -0.009532347
0.053434372 0.029267207 0.0014397055 0.05462247 0.002574928 -0.057980858 -0.05082669 -0.052598506
0.027755722 -0.052633002 0.04770419 -0.0033775046 -0.05930803 0.011717573 0.038963802 0.05871959
-0.010491453 0.015582584 -0.037938125 0.007308148 0.046980694 0.059859917 -0.036797635 -0.03171885
-0.04817733 0.024866596 -0.061645687 0.024510719 -0.014857911 -0.035931557 -0.04987406 -0.028906465
-0.022990175 0.039244458 -0.061036453 -0.029347166 0.0599704 -0.041275464 0.04744886 -0.007608898
0.00703232 0.04292109 -0.014933988 0.029103793 -0.04769571 -0.01989913 -0.038443148 -0.034853846
-0.028824225 0.0036958605 -0.008505441 -0.038441822 -0.04513608 -0.02381254 0.051427953 -0.044457614
-0.051394187 0.058505908 0.0006145686 0.02106259 -0.033989035 -0.012988634 -0.04060054 -0.010215804
0.044958457 -0.021539912 0.028050773 0.0407361 -0.060556576 -0.0034945086 -0.056599595 0.028115883
-0.0063925087 -0.032833837 0.047365814 -0.0049475804 -0.038748637 -0.032212876 0.027677588 -0.042433724
0.008541681 0.049406387 -0.029916309 0.06242603 0.05295334 -0.022191167 -0.0032634437 0.013199158
0.033904657 0.02565299 -0.025231883 0.02068258 0.016105227 0.021350965 -0.01159016 0.040822417
-0.0075540394 0.028895624 -0.0026450679 0.03583683 -0.030545458 -0.050038025 -0.05691971 -0.04138972
0.0010686293 -0.03422434 -0.03866697 -0.0018020645 0.035388947 0.00032433122 -0.036539435 0.061303847
0.038141735 0.052191593 -0.043462902 -0.008544706 -0.03043934 0.014210485 0.041630596 -0.058781557
-0.012225457 -0.02863396 0.05770436 0.017734125 -0.033358857 -0.04258182 -0.014547177 0.00701607
0.015141822 -0.03014025 -0.043370627 0.045532644 -0.04480452 -0.042101815 -0.05786752 -0.06053292
-0.031136028 0.03526789 -0.05479429 -0.0010234267 0.012213685 -0.032576524 -0.0553867 -0.051902667
-0.03691888 0.0051989555 0.026811741 0.026269682 0.032257736 -0.042169183 -0.021976456 0.011603832
0.057408184 0.051769294 -0.052131273 0.015291914 0.01720532 0.027557269 0.029607706 -0.04612036
-0.057799473 0.007035412 -0.018769369 0.0032065213 -0.05061522 0.032146312 0.041345924 -0.018456213
0.03745459 -0.059116915 0.042048313 0.014436431 -0.016622052 0.025736459 0.01925429 -0.040480264
-0.0043821484 -0.059001878 0.033474043 -0.032487564 -0.0056850314 -0.0046270713 -0.026216283 0.0610675
0.046228617 -0.04780004 -0.006321162 0.015472926 -0.017040633 -0.020836048 -0.027435824 0.03581143
0.016059086 -0.04938025 -0.05759105 -0.015867002 0.026617832 0.051058576 -0.055114694 -0.03236477
-0.050882608 -0.044794664 0.024895832 -0.045901075 0.026727445 0.00975243 0.031160899 -0.010655284
0.03974241 -0.043417834 0.062370278 -0.013644524 -0.031033799 0.04802504 -0.025244668 0.0113695115
-0.021235026 0.022544466 -0.05122868 -0.060672894 -0.0012423396 0.053694464 -0.047970816 -0.05484005
0.05137209 -0.048778392 -0.024897315 0.037021354 0.018958688 0.04475499 -0.019159772 -0.055426
00000000: 0084 8a3b 7035 cb3b 148e 04bd 660f 22bd
00000010: 8626 113d e232 00bd 80b3 49bb c83c 06bc
00000020: f00a 29bc eee9 1fbd 0061 723b a0b1 0cbc
00000030: 6024 573d cc9d 42bd 20df 9fbb 003b 443b
00000040: 402e 653c 1055 76bc 405a e9bb 60a6 403b
00000050: 6ccb 113d 06eb 423d 9c1e c6bc 902d 1cbc
00000060: 00de 5a3d c8c1 ef3c 80b4 bc3a d0bb 5f3d
00000070: 20c0 283b 567d 6dbd a62f 50bd 8871 57bd
00000080: f85f e33c b495 57bd 7865 433d 2059 5dbb
00000090: faec 72bd 10fb 3f3c 8298 1f3d f483 703d
000000a0: 58e4 2bbc 184e 7f3c 0265 1bbd 3079 ef3b
000000b0: d46e 403d ac2f 753d 1eb9 16bd a0eb 01bd
000000c0: 9855 45bd 08b5 cb3c 3080 7cbd b4ca c83c
000000d0: 986e 73bc f82c 13bd be48 4cbd 40cd ecbc
000000e0: e455 bcbc ccbe 203d 5c01 7abd 7869 f0bc
000000f0: 86a3 753d 7610 29bd bc59 423d 1054 f9bb
00000100: 606f e63b 06ce 2f3d b0ad 74bc 146b ee3c
00000110: 945c 43bd 8003 a3bc 9076 1dbd e8c2 0ebd
00000120: c820 ecbc 4036 723b 685a 0bbc 2c75 1dbd
00000130: 9ce0 38bd 8412 c3bc 1ea6 523d 3019 36bd
00000140: b682 52bd e4a3 6f3d 001b 213a 748b ac3c
00000150: 1638 0bbd 48ce 54bc c04c 26bd 3060 27bc
00000160: 5c26 383d 7874 b0bc bcca e53c e6da 263d
00000170: 2c0a 78bd 2004 65bb fad4 67bd 4853 e63c
00000180: 4078 d1bb c67c 06bd a802 423d 501f a2bb
00000190: e4b6 1ebd a6f1 03bd 1cbc e23c fcce 2dbd
000001a0: 68f2 0b3c 5a5e 4a3d 0c13 f5bc 70b2 7f3d
000001b0: 9ae5 583d 40ca b5bc 80df 55bb 4841 583c
000001c0: 9cdf 0a3d 3826 d23c 18b3 cebc 846e a93c
000001d0: 1cef 833c 38e8 ae3c a8e4 3dbc 6835 273d
000001e0: e087 f7bb 84b6 ec3c e058 2dbb a4c9 123d
000001f0: 783a fabc acf4 4cbd a424 69bd 4488 29bd
00000200: 4011 8c3a d22e 0cbd 4261 1ebd 4033 ecba
00000210: 00f4 103d 000b aa39 60aa 15bd be19 7b3d
00000220: 823a 1c3d dac6 553d 2806 32bd 18ff 0bbc
00000230: ec5b f9bc 18d3 683c d884 2a3d eec4 70bd
00000240: 484d 48bc c491 eabc 685b 6c3d 2847 913c
00000250: 4ca3 08bd 466a 2ebd 4857 6ebc 10e7 e53b
00000260: 6815 783c b0e8 f6bc 66a5 31bd 7080 3a3d
00000270: f284 37bd f472 2cbd 7e06 6dbd 5ef1 77bd
00000280: fc10 ffbc 1075 103d fa6f 60bd 8024 86ba
00000290: e81b 483c f66e 05bd 2add 62bd e497 54bd
000002a0: 4038 17bd 005c aa3b 4ca4 db3c 8433 d73c
000002b0: b020 043d 98b9 2cbd f807 b4bc 001e 3e3c
000002c0: d824 6b3d 0a0c 543d 9a87 55bd f08a 7a3c
000002d0: 2cf2 8c3c c8bf e13c dc8b f23c b4e8 3cbd
000002e0: 24bf 6cbd 5089 e63b 38c2 99bc 8024 523b
000002f0: e851 4fbd daab 033d 585a 293d 7c31 97bc
00000300: fc69 193d 9424 72bd da3a 2c3d c886 6c3c
00000310: f82a 88bc 44d5 d23c 2cbb 9d3c a2ce 25bd
00000320: 2098 8fbb f4ab 71bd 141c 093d ae11 05bd
00000330: 8049 babb b09e 97bb 88c3 d6bc ea21 7a3d
00000340: 385a 3d3d fac9 43bd c021 cfbb 2882 7d3c
00000350: cc98 8bbc 5cb0 aabc 18c1 e0bc 02af 123d
00000360: 588e 833c f242 4abd 98e4 6bbd 84fb 81bc
00000370: a40d da3c cc22 513d f2bf 61bd ec90 04bd
00000380: 486a 50bd 9c7a 37bd 58f2 cb3c c402 3cbd
00000390: 84f3 da3c a8c8 1f3c 2445 ff3c 8093 2ebc
000003a0: f0c8 223d e6d6 31bd fa77 7f3d 488d 5fbc
000003b0: 983a febc e8b5 443d e8cd cebc 3047 3a3c
000003c0: 14f5 adbc 2caf b83c 2ad5 51bd 2484 78bd
000003d0: 00d6 a2ba baee 5b3d 0c7d 44bd f69f 60bd
000003e0: 8a6b 523d dacb 47bd 74f5 cbbc b4a3 173d
000003f0: 404f 9b3c 0251 373d f4f4 9cbc 6006 63bd

bias f4 [256]
0.033596613 -0.023781246 -0.004596935 0.0011549006 0.0039519235 0.061509833 -0.016085487 -0.010951203
-0.04048429 -0.06759273 -0.012618064 -0.0744466 -0.0328138 -0.06473276 0.005017448 0.018173477
0.026886458 0.015629869 -0.046074826 -0.022598414 -0.044118576 -0.03857627 -0.053183235 0.06248778
0.024460984 -0.029137649 0.020533405 -0.044104427 -0.084008895 0.006701685 -0.08339917 0.012274387
0.0051737567 -0.061456464 0.023285994 -0.055503987 0.005050794 -0.0041145934 -0.07621809 -0.021042433
0.037047647 0.02794522 -0.022801252 0.022717461 -0.05243368 0.034661394 -0.07238492 -0.018384188
0.011815434 -0.018055893 -0.07725795 0.060325824 -0.07108843 -0.04823482 -0.03195966 -0.10043708
-0.034339733 -0.051410697 -0.007989007 0.022505304 -0.051317565 0.013716076 -0.011048295 -0.09692757
-0.047371298 -0.040124945 0.000106896936 -0.08915688 0.026086539 -0.060519017 0.025777496 -0.002298085
-0.034684204 0.0072383047 -0.004153888 -0.06292209 -0.031407256 0.0026085824 -0.071239844 -0.017512614
-0.08817319 0.022791373 -0.0854752 -0.026031775 0.003995416 0.027619395 -0.025744023 -0.018201139
-0.08800925 -0.03402085 0.031097582 0.014807109 -0.04625223 -0.07356251 0.036581606 -0.010553815
-0.039416153 0.030508948 0.035761554 -0.06889374 -0.03858065 0.008093617 -0.066061765 -0.05240799
-0.07585641 -0.0039817393 -0.07248871 -0.095637314 -0.02220003 0.024182726 -0.08583563 -0.008889503
0.029581748 -0.014788322 -0.083792895 -0.012954345 0.037108682 0.011394636 -0.07761636 0.035033636
0.0031201104 -0.08708062 0.008195428 -0.092968926 -0.093861476 -0.06250356 -0.041655064 0.6476539
-0.037604526 -0.061012313 -0.04850591 -0.037764065 0.020037295 -0.019870764 -0.024382284 0.01828667
-0.025067393 -0.04757671 -0.070725344 -0.016674666 0.020364635 -0.053713895 0.012467563 -0.011174283
-0.025949262 -0.0062351427 0.0014316872 0.008313839 0.009533218 -0.053260673 -0.006043531 -0.028115155
0.009883273 0.019917263 -0.07175734 -0.006785278 -0.046007615 -0.033936903 0.033767127 0.030510593
0.019860735 -0.02699374 -0.026224338 -0.056820214 -0.0803796 -0.08568917 -0.031874284 -0.020514494
0.027541231 -0.027599879 -0.0069332053 0.017466076 0.0081442315 -0.009745636 -0.01312424 0.02615228
-0.07524982 -0.08144402 -0.07993909 -0.034759372 -0.09282531 0.022843054 -0.00013067575 0.013583796
0.04587289 -0.042719457 0.00821465 -0.007634686 0.02216809 0.0017817318 0.03847823 0.0028654893
-0.0016586185 0.01537688 -0.05646888 -0.04994792 -0.07626263 -0.055812582 -0.07309777 -0.059454367
-0.08957956 0.018744333 0.015680304 -0.01987842 -0.003007594 -0.10666111 0.011656989 0.01563472
-0.020930868 -0.088908486 0.029163823 -0.038238574 -0.05742977 0.051537845 -0.061692752 -0.027721133
-0.01690137 -0.070765436 0.022128638 0.009503655 -0.08465706 -0.05652156 0.012326228 -0.06407855
-0.015114151 -0.021555232 -0.010871671 -0.060913105 -0.0129239 -0.028999463 -0.0256728 -0.083740875
-0.051526777 -0.051508617 -0.049864963 -0.0016445657 0.032434568 -0.1041234 0.0006663799 0.027378768
0.026749255 0.051996972 -0.021031361 -0.01562275 -0.088031806 -0.0032971727 -0.06418225 -0.042889565
-0.051176794 -0.100231044 0.012559927 0.0060979715 -0.06752818 0.012451627 -0.06397628 0.009826507
00000000: 9a9c 093d e3d0 c2bc e3a1 96bb 0960 973a
00000010: 237f 813b bcf1 7b3d b6c5 83bc ad6c 33bc
00000020: dbd2 25bd 0f6e 8abd ffbb 4ebc 7677 98bd
00000030: c367 06bd 9c92 84bd 6869 a43b 8be0 943c
00000040: fd40 dc3c 360a 803c f5b8 3cbd 4f20 b9bc
00000050: aeb5 34bd 2702 1ebd aad6 59bd 30f3 7f3d
00000060: 6762 c83c 14b2 eebc ac35 a83c d8a6 34bd
00000070: db0c acbd cf99 db3b 2fcd aabd 831a 493c
00000080: 9e88 a93b c6b9 7bbd 45c2 be3c 2658 63bd
00000090: 2281 a53b b6d3 86bb 3b18 9cbd 2e61 acbc
000000a0: 46bf 173d 60ed e43c b1c9 babc f819 ba3c
000000b0: b3c4 56bd 1bf9 0d3d 8c3e 94bd 709a 96bc
000000c0: 8695 413c f4e9 93bc 6b39 9ebd 3618 773d
000000d0: d096 91bd e091 45bd 22e8 02bd f5b1 cdbd
000000e0: d2a7 0cbd 0694 52bd 53e4 02bc 0b5d b83c
000000f0: 5e32 52bd 64b9 603c e803 35bc f681 c6bd
00000100: 6808 42bd 0e5a 24bd db2d e038 e297 b6bd
00000110: 70b3 d53c cae2 77bd 542b d33c 789b 16bb
00000120: 0611 0ebd 4d2f ed3b 571d 88bb 4cdd 80bd
00000130: e5a4 00bd c0f4 2a3b 32e6 91bd 9d76 8fbc
00000140: 2594 b4bd f9b4 ba3c 9f0d afbd 9740 d5bc
00000150: fbeb 823b 1242 e23c 21e5 d2bc 8e1a 95bc
00000160: 323e b4bd 7259 0bbd 5bc0 fe3c 8499 723c
00000170: fa72 3dbd f1a7 96bd 98d6 153d e9e9 2cbc
00000180: d572 21bd e7ed f93c b57a 123d 2918 8dbd
00000190: be06 1ebd 179b 043c 644b 87bd c3a9 56bd
000001a0: 9b5a 9bbd 4079 82bb f674 94bd 7fdd c3bd
000001b0: d6dc b5bc da1a c63c 97ca afbd 47a5 11bc
000001c0: 6c55 f23c b84a 72bc 9c9b abbd 763e 54bc
000001d0: 46ff 173d 91b0 3a3c 53f5 9ebd 6e7f 0f3d
000001e0: c47a 4c3b 5357 b2bd 1e46 063c 7e66 bebd
000001f0: 723a c0bd de01 80bd 809e 2abd a5cc 253f
00000200: 3407 1abd 0ce8 79bd 22ae 46bd 7eae 1abd
00000210: 4125 a43c 03c8 a2bc 5bbd c7bc edcd 953c
00000220: 225a cdbc ccdf 42bd 73d8 90bd 4f99 88bc
00000230: bcd3 a63c 1a03 5cbd c044 4c3c 5714 37bc
00000240: 8c93 d4bc 2b50 ccbb 73a7 bb3a c536 083c
00000250: 3731 1c3c dd27 5abd d008 c6bb c151 e6bc
00000260: 74ed 213c 8729 a33c 83f5 92bd 0a57 debb
00000270: 7b72 3cbd 6c01 0bbd 664f 0a3d 5af1 f93c
00000280: fbb2 a23c fa21 ddbc 6cd4 d6bc 50bc 68bd
00000290: 0f9e a4bd ce7d afbd 9c8e 02bd 030e a8bc
000002a0: 269e e13c 2419 e2bc f12f e3bb 0415 8f3c
000002b0: 626f 053c 29ac 1fbc 0d07 57bc 4e3d d63c
000002c0: 941c 9abd 1fcc a6bd 1bb7 a3bd d85f 0ebd
000002d0: 321b bebd 5b21 bb3c 0106 09b9 928e 5e3c
000002e0: 36e5 3b3d 99fa 2ebd bd96 063c 632c fabb
000002f0: db99 b53c 0089 e93a 599b 1d3d efca 3b3b
00000300: 0066 d9ba 4fef 7b3c ea4b 67bd 3196 4cbd
00000310: 952f 9cbd bc9b 64bd 49b4 95bd 6c86 73bd
00000320: 7d75 b7bd b78d 993c fb73 803c 11d8 a2bc
00000330: 0e1b 45bb 2471 dabd f5fc 3e3c 6214 803c
00000340: 3677 abbc a715 b6bd f8e8 ee3c 0da0 1cbd
00000350: 7a3b 6bbd 5919 533d 8ab1 7cbd 6e17 e3bc
00000360: be74 8abc 78ed 90bd 1e47 b53c 38b5 1b3c
00000370: ae60 adbd 2783 67bd f3f3 493c 9d3b 83bd
00000380: 58a1 77bc 9994 b0bc 181f 32bc 0580 79bd
00000390: c4be 53bc 4890 edbc c44f d2bc 5680 abbd
000003a0: be0d 53bd b3fa 52bd 343f 4cbd 788e d7ba
000003b0: 1cda 043d a63e d5bd 00b0 2e3a 7049 e03c
000003c0: 4121 db3c c7fa 543d f649 acbc 90f6 7fbc
000003d0: 054a b4bd 6115 58bb fc71 83bd f8ac 2fbd
000003e0: c29e 51bd ef45 cdbd 27c8 4d3c 7ed1 c73b
000003f0: 374c 8abd e901 4c3c ff05 83bd 5cff 203c

weight f4 [5, 256]
-0.02003035 0.055097878 0.007172198 0.042606056 0.018348724 0.049616627 -0.05352792 -0.019206738
0.018113159 0.05387383 -0.00802282 0.025281195 0.007979402 0.035964068 0.0026920594 0.026106434
0.031753227 0.010322285 0.03464303 -0.03231683 0.007945053 0.032327734 0.060827777 -0.009059578
0.01980496 -0.07633862 -0.057820387 0.0342286 0.021931082 0.006521594 -0.01505255 -0.0037247057
-0.04822991 0.014188922 0.023218889 -0.0012306788 0.005419839 -0.04509037 -0.038659766 -0.028850168
-0.0058964044 0.035841506 -0.031080076 0.022941854 0.06137953 0.089489706 0.03471663 0.015043452
-0.0004712196 -0.017795851 -0.025595905 -0.026339449 -0.029918272 0.078695826 0.0014500346 0.031352047
0.018709537 0.052314986 0.036373198 0.024060585 -0.05496733 0.00041861832 -0.05573956 0.004577797
0.022902457 -0.0040405965 -0.049211875 0.005742356 0.008785661 0.025397098 -0.012946815 0.010431968
0.012812391 0.055867694 0.036637783 -0.0024223106 -0.029672015 -0.013662368 0.008262904 0.0131238
0.015150364 0.06001087 -0.007646628 0.029402122 -0.05244325 0.021865519 -0.01808443 0.039173685
-0.012302137 0.020888496 -0.020476613 -0.005620762 0.047015555 -0.05726663 -0.0035830066 -0.0033260225
-0.022092097 -0.006758991 0.02213104 -0.02841761 0.020972466 0.053678297 -0.010635823 -0.0038644995
0.016673716 0.051136993 -0.008336335 0.00652973 0.0047375127 0.029164897 -0.030085087 -0.04175634
0.04279325 -0.05784387 0.017800463 0.012036497 0.010862507 0.01488685 0.02206947 0.035458587
-0.0043733013 0.008445196 0.003327705 -0.023890851 0.014632948 -0.04724145 0.036064826 0.15635893
-0.03332475 -0.039098874 -0.034045786 -0.03726714 0.025497887 0.057736617 0.04019624 0.025168939
0.017799143 -0.051600058 0.0057942597 0.0034664457 -0.052268088 -0.071645714 0.02075245 -0.02736064
-0.019062499 0.012119855 -0.020540874 0.025575237 0.03257601 0.0021022074 0.0028620793 -0.0025949776
-0.0081480965 -0.032197386 0.02203472 0.0069515184 -0.026559398 -0.03905154 0.071707524 0.040363856
0.025498081 0.004736415 -0.012312144 0.052267157 -0.03393981 -0.03826887 -0.031438053 0.02985173
0.037229143 -0.020029718 0.026784176 -0.0041912864 0.010445987 -0.048920795 -0.01740046 0.069883935
-0.015662152 0.022334699 -0.022369571 0.038382486 0.015342049 -0.0032002225 0.014988377 9.30672e-05
0.009857267 0.019903028 0.013845056 0.07539369 -0.04514748 0.0031356737 -0.0046804734 0.008805451
-0.0519602 0.01037242 -0.05230496 -0.02362281 -0.0032249189 0.041149635 0.015952501 0.05900356
-0.016337084 0.06275021 0.007704477 -0.012982332 0.015821422 0.059039157 0.013647102 -0.04900767
0.030641025 0.02271405 -0.033131927 0.04622105 0.023885151 0.05159024 -0.027840037 0.07791713
0.015812052 0.014666468 0.008139403 0.01414602 -0.026917912 0.013596216 0.024036285 0.026791865
0.0035350919 0.025826478 -0.009828895 0.0010569679 0.022432962 0.08178636 -0.033258855 -0.017756838
0.057031516 0.063876 0.04287768 0.028751789 0.04085116 0.046602033 0.054287456 0.038891166
0.013454698 0.012351913 -0.012139471 0.037641205 0.059092276 0.07948024 0.04531915 -0.03594104
0.038070183 -0.033010434 0.011782459 -0.013099271 0.059952673 0.017611505 0.037828796 0.021406345
00000000: b016 a4bc 50ae 613d c204 eb3b b083 2e3d
00000010: 1050 963c ce3a 4b3d 1840 5bbd 7357 9dbc
00000020: 0c62 943c ceaa 5c3d 2572 03bc 821a cf3c
00000030: 0abc 023c 0f4f 133d 436d 303b 29dd d53c
00000040: ac0f 023d cd1e 293c dae5 0d3d a75e 04bd
00000050: f82b 023c 166a 043d 8c26 793d a06e 14bc
00000060: 033e a23c 6c57 9cbd 12d5 6cbd 4a33 0c3d
00000070: d0a8 b33c 18b3 d53b f89e 76bc 311a 74bb
00000080: ba8c 45bd a778 683c 8a35 be3c ba4e a1ba
00000090: e898 b13b aeb0 38bd b459 1ebd 3057 ecbc
000000a0: a036 c1bb 8bce 123d a59b febc 8ef0 bb3c
000000b0: 1a69 7b3d 6146 b73d 0633 0e3d d078 763c
000000c0: 060e f7b9 9bc8 91bc 81ae d1bc d4c5 d7bc
000000d0: 2a17 f5bc 472b a13d 160f be3a 016b 003d
000000e0: be44 993c 3d48 563d 10fc 143d b41a c53c
000000f0: 6c25 61bd 007a db39 2a4f 64bd 5801 963b
00000100: ef9d bb3c fb66 84bb 6492 49bd 602a bc3b
00000110: bcf1 0f3c 930d d03c e11e 54bc d8ea 2a3c
00000120: 10eb 513c 86d5 643d 8011 163d a1bf 1ebb
00000130: ba12 f3bc 20d8 5fbc 2261 073c 3505 573c
00000140: 3b39 783c f5cd 753d 9190 fabb b8dc f03c
00000150: bcce 56bd 511f b33c cc25 94bc 9674 203d
00000160: e78e 49bc 5a1e ab3c 92be a7bc 5e2e b8bb
00000170: 6293 403d 6a90 6abd e0d0 6abb 66f9 59bb
00000180: 7cfa b4bc 877a ddbb 284c b53c 0ccc e8bc
00000190: 73ce ab3c c6dd 5b3d e041 2ebc 8b43 7dbb
000001a0: 5197 883c 0675 513d 2095 08bc 58f7 d53b
000001b0: 233d 9b3b 39eb ee3c 0075 f6bc b208 2bbd
000001c0: fa47 2f3d b2ed 6cbd 47d2 913c ba34 453c
000001d0: a8f8 313c f9e7 733c 08cb b43c 063d 113d
000001e0: e94d 8fbb b85d 0a3c a015 5a3b bfb6 c3bc
000001f0: 08bf 6f3c 4080 41bd b6b8 133d 8e1c 203e
00000200: 887f 08bd 2426 20bd 9873 0bbd 6ea5 18bd
00000210: f2e0 d03c 3b7d 6c3d d0a4 243d 172f ce3c
00000220: 82cf 913c 955a 53bd c6dd bd3b 4f2d 633b
00000230: 1017 56bd fdba 92bd 0b01 aa3c 6c23 e0bc
00000240: f528 9cbc 5b92 463c 5645 a8bc 2983 d13c
00000250: 6c6e 053d 30c5 093b b991 3b3b 8010 2abb
00000260: 987f 05bc 68e1 03bd 2882 b43c 90c9 e33b
00000270: 1893 d9bc 82f4 1fbd 65db 923d 9254 253d
00000280: 5ae1 d03c ee33 9b3b e0b8 49bc 1616 563d
00000290: 7804 0bbd d2bf 1cbd 30c5 00bd 9e8b f43c
000002a0: 967d 183d 5d15 a4bc 7d6a db3c 0f57 89bb
000002b0: a525 2b3c 2c61 48bd 698b 8ebc 4f1f 8f3d
000002c0: ea4d 80bc 42f7 b63c 6440 b7bc f436 1d3d
000002d0: 385d 7b3c d3ba 51bb cf91 753c 132d c338
000002e0: 6080 213c ad0b a33c 60d6 623c 0268 9a3d
000002f0: 90ec 38bd e07f 4d3b a85e 99bb bd44 103c
00000300: 38d4 54bd 15f1 293c ba3d 56bd a084 c1bc
00000310: 2959 53bb 858c 283d d2ae 823c b8ad 713d
00000320: 59d5 85bc 2f83 803d d675 fc3b d9b3 54bc
00000330: ed9b 813c 0bd3 713d 1898 5f3c 44bc 48bd
00000340: e302 fb3c d112 ba3c 58b5 07bd 4952 3d3d
00000350: cbaa c33c 4a50 533d ca10 e4bc 0493 9f3d
00000360: 4788 813c a04b 703c 215b 053c b5c4 673c
00000370: f482 dcbc aac2 5e3c bee7 c43c 9d7a db3c
00000380: 00ad 673b 0d92 d33c 6009 21bc f589 8a3a
00000390: 55c5 b73c 9b7f a73d 703a 08bd ca76 91bc
000003a0: e199 693d 6cd1 823d 82a0 2f3d df88 eb3c
000003b0: 8c53 273d c6e1 3e3d 865c 5e3d 584c 1f3d
000003c0: 1871 5c3c ae5f 4a3c a2e4 46bc aa2d 1a3d
000003d0: be0a 723d 89c6 a23d 93a0 393d e936 13bd
000003e0: 7bef 1b3d f335 07bd 370b 413c 539e 56bc
000003f0: ef90 753d 0146 903c 5ef2 1a3d 5c5c af3c

bias f4 [5]
0.17650464 0.012404256 0.15855844 0.1679128 0.17674659
00000000: a2bd 343e 383b 4b3c 255d 223e 55f1 2b3e
00000010: 0ffd 343e

exp_avg f4 [256, 5]
-6e-45 6e-45 -6e-45 6e-45 -6e-45 -6e-45 6e-45 -6e-45
6e-45 -6e-45 0.0 0.0 0.0 0.0 0.0 -6e-45
6e-45 -6e-45 6e-45 6e-45 0.0 0.0 0.0 0.0
0.0 -6e-45 6e-45 -6e-45 6e-45 -6e-45 6e-45 6e-45
-6e-45 6e-45 -6e-45 -6e-45 6e-45 -6e-45 6e-45 6e-45
0.0 0.0 0.0 0.0 0.0 -6e-45 6e-45 -6e-45
6e-45 6e-45 0.000820246 -0.002517526 0.0026306675 -0.0036410303 -6.480994e-05 -6e-45
6e-45 -6e-45 6e-45 -6e-45 -6e-45 6e-45 -6e-45 6e-45
-6e-45 6e-45 6e-45 -6e-45 6e-45 -6e-45 6e-45 6e-45
-6e-45 6e-45 6e-45 -6e-45 6e-45 -6e-45 6e-45 -6e-45
4.7962458e-05 0.0001122468 -0.00010722704 0.00015521154 -7.118745e-06 -0.00048500765 -0.00074871734 0.00050077296
-0.0008856059 0.000329768 4.7773603e-05 0.0005287408 -0.00056948164 0.00077824586 -5.8227648e-05 6e-45
6e-45 -6e-45 6e-45 -6e-45 0.0 0.0 0.0 0.0
0.0 -5.114884e-06 0.0001812749 -0.00019472894 0.00025547927 -9.973295e-06 -6e-45 6e-45
-6e-45 6e-45 -6e-45 0.0 0.0 0.0 0.0 0.0
6e-45 6e-45 -6e-45 6e-45 6e-45 -6e-45 6e-45 -6e-45
6e-45 6e-45 3.6581198e-06 -0.00029523933 0.0005821943 -0.0006530066 1.5164041e-05 0.0
0.0 0.0 0.0 0.0 -6e-45 6e-45 -6e-45 6e-45
-6e-45 0.0 0.0 0.0 0.0 0.0 6e-45 6e-45
-6e-45 6e-45 -6e-45 -6e-45 6e-45 -6e-45 6e-45 6e-45
-6e-45 6e-45 -6e-45 6e-45 -6e-45 -6e-45 6e-45 -6e-45
6e-45 -6e-45 0.0 0.0 0.0 0.0 0.0 -6e-45
6e-45 -6e-45 6e-45 -6e-45 0.0 0.0 0.0 0.0
0.0 -6e-45 6e-45 -6e-45 6e-45 -6e-45 6e-45 6e-45
-6e-45 6e-45 -6e-45 6e-45 6e-45 -6e-45 6e-45 -6e-45
6e-45 6e-45 -6e-45 6e-45 6e-45 -6e-45 6e-45 -6e-45
6e-45 -6e-45 -3.5694842e-07 -5.690923e-06 1.15590865e-05 -1.2945562e-05 4.1531248e-07 0.0
0.0 0.0 0.0 0.0 -6e-45 6e-45 -6e-45 6e-45
-6e-45 0.0 0.0 0.0 0.0 0.0 -1.2528232e-06 0.0003657359
-0.00088536384 0.0009586262 -3.2920296e-05 6e-45 6e-45 -6e-45 6e-45 -6e-45
1.7457942e-05 -0.00028475752 0.00023880767 -0.0003691538 2.2000775e-05 -6e-45 6e-45 -6e-45
6e-45 -6e-45 -4.7468149e-07 7.998927e-06 4.3296095e-07 7.831584e-06 -2.5017656e-07 0.0
00000000: 0400 0080 0400 0000 0400 0080 0400 0000
00000010: 0400 0080 0400 0080 0400 0000 0400 0080
00000020: 0400 0000 0400 0080 0000 0000 0000 0000
00000030: 0000 0000 0000 0000 0000 0000 0400 0080
00000040: 0400 0000 0400 0080 0400 0000 0400 0000
00000050: 0000 0000 0000 0000 0000 0000 0000 0000
00000060: 0000 0000 0400 0080 0400 0000 0400 0080
00000070: 0400 0000 0400 0080 0400 0000 0400 0000
00000080: 0400 0080 0400 0000 0400 0080 0400 0080
00000090: 0400 0000 0400 0080 0400 0000 0400 0000
000000a0: 0000 0000 0000 0000 0000 0000 0000 0000
000000b0: 0000 0000 0400 0080 0400 0000 0400 0080
000000c0: 0400 0000 0400 0000 c705 573a 14fd 24bb
000000d0: 4767 2c3b 5a9e 6ebb 92ea 87b8 0400 0080
000000e0: 0400 0000 0400 0080 0400 0000 0400 0080
000000f0: 0400 0080 0400 0000 0400 0080 0400 0000
00000100: 0400 0080 0400 0000 0400 0000 0400 0080
00000110: 0400 0000 0400 0080 0400 0000 0400 0000
00000120: 0400 0080 0400 0000 0400 0000 0400 0080
00000130: 0400 0000 0400 0080 0400 0000 0400 0080
00000140: 4c2b 4938 0b66 eb38 14df e0b8 48c0 2239
00000150: 8edd eeb6 a048 feb9 9245 44ba 4e46 033a
00000160: 0228 68ba b6e4 ac39 8460 4838 329b 0a3a
00000170: 4449 15ba 3203 4c3a 7639 74b8 0400 0000
00000180: 0400 0000 0400 0080 0400 0000 0400 0080
00000190: 0000 0000 0000 0000 0000 0000 0000 0000
000001a0: 0000 0000 85a0 abb6 9c14 3e39 2730 4cb9
000001b0: d9f1 8539 fa52 27b7 0400 0080 0400 0000
000001c0: 0400 0080 0400 0000 0400 0080 0000 0000
000001d0: 0000 0000 0000 0000 0000 0000 0000 0000
000001e0: 0400 0000 0400 0000 0400 0080 0400 0000
000001f0: 0400 0000 0400 0080 0400 0000 0400 0080
00000200: 0400 0000 0400 0000 057e 7536 5aca 9ab9
00000210: 669e 183a 882e 2bba 0f69 7e37 0000 0000
00000220: 0000 0000 0000 0000 0000 0000 0000 0000
00000230: 0400 0080 0400 0000 0400 0080 0400 0000
00000240: 0400 0080 0000 0000 0000 0000 0000 0000
00000250: 0000 0000 0000 0000 0400 0000 0400 0000
00000260: 0400 0080 0400 0000 0400 0080 0400 0080
00000270: 0400 0000 0400 0080 0400 0000 0400 0000
00000280: 0400 0080 0400 0000 0400 0080 0400 0000
00000290: 0400 0080 0400 0080 0400 0000 0400 0080
000002a0: 0400 0000 0400 0080 0000 0000 0000 0000
000002b0: 0000 0000 0000 0000 0000 0000 0400 0080
000002c0: 0400 0000 0400 0080 0400 0000 0400 0080
000002d0: 0000 0000 0000 0000 0000 0000 0000 0000
000002e0: 0000 0000 0400 0080 0400 0000 0400 0080
000002f0: 0400 0000 0400 0080 0400 0000 0400 0000
00000300: 0400 0080 0400 0000 0400 0080 0400 0000
00000310: 0400 0000 0400 0080 0400 0000 0400 0080
00000320: 0400 0000 0400 0000 0400 0080 0400 0000
00000330: 0400 0000 0400 0080 0400 0000 0400 0080
00000340: 0400 0000 0400 0080 9ea2 bfb4 a8f4 beb6
00000350: e6ed 4137 c430 59b7 1df8 de34 0000 0000
00000360: 0000 0000 0000 0000 0000 0000 0000 0000
00000370: 0400 0080 0400 0000 0400 0080 0400 0000
00000380: 0400 0080 0000 0000 0000 0000 0000 0000
00000390: 0000 0000 0000 0000 ad26 a8b5 3ec0 bf39
000003a0: c317 68ba 514c 7b3a e613 0ab8 0400 0000
000003b0: 0400 0000 0400 0080 0400 0000 0400 0080
000003c0: a572 9237 824b 95b9 7268 7a39 fc8a c1b9
000003d0: 4e8e b837 0400 0080 0400 0000 0400 0080
000003e0: 0400 0000 0400 0080 bad7 feb4 2133 0637
000003f0: b371 e834 6664 0337 0150 86b4 0000 0000

exp_avg_sq f4 [256, 5]
3.6577054e-13 5.65736e-11 4.0267338e-11 9.681733e-11 3.6948323e-13 8.712664e-34 9.332661e-31 4.9199724e-31
1.4272668e-30 5.715111e-33 0.0 0.0 0.0 0.0 0.0 4.201261e-28
4.5914253e-26 4.200493e-26 8.8389066e-26 2.1251794e-28 0.0 0.0 0.0 0.0
0.0 1.8216501e-37 9.311346e-37 9.26007e-37 1.85715e-36 1.061977e-38 2.8069126e-38 7.5640077e-35
2.570842e-34 3.3272404e-34 7.41866e-37 1.6253659e-18 3.9821755e-17 3.797896e-17 7.7793405e-17 3.8718334e-19
0.0 0.0 0.0 0.0 0.0 5.4109727e-35 5.6631626e-34 6.6444226e-34
1.2313336e-33 2.7216524e-36 1.879478e-05 0.0001352941 0.00013076744 0.0002660578 8.545034e-07 3.4594634e-29
3.030882e-27 6.877984e-27 9.954766e-27 1.306675e-29 1.1895735e-31 1.0093959e-28 9.8646054e-29 2.022741e-28
5.8633545e-31 1.0325527e-21 8.858581e-21 5.173684e-21 1.4072674e-20 4.274693e-23 1.0742769e-28 1.1644143e-27
8.418727e-28 2.0029704e-27 4.5946708e-30 4.2824484e-11 2.5230562e-10 1.9523895e-10 4.475188e-10 2.2066147e-12
8.9661135e-06 6.212148e-05 4.2155312e-05 0.0001042819 3.2836212e-07 2.8928882e-06 0.00030047525 0.0002669422
0.0005672388 1.9812728e-06 4.080595e-08 6.6110006e-05 6.455654e-05 0.0001306747 4.7591425e-07 8.29256e-40
1.1809057e-38 1.4090863e-38 2.581762e-38 1.5194e-40 0.0 0.0 0.0 0.0
0.0 2.898774e-08 1.4156785e-05 4.5083907e-06 1.869898e-05 7.626408e-08 2.3745384e-24 2.7610032e-20
3.7919595e-22 2.7986994e-20 2.0713849e-22 0.0 0.0 0.0 0.0 0.0
7.3831324e-28 3.169683e-26 2.966432e-26 6.164091e-26 1.7271115e-28 3.0766429e-12 1.6315243e-11 1.6066613e-11
3.23809e-11 2.155703e-13 2.200629e-08 1.1312414e-05 3.6130292e-05 4.707441e-05 7.2120685e-08 0.0
0.0 0.0 0.0 0.0 5.7588427e-21 8.584765e-17 1.4647825e-18 8.730462e-17
5.363539e-19 0.0 0.0 0.0 0.0 0.0 9.295054e-28 2.8280665e-24
1.3105375e-25 2.9590287e-24 1.944577e-26 5.9907617e-37 5.2906673e-36 5.766215e-36 1.1056945e-35 1.365012e-39
7.646505e-26 1.9560988e-22 2.194181e-24 1.9779232e-22 1.0305463e-24 3.0993307e-23 1.7304885e-21 1.0608426e-20
1.2339873e-20 1.30559414e-23 0.0 0.0 0.0 0.0 0.0 1.5540068e-30
7.1883645e-28 5.6889255e-27 6.4097056e-27 5.481725e-30 0.0 0.0 0.0 0.0
0.0 1.8242509e-26 3.7238113e-23 2.993839e-22 3.366419e-22 2.9740986e-25 1.5576413e-31 7.404948e-29
2.2387529e-29 9.6438264e-29 4.550763e-31 3.5788578e-27 6.7848365e-24 6.10962e-23 6.7873384e-23 7.265094e-26
3.8500618e-22 2.6266303e-20 2.719041e-20 5.3542248e-20 1.7050476e-22 3.9083542e-22 1.3131601e-19 5.5364083e-21
1.3685358e-19 6.5668634e-22 2.3740022e-08 5.714146e-07 1.0778887e-06 1.6493253e-06 3.834637e-09 0.0
0.0 0.0 0.0 0.0 6.6815564e-24 2.2265024e-19 9.942618e-22 2.236489e-19
1.3807885e-21 0.0 0.0 0.0 0.0 0.0 1.18118e-06 0.00010304467
0.0005596342 0.00066264544 7.1198497e-07 3.8370368e-24 2.9789663e-23 2.068677e-23 5.0564088e-23 1.9587789e-25
1.3628507e-08 1.0413666e-05 9.50768e-06 1.9922558e-05 7.023243e-08 1.7130849e-20 2.2647458e-19 5.6333197e-19
7.910865e-19 1.6216683e-21 2.14345e-09 9.317441e-08 2.1066015e-08 1.14231455e-07 5.452908e-10 0.0
00000000: 17e9 cd2a 36d0 782e fe18 312e 50e7 d42e
00000010: 2500 d02a 93c3 9008 5b6e 970d 88a9 1f0d
00000020: 5896 e70d 7c65 ed09 0000 0000 0000 0000
00000030: 0000 0000 0000 0000 0000 0000 ae24 0512
00000040: 3b5b 6315 93ff 4f15 3ad7 da15 02b3 8611
00000050: 0000 0000 0000 0000 0000 0000 0000 0000
00000060: 0000 0000 3ef3 7702 a26c 9e03 4b8d 9d03
00000070: 25fd 1d04 99a3 7300 a7d2 1801 f815 c906
00000080: 9cdc aa07 1022 dd07 a571 7c03 96dc ef21
00000090: 3ba5 3724 a425 2f24 1f61 b324 7e8d e420
000000a0: 0000 0000 0000 0000 0000 0000 0000 0000
000000b0: 0000 0000 2cd9 8f06 dc30 3c08 7fcc 5c08
000000c0: 2497 cc08 5788 6704 7ca9 9d37 bcdd 0d39
000000d0: 9e1e 0939 ac7d 8b39 0761 6535 676a 2f10
000000e0: 9721 7013 863b 0814 a92c 4514 3983 840f
000000f0: 5c6a 1a0c 8ae9 ff10 f318 fa10 d934 8011
00000100: d846 3e0d f308 9c1c 7855 271e cd74 c31d
00000110: a3e9 841e 23b6 4e1a 472e 0811 4182 b812
00000120: 6a66 8512 11b1 1e13 ca61 ba0e 1558 3c2e
00000130: dcb4 8a2f e1aa 562f ac06 f62f d646 1b2c
00000140: 2a6d 1637 3747 8238 eccf 3038 ebb1 da38
00000150: bf49 b034 7123 4236 1b89 9d39 60f4 8b39
00000160: c0b2 143a 02f6 0436 9e42 2f33 8aa4 8a38
00000170: 8762 8738 b905 0939 2881 ff34 a107 0900
00000180: d996 8000 986f 9900 8390 0c01 8ca7 0100
00000190: 0000 0000 0000 0000 0000 0000 0000 0000
000001a0: 0000 0000 b700 f932 ee82 6d37 c846 9736
000001b0: c1db 9c37 9fc6 a333 94b8 3718 7b62 021f
000001c0: bb35 e51b 332a 041f 426a 7a1b 0000 0000
000001d0: 0000 0000 0000 0000 0000 0000 0000 0000
000001e0: 16fb 6912 81f4 1c15 fee3 1215 919d 9815
000001f0: f9ef 5a11 df7f 582c a982 8f2d cc52 8d2d
00000200: a769 0e2e e9b5 722a 5808 bd32 73ca 3d37
00000210: 9b8a 1738 c371 4538 c4e0 9a33 0000 0000
00000220: 0000 0000 0000 0000 0000 0000 0000 0000
00000230: 1c90 d91d 82f3 c524 eb29 d821 8d4f c924
00000240: c14d 1e21 0000 0000 0000 0000 0000 0000
00000250: 0000 0000 0000 0000 3849 9312 a1cf 5a18
00000260: 973c 2216 9af1 6418 e294 c014 e5da 4b03
00000270: 440a e104 8544 f504 bc27 6b05 19dd 0e00
00000280: 7c51 bd15 537a 6c1b 3bc4 2918 c21d 6f1b
00000290: 2578 9f17 dbdf 151a 84c0 021d 3363 481e
000002a0: f717 691e e489 7c19 0000 0000 0000 0000
000002b0: 0000 0000 0000 0000 0000 0000 eb26 fc0d
000002c0: f1ce 6312 8f5c e113 23ea fd13 7d5d de0e
000002d0: 0000 0000 0000 0000 0000 0000 0000 0000
000002e0: 0000 0000 41aa b414 8d12 341a 6af7 b41b
000002f0: d07c cb1b 7916 b816 8331 4a0c dcbc bb10
00000300: 5909 e30f 0380 f410 43ae 130d eec5 8d13
00000310: e23c 0319 b7b8 931a 971b a41a 01e0 b315
00000320: d2b8 e81b 0614 f81e 3067 001f 9bd8 7c1f
00000330: ab20 4e1b da3e ec1b d407 1b20 db28 d11d
00000340: 7591 2120 a578 461c dcec cb32 5063 1935
00000350: f9ab 9035 635e dd35 d3c1 8331 0000 0000
00000360: 0000 0000 0000 0000 0000 0000 0000 0000
00000370: 773d 0119 f46d 8320 a43f 961c de04 8420
00000380: aba8 d01c 0000 0000 0000 0000 0000 0000
00000390: 0000 0000 0000 0000 0989 9e35 b019 d838
000003a0: 6ab4 123a 62b5 2d3a 3c1f 3f35 2c70 9418
000003b0: d10d 101a f611 c819 4f83 741a 2e7c 7216
000003c0: cf22 6a32 5bb6 2e37 2d83 1f37 5e1f a737
000003d0: b0d2 9633 dacb a11e dfaf 8520 2944 2621
000003e0: ce7c 6921 410f f51c f94b 1331 2c17 c833
000003f0: a8f4 b432 684f f533 6ee3 1530 0000 0000

exp_avg f4 [256]
6e-45 6e-45 0.0 6e-45 0.0 6e-45 6e-45 6e-45
0.0 6e-45 -9.304285e-05 6e-45 6e-45 6e-45 6e-45 6e-45
3.9989627e-06 -3.1041985e-05 2.0545784e-05 6e-45 0.0 6.406625e-06 6e-45 0.0
6e-45 6e-45 -1.1563852e-05 0.0 6e-45 0.0 6e-45 6e-45
6e-45 6e-45 0.0 6e-45 0.0 6e-45 6e-45 6e-45
6e-45 6e-45 -2.1572319e-07 0.0 6e-45 0.0 1.451662e-05 6e-45
-9.818456e-06 6e-45 3.0763974e-07 0.0 0.0 6e-45 6e-45 6e-45
0.0 0.0 0.0 0.0 0.0 0.0 0.0 6e-45
0.0 0.0 6e-45 6e-45 6e-45 0.0 6e-45 6e-45
0.0 6e-45 -0.00015797287 0.0001080903 0.0 0.0 6e-45 0.0
6e-45 6e-45 6e-45 3.7966816e-05 6e-45 6e-45 6e-45 6e-45
0.0 -0.00032194992 0.0 6e-45 6e-45 -6.531933e-06 6e-45 6e-45
0.0 3.7167956e-05 0.0 0.0 6e-45 6e-45 6e-45 6e-45
0.0 0.0 6e-45 0.0 6e-45 6e-45 9.370644e-06 0.0
6e-45 -1.8602506e-05 7.761712e-05 0.0 6e-45 -3.374138e-05 0.0 0.0
0.0 6e-45 0.0 6e-45 0.0 0.0 0.0 6e-45
6e-45 0.0 0.0 6e-45 0.0 1.6600314e-06 1.5898582e-05 6e-45
6e-45 0.0 6e-45 0.0 6e-45 0.0 6e-45 0.0
6e-45 6e-45 -5.497626e-06 0.00011109244 0.0 0.0 6e-45 0.0
6e-45 0.0 6e-45 0.0 6e-45 6e-45 0.0 0.0
0.0 6e-45 6e-45 6e-45 7.114565e-05 0.0 6e-45 0.0
-6.9154835e-06 -4.1011384e-07 0.000108164764 0.0 0.0 0.0 -0.00025960125 6e-45
6e-45 0.0 6e-45 6e-45 0.0 0.0 0.0 0.0
6e-45 6e-45 0.0 6e-45 6e-45 6e-45 0.0 0.0
0.0 6e-45 6e-45 6e-45 6e-45 -3.7393231e-06 0.0 0.0
6e-45 6e-45 -0.00029260453 0.0 6e-45 6e-45 0.0 6e-45
6e-45 6e-45 6e-45 6e-45 9.896123e-05 -7.9062065e-06 6e-45 0.00010191344
0.0 0.0 9.467191e-05 0.0 -3.898057e-06 0.0 6e-45 0.0
0.0 6e-45 0.00011093143 6e-45 0.0 6e-45 6e-45 -2.1811113e-05
6e-45 0.00019221328 6e-45 0.00010134849 6e-45 6e-45 6e-45 6e-45
6e-45 6e-45 6e-45 6e-45 0.0 0.0 1.788197e-05 1.420161e-07
6e-45 1.8109125e-09 6e-45 6e-45 0.0 0.0 5.295011e-07 6e-45
00000000: 0400 0000 0400 0000 0000 0000 0400 0000
00000010: 0000 0000 0400 0000 0400 0000 0400 0000
00000020: 0000 0000 0400 0000 0020 c3b8 0400 0000
00000030: 0400 0000 0400 0000 0400 0000 0400 0000
00000040: d42e 8636 1433 02b8 bc59 ac37 0400 0000
00000050: 0000 0000 7df8 d636 0400 0000 0000 0000
00000060: 0400 0000 0400 0000 5e02 42b7 0000 0000
00000070: 0400 0000 0000 0000 0400 0000 0400 0000
00000080: 0400 0000 0400 0000 0000 0000 0400 0000
00000090: 0000 0000 0400 0000 0400 0000 0400 0000
000000a0: 0400 0000 0400 0000 8aa1 67b4 0000 0000
000000b0: 0400 0000 0000 0000 688c 7337 0400 0000
000000c0: f3b9 24b7 0400 0000 af29 a534 0000 0000
000000d0: 0000 0000 0400 0000 0400 0000 0400 0000
000000e0: 0000 0000 0000 0000 0000 0000 0000 0000
000000f0: 0000 0000 0000 0000 0000 0000 0400 0000
00000100: 0000 0000 0000 0000 0400 0000 0400 0000
00000110: 0400 0000 0000 0000 0400 0000 0400 0000
00000120: 0000 0000 0400 0000 85a5 25b9 8aae e238
00000130: 0000 0000 0000 0000 0400 0000 0000 0000
00000140: 0400 0000 0400 0000 0400 0000 8f3e 1f38
00000150: 0400 0000 0400 0000 0400 0000 0400 0000
00000160: 0000 0000 63cb a8b9 0000 0000 0400 0000
00000170: 0400 0000 e12c dbb6 0400 0000 0400 0000
00000180: 0000 0000 cae4 1b38 0000 0000 0000 0000
00000190: 0400 0000 0400 0000 0400 0000 0400 0000
000001a0: 0000 0000 0000 0000 0400 0000 0000 0000
000001b0: 0400 0000 0400 0000 9c36 1d37 0000 0000
000001c0: 0400 0000 940c 9cb7 60c6 a238 0000 0000
000001d0: 0400 0000 8885 0db8 0000 0000 0000 0000
000001e0: 0000 0000 0400 0000 0000 0000 0400 0000
000001f0: 0000 0000 0000 0000 0000 0000 0400 0000
00000200: 0400 0000 0000 0000 0000 0000 0400 0000
00000210: 0000 0000 3fce de35 f25d 8537 0400 0000
00000220: 0400 0000 0000 0000 0400 0000 0000 0000
00000230: 0400 0000 0000 0000 0400 0000 0000 0000
00000240: 0400 0000 0400 0000 3f78 b8b6 4dfa e838
00000250: 0000 0000 0000 0000 0400 0000 0000 0000
00000260: 0400 0000 0000 0000 0400 0000 0000 0000
00000270: 0400 0000 0400 0000 0000 0000 0000 0000
00000280: 0000 0000 0400 0000 0400 0000 0400 0000
00000290: 0834 9538 0000 0000 0400 0000 0000 0000
000002a0: 8d0b e8b6 9e2d dcb4 84d6 e238 0000 0000
000002b0: 0000 0000 0000 0000 171b 88b9 0400 0000
000002c0: 0400 0000 0000 0000 0400 0000 0400 0000
000002d0: 0000 0000 0000 0000 0000 0000 0000 0000
000002e0: 0400 0000 0400 0000 0000 0000 0400 0000
000002f0: 0400 0000 0400 0000 0000 0000 0000 0000
00000300: 0000 0000 0400 0000 0400 0000 0400 0000
00000310: 0400 0000 15f1 7ab6 0000 0000 0000 0000
00000320: 0400 0000 0400 0000 b768 99b9 0000 0000
00000330: 0400 0000 0400 0000 0000 0000 0400 0000
00000340: 0400 0000 0400 0000 0400 0000 0400 0000
00000350: 6889 cf38 e6a4 04b7 0400 0000 5dba d538
00000360: 0000 0000 0000 0000 988a c638 0000 0000
00000370: 0ecc 82b6 0000 0000 0400 0000 0000 0000
00000380: 0000 0000 0400 0000 dca3 e838 0400 0000
00000390: 0000 0000 0400 0000 0400 0000 02f7 b6b7
000003a0: 0400 0000 dc8c 4939 0400 0000 0e8b d438
000003b0: 0400 0000 0400 0000 0400 0000 0400 0000
000003c0: 0400 0000 0400 0000 0400 0000 0400 0000
000003d0: 0000 0000 0000 0000 3d01 9637 177d 1834
000003e0: 0400 0000 d2e3 f830 0400 0000 0400 0000
000003f0: 0000 0000 0000 0000 0a23 0e35 0400 0000
